metadata/weights/pytorch_models/2024_HHUL_all_kl/model_SvB_ggF_all_kl__kfolds_3__offset_1__138d3141-7617-4270-b69e-222efa0136a6.pkl (torch, 114438 bytes, 118 tensors)

inputEmbed.ancillaryEmbed.m f4 [1, 1, 1, 4]
00000000: a47c 8741 c094 053f 279b 5140 f0a4 9b3f
16.93586 0.521801 3.2750947 1.215971

inputEmbed.ancillaryEmbed.s f4 [1, 1, 1, 4]
00000000: 3a0b 5b3f e584 f83e 2233 3940 6a29 6440
0.85564005 0.4853889 2.893746 3.5650277

inputEmbed.ancillaryEmbed.conv.module.weight f4 [4, 4, 1]
00000000: 95c7 1f3e 1424 703e c77f 62be b84b e1bc
00000010: acd0 75bc adbf 2bbd b1e5 4abd e8c7 cebc
00000020: 213b 473c 7515 323d 09d1 f6bd 0f70 b7bd
00000030: f6b5 10bd d39f ae3e 29a0 213c ae5d 543b
0.15603478 0.23451263 -0.22119056 -0.027501926 -0.0150033645 -0.041930843 -0.049535457 -0.025241807
0.0121600935 0.043477494 -0.12051589 -0.0895692 -0.03532978 0.3410631 0.009864845 0.003240447

inputEmbed.jetEmbed.m f4 [1, 1, 1, 4]
00000000: 486e 9140 d09b f23e 6dde 6c3f 00bc 2a40
4.544712 0.473845 0.92526895 2.6677246

inputEmbed.jetEmbed.s f4 [1, 1, 1, 4]
00000000: f642 ec3e a91a 663f 238c 4a3f 2e17 b93e
0.46144837 0.8988443 0.7912008 0.36150497

inputEmbed.jetEmbed.conv.bias f4 [1, 8, 1]
00000000: 1ff2 1cbe 9174 8e3e a699 a33e d919 503e
00000010: 5121 323d cbe1 c13e c64e 803e b7eb 903f
-0.15326737 0.27823308 0.31953162 0.2032236 0.043488804 0.3786758 0.250601 1.1321934

inputEmbed.jetEmbed.conv.module.weight f4 [4, 4, 1]
00000000: d611 f73c 91a1 8d3b 45e2 81be ce95 3b3f
00000010: 7e62 d2bf fb1d 843d f641 11bf 9c59 2b3f
00000020: ee0d 4b3f d7cd d03d 09da 67be db7b adbf
00000030: cc58 763f a136 063e cf07 633f 3b1a 50bf
0.030159872 0.0043222387 -0.25367942 0.7327546 -1.6436307 0.06451031 -0.56741273 0.6693361
0.7931813 0.10195511 -0.22641768 -1.3553423 0.96229243 0.13106777 0.8868379 -0.81290025

inputEmbed.jetConv.m f4 [1, 1, 1, 8]
00000000: 3444 0d3e 35c6 db3e e097 c53e dd24 503e
00000010: 9701 313e 68af e63e aca4 8f3e 00bb 8f3f
0.13795549 0.42924657 0.38592434 0.20326562 0.17285763 0.450557 0.28055322 1.1228943

inputEmbed.jetConv.s f4 [1, 1, 1, 8]
00000000: 3c94 143f 7ee0 2b3f eb1c 0c3f 4889 213f
00000010: e962 f73e e85c 4d3f a581 133f c418 573f
0.5803869 0.6713942 0.54731625 0.631001 0.4831765 0.8021989 0.57619697 0.84022164

inputEmbed.jetConv.conv.bias f4 [1, 8, 1]
00000000: 378e bdbc 23bb ccbf e003 e2bd f6e4 26bf
00000010: 0994 aa3e 63ca 2dbf 2d55 71bf 8ef8 8cbd
-0.023139102 -1.599461 -0.11035895 -0.65193117 0.33316067 -0.6788694 -0.9427059 -0.068833455

inputEmbed.jetConv.conv.module.weight f4 [4, 8, 1]
00000000: 82c1 b13e 2b7c f23e dfe4 f3be a305 abbe
00000010: 43f4 4fbf 7dce 18be 81fb 353f 97eb d23d
00000020: f0a4 a23e a9e9 93be fd85 2ebe b589 143f
00000030: 8a2b 16bf 2a41 b13e cd8a a93e bad2 d3be
00000040: b448 b23e c17f 2c3e e2db 3c3e 5066 5c3b
00000050: ac67 a4be 8184 14bf 6ac2 b63e 52ab babd
00000060: bc2d afbd 72ee 4c3f 70fd 613d 2484 d63d
00000070: 1f56 5f3e f27d 46bf d423 033f e522 74bd
0.34717947 0.47360358 -0.47635552 -0.33402738 -0.8123209 -0.14922519 0.7108689 0.102988414
0.31766462 -0.28889206 -0.170433 0.58022624 -0.58660185 0.3462003 0.3311371 -0.4137171
0.34821093 0.16845609 0.18443254 0.003363032 -0.32110345 -0.58014685 0.356952 -0.09114708
-0.08553645 0.8005134 0.055173337 0.104744226 0.21810196 -0.7753593 0.51226544 -0.05960359

inputEmbed.othJetEmbed.m f4 [1, 1, 1, 4]
00000000: 3aa5 8c40 323f bf3e a78f 2440 1fc4 c53f
4.3951693 0.37352902 2.5712678 1.5450476

inputEmbed.othJetEmbed.s f4 [1, 1, 1, 4]
00000000: 1424 193f bf37 8f3f 5ab7 e23e a040 3d3f
0.59820676 1.1188887 0.4428051 0.73926735

inputEmbed.othJetEmbed.conv.bias f4 [1, 8, 1]
00000000: 5888 5c3f 810a 50be af50 8e3e 9d75 1ebf
00000010: 6780 0f3f d047 a3be 3e6a 893f 15fb 0ebd
0.86145544 -0.20316507 0.27795932 -0.61898214 0.560553 -0.31890726 1.0735548 -0.03490742

inputEmbed.othJetEmbed.conv.module.weight f4 [4, 4, 1]
00000000: 156e b23f 0790 f4bd 1f2a 44bf 5746 263e
00000010: 973b d63f 8188 9a3c ac02 83be 76ef d93e
00000020: 5c79 2b3f 1e4b 73bd e163 bfbf 2f27 88bf
00000030: a3e6 9c3f 4ffa 97bb dc11 a33e 40cb 46bf
1.3939844 -0.119415335 -0.7662677 0.1623777 1.6736935 0.018863918 -0.25587976 0.42565507
0.66982055 -0.05939781 -1.4952356 -1.0636958 1.2257885 -0.0046379934 0.31849563 -0.77653885

inputEmbed.othJetConv.m f4 [1, 1, 1, 8]
00000000: 56c0 643f 208c b23e 7c40 133f 36ba 093e
00000010: 9a98 e53e 27bb 883e a974 973f b9b3 953e
0.8935598 0.34872532 0.5752027 0.1344994 0.44842988 0.26705286 1.1832477 0.2923868

inputEmbed.othJetConv.s f4 [1, 1, 1, 8]
00000000: de48 5b3f 1691 493f 4e37 9f3f b754 433f
00000010: 0e21 3c3f 503c 6b3f 6c97 8b3f 612e 163f
0.8565806 0.7873701 1.2438753 0.7630114 0.7348794 0.91888905 1.0905585 0.5866452

inputEmbed.othJetConv.conv.bias f4 [1, 8, 1]
00000000: d460 873f 598f 413f 0133 363f 1936 7e3f
00000010: 1d63 30bf 7398 b0be b5d6 4f3f 71ce af3f
1.0576425 0.75609356 0.71171576 0.99301296 -0.68901235 -0.3449131 0.8118699 1.3734876

inputEmbed.othJetConv.conv.module.weight f4 [4, 8, 1]
00000000: 365f 073d 965f aa3c 5504 393f 1549 72bc
00000010: 9e31 3f3e 5e90 c83e 1581 3d3e b098 33bf
00000020: f1eb 243e 192f 8e3f a72f e4be bea0 833e
00000030: b4c3 b63e 3b80 46bf 59bc ff3d a5f4 9cbe
00000040: f278 13be 380a f0be 5461 eb3d 2df3 28bf
00000050: c5e5 8e3b d942 0b3f 8a83 8fbd f224 1a3f
00000060: b642 8dbe 48a2 2fbe c2ce 82bf d063 06bf
00000070: 741c debd 94f7 cb3f a1b5 323c 9a59 fc3e
0.033049785 0.020797532 0.72272235 -0.014787932 0.18671271 0.39172643 0.18506272 -0.7015486
0.1610563 1.1108123 -0.44567606 0.25708574 0.35696185 -0.77539414 0.12487096 -0.306554
-0.14401606 -0.46882796 0.11493173 -0.65996057 0.0043608868 0.54398876 -0.07007511 0.60212624
-0.2758996 -0.17151749 -1.0219347 -0.5249605 -0.10845271 1.593493 0.0109075615 0.4928711

inputEmbed.MdPhi_embed.m f4 [1, 1, 1, 3]
00000000: a327 ab40 bbf8 e83f 2df2 dd3e
5.3485885 1.8200907 0.43348828

inputEmbed.MdPhi_embed.s f4 [1, 1, 1, 3]
00000000: f048 2f3f 1512 6d3f 92b9 fd3e
0.6847067 0.92605716 0.4955564

inputEmbed.MdPhi_embed.conv.bias f4 [1, 8, 1]
00000000: fe3e 3d3f f41a da3f f69a a03f 726e a63f
00000010: 0cc1 833f 693f 97bf 3361 e53f d513 a23f
0.73924243 1.7039475 1.254729 1.3002455 1.0293288 -1.1816226 1.7920288 1.2662302

inputEmbed.MdPhi_embed.conv.module.weight f4 [4, 3, 1]
00000000: 86ae 8abd 36f2 ad3f ba75 36be bb6a 0f40
00000010: ad41 8bbe a6e0 6dbe e99d 51bf 5b21 42bf
00000020: 902e ccbe b079 c53d 8022 afbf 9411 01bf
-0.06771569 1.3589542 -0.17818347 2.2408893 -0.27198544 -0.23230228 -0.81881577 -0.75832146
-0.39879274 0.09642351 -1.3682404 -0.5041745

inputEmbed.MdPhi_conv.m f4 [1, 1, 1, 8]
00000000: 8949 533f 2f36 d03f 0050 b53f 79b8 a03f
00000010: 91a1 813f dcc6 153e 6fab d83f 41a7 993f
0.8253408 1.6266536 1.4165039 1.2556297 1.0127431 0.1462664 1.6927317 1.2004167

inputEmbed.MdPhi_conv.s f4 [1, 1, 1, 8]
00000000: ceb2 713f a76a ca3f 4f87 b03f 4ac5 a53f
00000010: 4fbc 973f 8c12 443f b727 aa3f 5018 963f
0.9441346 1.5813798 1.3791293 1.2950833 1.1854342 0.765908 1.329337 1.172617

inputEmbed.MdPhi_conv.conv.bias f4 [1, 8, 1]
00000000: dac6 c2bf eed8 1240 0829 8d3e c829 1b3f
00000010: bb36 3340 fd2f 2440 0d67 6e3f de2d d13f
-1.5216935 2.2944903 0.27570367 0.6061063 2.8002155 2.565429 0.93125993 1.6342123

inputEmbed.MdPhi_conv.conv.module.weight f4 [4, 8, 1]
00000000: 6a0d a7bd ee95 01c0 9414 a93a 086d 30be
00000010: a728 46be b170 0bbf 937b a1bf df72 a7bd
00000020: 40ac 01be 2bdd 06bf 89e7 763d e6ce dabe
00000030: 2350 50bf 68b2 233f 40d2 f03d 9ea7 9b3d
00000040: 9b5f 7ebe bda0 f5be 215d 023e 6521 e23e
00000050: 1504 c63e f0ae 6f3e e293 dcbe 3654 bebf
00000060: a09b ec3f 4de3 87bd 3c92 8bbd 6c3a 4fbe
00000070: 98d3 cebc fc41 8f3e cb5b cc3e 38cc ca3e
-0.081568554 -2.024776 0.001289981 -0.17229092 -0.19351445 -0.5446883 -1.2615837 -0.08176207
-0.12663364 -0.52681226 0.060279403 -0.42735976 -0.8137228 0.639441 0.11758852 0.0760033
-0.24841158 -0.47974196 0.12730838 0.44166103 0.3867499 0.23406577 -0.43081576 -1.4869449
1.8484993 -0.06635151 -0.06815001 -0.2023713 -0.02524738 0.2798003 0.39913782 0.39608932

inputEmbed.dijetEmbed.m f4 [1, 1, 1, 4]
00000000: 12b7 9240 e31e 563f ac9e 743f fae3 a240
4.5848475 0.8364088 0.95554614 5.090329

inputEmbed.dijetEmbed.s f4 [1, 1, 1, 4]
00000000: 7551 403f ecf6 a33f ca33 983f 6395 043f
0.75124294 1.280973 1.1890805 0.51790446

inputEmbed.dijetEmbed.conv.bias f4 [1, 8, 1]
00000000: 3f09 4e3f b4db e13e e6d9 6dbe 3ed6 26be
00000010: 65f0 0c3f 0710 c23b 070c fc3e d871 d93f
0.8048286 0.44112933 -0.23227653 -0.16292664 0.5505431 0.0059223208 0.49227926 1.6987867

inputEmbed.dijetEmbed.conv.module.weight f4 [4, 4, 1]
00000000: 7afc b03d 3792 b3bc 4a18 89bc e5ac a53f
00000010: 1fed adbf 8b3f 48bd e255 51bb b2e0 25be
00000020: 6c4c a63d 1d52 1fbe 6cbd d5bd ea19 e3bf
00000030: eecd 2e3e a755 3d3d cda9 153d ee08 17c0
0.08641906 -0.021920307 -0.016735215 1.2943388 -1.3587989 -0.048888724 -0.003194206 -0.16198996
0.08120045 -0.15558667 -0.1043652 -1.7742283 0.17070743 0.046224263 0.036538888 -2.35992

inputEmbed.quadjetEmbed.m f4 [1, 1, 1, 3]
00000000: 6a86 8a40 1ab5 b73f 20e7 c440
4.328908 1.4352143 6.1532135

inputEmbed.quadjetEmbed.s f4 [1, 1, 1, 3]
00000000: d69a 5f3f bd3e e73f b1e3 ab3e
0.87345636 1.8066021 0.33572152

inputEmbed.quadjetEmbed.conv.bias f4 [1, 8, 1]
00000000: 1355 703f 71e2 3b3f ffc2 823f 3396 9dbf
00000010: 002e 0e3f 6d9e bfbe e619 0fc0 9b95 1e3e
0.9387981 0.733924 1.0215758 -1.2311462 0.5553894 -0.37425557 -2.2359557 0.15486757

inputEmbed.quadjetEmbed.conv.module.weight f4 [4, 3, 1]
00000000: 4781 5c3e 5c03 593d 53c1 903f 3224 0fbf
00000010: 4c9c 8c3c 6840 ac3f c169 a3bf 557c d53c
00000020: 0dae c63e 2d89 1e3f 84bb ad3f 8d1a 7cbd
0.2153369 0.05298172 1.1308998 -0.55914605 0.017164372 1.3457155 -1.2766649 0.026060263
0.38804665 0.61928064 1.357285 -0.06154876

inputEmbed.dijetConv.m f4 [1, 1, 1, 8]
00000000: e4ea 403f de67 0a3f 8cc1 e03e 6874 343f
00000010: b78f 283f 3201 ba3e 69f0 4b3f 7a23 e63f
0.75358415 0.5406474 0.43897665 0.7049012 0.6584429 0.36329037 0.7966371 1.7979577

inputEmbed.dijetConv.s f4 [1, 1, 1, 8]
00000000: 7167 853f 34bc 843f 308f 653f 15b1 9c3f
00000010: 9dec 573f a4af 2c3f 00f5 a93f 12ed 0440
1.0422193 1.0369935 0.8967161 1.2241541 0.8434542 0.67455506 1.3277893 2.0769696

inputEmbed.dijetConv.conv.bias f4 [1, 8, 1]
00000000: 8857 a73e 99f5 00be 70bd c43e 9f75 eebe
00000010: 8fbb 9bbc f1d7 323d 2b5a 13be 2370 023f
0.3268397 -0.12593688 0.3842578 -0.46574113 -0.019010333 0.04366297 -0.14389865 0.5095236

inputEmbed.dijetConv.conv.module.weight f4 [4, 8, 1]
00000000: a527 5f3f 75f8 893d b52c a3be 05ad 85bf
00000010: 070d 433e 3e5b b9be f067 b9bd b8f0 1a3f
00000020: aec4 10bd af99 f1bd 982b 07bf 6cf1 3cbf
00000030: 24a8 f9be ae75 893e 44c5 abbe bf15 b8be
00000040: af94 3ebe 015a e43d b493 09be f39f a9be
00000050: 519d 723d 9fd0 39bf 9093 3f3f 76ed c13e
00000060: 41bf 28bf 0730 153e ec45 a43e d4a1 913f
00000070: 4314 f23e 0c1b 103e 6ff8 76be 416c 77bf
0.8716987 0.067368425 -0.31870046 -1.0443426 0.19047938 -0.36202425 -0.09053028 0.6052356
-0.03534382 -0.11796891 -0.52800894 -0.7380588 -0.48761094 0.26847595 -0.3354894 -0.3595409
-0.18611406 0.111499794 -0.1343525 -0.33129844 0.05923206 -0.72583956 0.7483454 0.3787648
-0.6591683 0.14569102 0.32084596 1.1377511 0.47281083 0.14072818 -0.24118207 -0.9664956

inputEmbed.quadjetConv.m f4 [1, 1, 1, 8]
00000000: 9436 523f d480 633f befe 823f 087b 1cbe
00000010: 3f0f 213f 6040 923e 639e 1cbe d4a7 d13e
0.8211453 0.8886845 1.0233991 -0.15281308 0.6291389 0.2856474 -0.15294795 0.40948355

inputEmbed.quadjetConv.s f4 [1, 1, 1, 8]
00000000: 7175 7a3f 257f 993f eb0f 9b3f 6bf1 023e
00000010: 3f52 483f d62b 453f ed47 173e 7b4d 8e3f
0.9783545 1.1991926 1.2114233 0.12787406 0.782505 0.77020013 0.14773531 1.1117395

inputEmbed.quadjetConv.conv.bias f4 [1, 8, 1]
00000000: 2daf 2e40 cb78 813f 75a4 253f 8ab3 47bd
00000010: dec7 943f c9ae 41bf 1856 b23f 07df 6b3e
2.729442 1.0114988 0.64704067 -0.048755206 1.1623495 -0.75657326 1.3932524 0.23034297

inputEmbed.quadjetConv.conv.module.weight f4 [4, 8, 1]
00000000: 6383 e43e 3a89 633d ddfb 443e 4d6c 2a3e
00000010: af39 303d 3dcc 3b3d 102d 823a e499 2dbd
00000020: 56cb b33e bafb 07be 1982 683e c026 b2bc
00000030: 2b51 04be 0981 9fbe 6acc 033c 82ec 803d
00000040: b13b 7f3d b197 a13d 1e04 0cbd b700 4fbd
00000050: b1d6 8ebd ba11 7fbe 2977 40be 9aad dc3c
00000060: 42f9 a73e e841 083f ff24 afbe 2b95 7bbe
00000070: b27d 3fbe da29 7bbd ce32 743e 2f1d da3d
0.4463149 0.05555079 0.19236703 0.16642876 0.04302376 0.045849074 0.0009931643 -0.04238309
0.3511607 -0.1327962 0.22705878 -0.021746993 -0.12921588 -0.31153134 0.008044342 0.0629511
0.062312786 0.07890261 -0.034183614 -0.05053779 -0.06974543 -0.24909106 -0.18795456 0.026938248
0.32807356 0.53225565 -0.34207913 -0.24568622 -0.18700293 -0.06131921 0.23847505 0.106500976

dijetResNetBlock.reinforce.0.conv.m f4 [1, 1, 3, 8]
00000000: 9461 643f 9dd4 c2bd 8bcc 723e e760 c5bc
00000010: a6ab 023f 2f0c cebc 71d4 30be b992 1c3f
00000020: fd31 b23e f2e4 0c3a a539 a23d 96e0 8a3e
00000030: 175a 933f 647e 8d3e 6c65 9bbd a969 283e
00000040: c874 803f 7f94 503e e661 2d3f 9a7d 883f
00000050: 4fb0 513f ef6d 953e dcb2 c63e 5687 cd3f
0.8921139 -0.09513209 0.2371084 -0.024094058 0.51043165 -0.025152294 -0.1726854 0.6116138
0.34803763 0.00053746917 0.07921151 0.2712447 1.1511868 0.2763549 -0.07587704 0.16446556
1.0035639 0.20369147 0.67727506 1.066333 0.8190965 0.29185435 0.38808334 1.6056926

dijetResNetBlock.reinforce.0.conv.s f4 [1, 1, 3, 8]
00000000: 8efb b73f 46a1 b53e 112b 0f3f 812b ca3e
00000010: cb18 893f 99ec c93e fce6 4d3e 6868 753f
00000020: c5b2 723f 6f8c 0f3f 6c20 b73e 902a 223f
00000030: 4687 c63f 282a 283f 33e6 db3e 5ff8 353f
00000040: f8c7 b13f 1f9e cb3e 5b9d 843f ef1e f03f
00000050: 5a75 bc3f a1ac 893f c8ce 5e3f 7b35 0840
1.4373643 0.35474604 0.5592509 0.39486316 1.0710691 0.39438322 0.20107645 0.95862436
0.9480403 0.5607366 0.35766923 0.63346195 1.5510032 0.65689325 0.42949066 0.7108211
1.3889151 0.39769074 1.0360521 1.875944 1.4723313 1.0755807 0.87034273 2.1282642

dijetResNetBlock.reinforce.0.conv.conv.bias f4 [1, 8, 1]
00000000: d5db babf a925 86bf d5e9 143e 011c 263e
00000010: a2a2 b43e 69a7 8dbf 461a 85bf ac9f 47bf
-1.4598337 -1.0480243 0.14542325 0.1622162 0.3528033 -1.1066715 -1.0398643 -0.77978015

dijetResNetBlock.reinforce.0.conv.conv.module.weight f4 [4, 8, 3]
00000000: e2dc b43d d83b 873c 0864 f23e d72e 5ebe
00000010: 6398 c1bd d554 8a3f 62f9 863e f424 e43e
00000020: 7b10 44be c8d0 3a3f 5558 0d3f e124 52be
00000030: e336 3abb 04ad c03d 0306 59bf 95f1 3cbd
00000040: 8a6b 783d ada9 8dbe 0995 4abe e33a 513f
00000050: 0fd4 03bf 31dc 50bd 557a ea3e b6ce 943f
00000060: 5ff0 3abf 19bd b6be 2c01 c43e 7dbf 52be
00000070: 99f4 8d3e 21fe 823f c840 b8bd 9ba5 24be
00000080: 451f f03e 7215 1ebe eb6d 62be 827a 99bf
00000090: ed16 87bd df2e 053e e2d0 56bf a432 e63e
000000a0: 4436 673d 654c da3c f0d0 dbbb 1188 073e
000000b0: 6ef2 1cbe 2b18 663e bc78 71be 9ce4 603f
000000c0: 8fdb b93e 7166 b93d 1845 95bf 9ae3 913d
000000d0: fe6f 813e a8a8 f8bd 0a76 8d3d 892f aebd
000000e0: 691d 75bf a476 9e3d 41a0 123f dc96 37bf
000000f0: add4 733d e19f ba3e dd5a 95be c40d 443d
00000100: 5b12 81be d7e8 59be 85cb 313d f373 f9be
00000110: d74e 1ebe 9393 993e 3e19 71be fab0 60bf
00000120: 9073 aabe 77ca 0e3e 471e 17bd d301 62be
00000130: 6cc8 b23c d887 5abf 23cb 9b3d c7e3 f33d
00000140: 8739 96bd 573a 963e 5400 4c3e 5bab 663f
00000150: 8352 17be 9c47 9abe ec51 933f 7457 7cbc
00000160: 658b dbbd 042f 373e 4f26 d33d bfdb 9fbd
00000170: cb37 ef3e 71a0 41be 30f8 4cbe 4c49 56bf
0.088311926 0.016508028 0.47341943 -0.21697555 -0.094528936 1.0807139 0.2636214 0.44559443
-0.19146912 0.72974825 0.5521291 -0.2052188 -0.0028414063 0.09408 -0.847748 -0.046128828
0.060649432 -0.27668515 -0.19783415 0.8173048 -0.5149545 -0.05099124 0.45796457 1.1625583
-0.7302303 -0.35691145 0.38282144 -0.2058086 0.27725676 1.0233804 -0.08996731 -0.16078798
0.46898857 -0.15437868 -0.22112243 -1.1990511 -0.065961696 0.13006161 -0.8391248 0.4496051
0.056448236 0.026647756 -0.006708257 0.13235499 -0.15326855 0.22470157 -0.23581213 0.8784883
0.36300322 0.09052742 -1.1661711 0.0712349 0.25280756 -0.121415436 0.0690728 -0.0850516
-0.95748 0.07737473 0.5727578 -0.7171457 0.059528995 0.36450103 -0.29170886 0.04786469
-0.25209317 -0.21280228 0.043406982 -0.48721275 -0.15459763 0.29995403 -0.23544785 -0.87770045
-0.33291292 0.13944422 -0.03689411 -0.22071008 0.021824084 -0.8536353 0.07607105 0.119086795
-0.07335191 0.29341385 0.19922 0.9010522 -0.1477757 -0.3013276 1.1509376 -0.01540171
-0.10719947 0.17889029 0.10310041 -0.07805585 0.46722254 -0.1890886 -0.20016551 -0.8370559

dijetResNetBlock.reinforce.1.conv.m f4 [1, 1, 3, 8]
00000000: 6836 cc3f 258c 00be dbe7 393f 67f8 563e
00000010: b468 763f 08b1 33bd cc3b afbd 5ae3 793f
00000020: 7efe 903f d2e2 cdbc 57a9 2b3f 01ae 863f
00000030: 2005 bf3f 0dfd b53e 32e7 8f3d 0133 0f3f
00000040: 221a f33f 3169 a73f fa7f 833f 247e 4840
00000050: 59fc 1f40 547e d23f e3a5 733e d134 4a40
1.5954103 -0.12553461 0.7261941 0.20993195 0.96253514 -0.043870002 -0.08556327 0.97612536
1.1327665 -0.02513257 0.6705527 1.0521852 1.4923439 0.35544625 0.07026519 0.559372
1.899235 1.3078977 1.027343 3.132699 2.499777 1.6444802 0.2379375 3.1594737

dijetResNetBlock.reinforce.1.conv.s f4 [1, 1, 3, 8]
00000000: e6ac 1e40 5c6c 233e a531 923f 1f4c 3c3f
00000010: c0ed cd3f 8e9b f13e 5d43 e43e 559b da3f
00000020: cfa2 f43f 4778 c73e 1f08 693f 1598 a43f
00000030: b610 1840 0943 7b3f 846f 6a3f 43e1 ee3f
00000040: b03e 2740 01fa cb3f b24d a63f a7a7 9d40
00000050: 1d65 6c40 e145 4e40 5a83 7e3f 574f 6b40
2.479303 0.15959305 1.14214 0.7355365 1.608818 0.4718899 0.44582644 1.7078654
1.9112185 0.38958952 0.91028017 1.2858912 2.37602 0.9814916 0.9157641 1.8662494
2.6132011 1.593567 1.2992461 4.9267154 3.6936715 3.223015 0.99419177 3.6767175

dijetResNetBlock.reinforce.1.conv.conv.bias f4 [1, 8, 1]
00000000: d6dc 1d3f 010a e7be 6a2d 7c3e b735 2ebf
00000010: 11bb 50be 3be1 023f edee f73e 70ac 953f
0.61665094 -0.4512482 0.24626699 -0.6805071 -0.2038386 0.51124924 0.48424473 1.1693249

dijetResNetBlock.reinforce.1.conv.conv.module.weight f4 [4, 8, 3]
00000000: 5497 93bc c0fc 7dbe 25a7 2ebe a6bf ebbc
00000010: 3aec db3d dd4c 2c3f 7f3e 2cbe 655a 9f3d
00000020: 1372 86bd 8a37 3c3e ca90 403d e500 4fbf
00000030: 3ebd 513d e4fc c7bd 10b0 5abf 16a2 583d
00000040: e669 8b3c 3c09 eebc 6158 823d 5541 123e
00000050: 4a69 4fbf b2ec 19be 582b 5ebd 9be3 ac3e
00000060: 5a04 16bf 343b 0abf e057 f53e 4780 71be
00000070: c723 ba3e 87b7 af3e 47b3 b4be 0550 97be
00000080: c54f 00bf 96de 37bd ae02 5c3d 7582 69be
00000090: 53d5 c53d 71bb ef3e cf52 3abf ff8e d3be
000000a0: 93b9 4a3c b04e d6be 2c95 c53d 4cbd 903c
000000b0: 165e b6be 74d1 c3bc 5a80 293e 8eb8 543e
000000c0: 8248 f03d 2935 e9ba 0c52 423d b03d c5bc
000000d0: 4428 513e 8c41 a73e 2077 543a 4593 bf3d
000000e0: f5ad 02be c499 023e 0224 6c3e 591f f93d
000000f0: e495 8bbc 4a36 37bd d4c3 2f3a 82ab dbbd
00000100: d6c4 a039 327f b8be a60d b93d 12ae 223d
00000110: 137a 61be 3361 64be 8c9a 49bd 89e8 af3f
00000120: 8b60 82bc 0cbb c43d ca28 dc3d 27b5 eebc
00000130: e441 773c c6ad f1bd cf57 35bd 5f94 45be
00000140: 07b3 cfba ad3c 793d dc8f 61bd cf44 d93e
00000150: 6ae6 bd3c 48ce 063e 2feb 583f 5e89 c8ba
00000160: 55ca 583d eb8f 053f 4a00 e2bd 5b61 873d
00000170: 495b a53e 7cbf 49bd bcb8 403e cd8d a4bd
-0.018016495 -0.24803448 -0.17055948 -0.028777909 0.10738416 0.67304784 -0.16820715 0.07780913
-0.06564727 0.18380561 0.04701308 -0.8086074 0.051205866 -0.09765032 -0.854249 0.052888952
0.01701827 -0.029057138 0.06364513 0.14282735 -0.81020033 -0.15031698 -0.054240555 0.337674
-0.5860039 -0.53996587 0.47918606 -0.2358409 0.3635542 0.34319708 -0.35293028 -0.29553238
-0.5012172 -0.04489001 0.053713493 -0.22803672 0.09659829 0.46822694 -0.72782606 -0.41320035
0.012373346 -0.4185691 0.09647593 0.017668389 -0.35618657 -0.023903586 0.16552868 0.20773527
0.1173258 -0.0017792332 0.047441527 -0.024077266 0.20425516 0.32667196 0.0008104909 0.09354261
-0.12761672 0.1275397 0.23060611 0.12164182 -0.017039247 -0.04472951 0.0006704901 -0.10726072
0.00030664232 -0.36034542 0.09035806 0.039716788 -0.22019224 -0.22302704 -0.049219653 1.3742839
-0.015915176 0.09605989 0.107499674 -0.029139115 0.015091393 -0.11800723 -0.044273194 -0.1929488
-0.0015846201 0.06084888 -0.055068836 0.4243531 0.023181159 0.13164628 0.8473386 -0.0015299728
0.052927334 0.52172726 -0.110352114 0.06610366 0.32296208 -0.04925488 0.1882047 -0.08034859

dijetResNetBlock.conv.0.m f4 [1, 1, 1, 8]
00000000: 4abd 1e3f d5ba 41bd b0f4 213e 0f15 fd3d
00000010: eaaf 543f a19d 003e 2587 febd 22ad c63e
0.6200758 -0.047297318 0.15815997 0.12357532 0.83080924 0.1256013 -0.124281205 0.38803965

dijetResNetBlock.conv.0.s f4 [1, 1, 1, 8]
00000000: 8cb1 9f3f f781 f13e f2bb f33e 2f50 0c3f
00000010: dd76 af3f 46f7 0f3f 047e ad3e 7e7d 5f3f
1.2476058 0.47169468 0.47604328 0.5480985 1.3708149 0.56236684 0.33885205 0.8730086

dijetResNetBlock.conv.0.conv.bias f4 [1, 8, 1]
00000000: 213c 143f 6fe3 04c0 30a7 f13e 9623 6e3e
00000010: 00b9 1bbe 079e 57bf cc07 34bf a3ec 19be
0.5790425 -2.0763814 0.47197866 0.23255762 -0.1520729 -0.84225506 -0.703244 -0.15031676

dijetResNetBlock.conv.0.conv.module.weight f4 [4, 8, 1]
00000000: c418 c13e 9daf 673e 95f4 c83e 4758 e13e
00000010: b503 a13e 912d a13e e761 68bf b9cc b5be
00000020: 63f6 523e eb79 a8bd 1e13 04be 39cc 17be
00000030: 074c 35be 0e6b d1be dec7 853e df5e 2e3d
00000040: 19e4 083f da3e ecbc 21b6 08bc 3fe1 8a3e
00000050: ddb3 db3e 3deb 0b3e a31a 11bf 6ccb 10be
00000060: b514 7fbe 0a59 d3be aaec d3be e9cd f53e
00000070: 033f 343e e559 4fbe 3651 03bf 1475 f7be
0.37714207 0.22625585 0.392491 0.44012663 0.3144814 0.31480077 -0.9077439 -0.35507753
0.20601802 -0.08226379 -0.12897918 -0.14823999 -0.17704783 -0.4090199 0.2612905 0.042570945
0.5347305 -0.028838564 -0.008344204 0.27124974 0.42910662 0.13663955 -0.5668127 -0.141401
-0.24910243 -0.4127887 -0.41391498 0.4800866 0.17602162 -0.20249136 -0.51295793 -0.4833151

attention_oo.q_GBN.gamma f4 [8]
00000000: b88e cebe 2900 dd3d f104 01be 5a69 c1bd
00000010: e314 0b3d 7c37 c7bd 2836 b4bd f7e4 543f
-0.4034326 0.10791046 -0.12599541 -0.09443922 0.033955466 -0.0972738 -0.08799392 0.8316187

attention_oo.q_GBN.bias f4 [8]
00000000: be9e 0bbf 995f 3140 a4a5 b8bf e456 c6bf
00000010: e5d6 ef3d 6022 13c0 8372 3240 8ecb d13e
-0.54539096 2.7714598 -1.442555 -1.5495267 0.1171091 -2.298973 2.7882392 0.40975612

attention_oo.q_GBN.m f4 [1, 1, 1, 8]
00000000: b2a4 5d3f 2639 8c3f 18eb 7f3f 9a39 7f3f
00000010: dd7b 91bd b1e1 043f 7e46 853f 7123 b13f
0.8657943 1.095494 0.999681 0.9969727 -0.07103703 0.5190688 1.0412138 1.3838941

attention_oo.q_GBN.s f4 [1, 1, 1, 8]
00000000: 8814 663f aa68 cc3f 3b69 aa3f a093 a23f
00000010: aa5f 8d3e 526e 9a3f 1a16 bc3f 0036 a73f
0.8987508 1.5969441 1.3313364 1.2701302 0.27612048 1.2064917 1.4694245 1.3063354

attention_oo.v_GBN.gamma f4 [8]
00000000: 2511 f93e 047f 653f 6233 ea3e ec35 8f3f
00000010: 5226 e73f ad9c 7f3f ac0c 0c40 da33 aa3d
0.48645893 0.89646935 0.45742327 1.1188331 1.805857 0.99848443 2.1882734 0.08310671

attention_oo.v_GBN.bias f4 [8]
00000000: e4dd 4e3f 6f38 d23f 884e adbe c4fd 0cbf
00000010: ac9a 863e e50a b83f b798 f43e 5e29 92bd
0.8080733 1.6423472 -0.33848977 -0.55074716 0.2628988 1.4378325 0.47772762 -0.071367964

attention_oo.v_GBN.m f4 [1, 1, 1, 8]
00000000: b2a4 5d3f 2639 8c3f 18eb 7f3f 9a39 7f3f
00000010: dd7b 91bd b1e1 043f 7e46 853f 7123 b13f
0.8657943 1.095494 0.999681 0.9969727 -0.07103703 0.5190688 1.0412138 1.3838941

attention_oo.v_GBN.s f4 [1, 1, 1, 8]
00000000: 8814 663f aa68 cc3f 3b69 aa3f a093 a23f
00000010: aa5f 8d3e 526e 9a3f 1a16 bc3f 0036 a73f
0.8987508 1.5969441 1.3313364 1.2701302 0.27612048 1.2064917 1.4694245 1.3063354

attention_oo.qv_GBN.gamma f4 [8]
00000000: 280b 3d3f 1635 e43f 32b9 d73f 47da f73e
00000010: 70c5 153f 19b8 853f 16de f73f aa0d c33f
0.7384515 1.78287 1.6853392 0.4840872 0.5850439 1.0446807 1.936465 1.5238545

attention_oo.qv_GBN.bias f4 [8]
00000000: ef19 283f 4a4b 5d3f 2e4e ba3f 71a3 693f
00000010: 05d2 383e 7551 a13f 2b72 223f f480 e2bd
0.6566457 0.86443007 1.4555109 0.91265017 0.18048866 1.2602984 0.63455456 -0.11059752

attention_oo.qv_GBN.m f4 [1, 1, 1, 8]
00000000: 3d08 003f 33ed 1340 ee02 eb3f f706 9f3f
00000010: cbe5 c53f 9536 0a40 0933 713f fe10 0540
0.5001257 2.3113525 1.8360269 1.2424 1.5460752 2.1595814 0.942185 2.0791621

attention_oo.qv_GBN.s f4 [1, 1, 1, 8]
00000000: 107a 2a3f 69aa 963f 29a3 0640 7add e33f
00000010: 04e3 0f40 fa95 9b3f b39d b83f 3dc3 0440
0.665925 1.1770755 2.1037085 1.7801964 2.248231 1.2155144 1.4423126 2.0744164

attention_oo.score_GBN.gamma f4 [2]
00000000: 191f 163f 6f21 183f
0.586412 0.59426016

attention_oo.score_GBN.bias f4 [2]
00000000: f6f7 183f 0951 4440
0.5975336 3.067446

attention_oo.score_GBN.m f4 [1, 1, 1, 2]
00000000: d1dc 1341 ea66 37bd
9.24141 -0.04477588

attention_oo.score_GBN.s f4 [1, 1, 1, 2]
00000000: 2256 8640 6450 0941
4.1980143 8.582127

attention_oo.conv.m f4 [1, 1, 1, 8]
00000000: 7c19 3e3f 08e0 d53f 8058 fa3e 5b0f b93c
00000010: bd8f d43e f859 1340 ffe2 1340 c4ce 95bd
0.74257636 1.6708994 0.48895645 0.02259033 0.41515914 2.3023663 2.3107297 -0.07314828

attention_oo.conv.s f4 [1, 1, 1, 8]
00000000: 0132 923e 051d 333f ffd6 aa3e 5488 293e
00000010: cdd6 433f 57b4 0d3f fa5b 0f40 8005 1b3e
0.28553775 0.69966155 0.33367154 0.16555911 0.76499635 0.553533 2.2399888 0.15138817

attention_oo.conv.conv.bias f4 [1, 8, 1]
00000000: 8e65 0740 270c 6ebf cc34 1f40 ae37 9e3f
00000010: 6e67 573f 3fb6 223f fb80 973f 759e 723f
2.1155734 -0.92987293 2.4875975 1.2360742 0.84142196 0.63559335 1.1836237 0.94773036

attention_oo.conv.conv.module.weight f4 [4, 8, 1]
00000000: f462 8c3f 823a 9bbe 38f0 bbbd 0489 9ebd
00000010: a8ca 8d3e 3247 0f3f 20a4 5bbe d273 bc3f
00000020: 4a27 a1be 9f19 43be 591e 493e 6603 81bc
00000030: 8dc9 433d c0b7 7abd 50ad 2cbf c625 633f
00000040: 786b c1be 0495 c93e b3f0 69bf 0178 29be
00000050: 9069 61be 316e 81be 919a b23e 5452 88bf
00000060: 7ab6 50bf b87c 14bf 6f9a 5f3f 94bf 68be
00000070: 675f 093f ad46 bfbc ae51 d33e 4bcf 743e
1.0967698 -0.30318075 -0.091766775 -0.077409774 0.27693677 0.5596801 -0.21449327 1.4722846
-0.31475288 -0.19052742 0.19640483 -0.01574869 0.047799636 -0.061210394 -0.67451954 0.8872951
-0.37777305 0.39371502 -0.913829 -0.16549684 -0.22012925 -0.25279382 0.3488355 -1.0650125
-0.8152844 -0.58002806 0.8734502 -0.22729331 0.536612 -0.02334913 0.41273254 0.23907201

attention_do.q_GBN.gamma f4 [8]
00000000: a40c 6f3f eea1 ec3d 7cb7 f33f 75f3 81be
00000010: e17d a2bd 51fb e1be 9bc9 813f cb3c b83d
0.93378663 0.11554323 1.904037 -0.25381055 -0.07934166 -0.44137052 1.013965 0.0899597

attention_do.q_GBN.bias f4 [8]
00000000: 44b7 27bf 89ed 033f 8c02 86bf 98a0 3cbf
00000010: 077a e6bf 5427 70bf 0f3e e33f 09f0 5240
-0.65514016 0.51534325 -1.0469527 -0.73682547 -1.800599 -0.9381001 1.7753314 3.2959006

attention_do.q_GBN.m f4 [1, 1, 1, 8]
00000000: 8507 1440 9c3a 9c3f e965 ba3f d0be bd3f
00000010: 2d28 d63f aace e23f e298 a73f 9e25 4340
2.312959 1.2205386 1.456235 1.4823856 1.6731011 1.7719319 1.3093531 3.049171

attention_do.q_GBN.s f4 [1, 1, 1, 8]
00000000: d6d9 1440 0328 ec3f e2f3 0040 53a9 3e40
00000010: d4a7 3e40 39cb 3e40 fd0d dd3f 7749 3440
2.3257957 1.8449711 2.0148854 2.9790847 2.9789934 2.9811537 1.7269894 2.816984

attention_do.v_GBN.gamma f4 [8]
00000000: 2fa9 a43f 7c12 053f e513 423f 3dbf 513f
00000010: 0bb8 e6bd 5792 933f 3d3c c73f c9e2 a33f
1.2864131 0.5198133 0.75811607 0.8193243 -0.11265572 1.1529034 1.5565258 1.2803584

attention_do.v_GBN.bias f4 [8]
00000000: 0cae ed3e b159 e53e e579 ffbe f3cb 0140
00000010: 980c 103f e963 783f f2b7 573f 40b4 9b3d
0.4642185 0.44794992 -0.49897686 2.028073 0.56269217 0.9702745 0.84265053 0.07602739

attention_do.v_GBN.m f4 [1, 1, 1, 8]
00000000: 21d5 3d40 5b84 d73e 9909 4640 853d 0140
00000010: 3a68 473f 55b7 2b3f 7938 f93f 6f31 0b40
2.9661334 0.42093167 3.0943358 2.0193799 0.7789341 0.6707662 1.9470359 2.1748922

attention_do.v_GBN.s f4 [1, 1, 1, 8]
00000000: 87f9 1540 f448 693f ac68 cf3f cb9e cb3f
00000010: 5ec5 913f b383 a93f 1f63 c03f bf22 bc3f
2.343355 0.9112694 1.6203818 1.5907835 1.1388357 1.3243316 1.5030249 1.4698104

attention_do.qv_GBN.gamma f4 [8]
00000000: 85e0 b03f fcde 863f b92f ca3f 6f10 36bd
00000010: fe0b 563f 0b95 2d3f 1272 5e3f 68ca be3f
1.3818518 1.05368 1.5795814 -0.044449266 0.8361205 0.67805547 0.8689281 1.490552

attention_do.qv_GBN.bias f4 [8]
00000000: 7e1d 863f 3997 b03e f78e 2ebe f704 0640
00000010: a1c0 623f c1b1 bd3e 2e6c 3f3f 432c 843e
1.047775 0.34490374 -0.17046724 2.094053 0.8857518 0.37049678 0.74774444 0.2581502

attention_do.qv_GBN.m f4 [1, 1, 1, 8]
00000000: 8cd0 99bd aee6 ec3f b72b 173f 50e2 b73f
00000010: 44c5 8740 3340 2940 25d3 2a40 a024 dc3f
-0.0751048 1.8507898 0.5905108 1.436594 4.2428303 2.6445434 2.6691372 1.7198677

attention_do.qv_GBN.s f4 [1, 1, 1, 8]
00000000: a2e1 673e e08a 8e3f 64b0 9d3f 9f2c e63f
00000010: bb41 1d40 d6b6 a23f 3739 1740 8586 f83f
0.22644666 1.1136131 1.2319455 1.7982367 2.4571369 1.2712047 2.362867 1.9416052

attention_do.score_GBN.gamma f4 [2]
00000000: ecb8 f63e 9395 993e
0.4818796 0.2999693

attention_do.score_GBN.bias f4 [2]
00000000: 886a a43f c59a 953f
1.2845011 1.1687857

attention_do.score_GBN.m f4 [1, 1, 1, 2]
00000000: a040 0c40 72d6 bf3f
2.1914444 1.4987319

attention_do.score_GBN.s f4 [1, 1, 1, 2]
00000000: 503a 3b40 7385 f540
2.925434 7.67254

attention_do.conv.m f4 [1, 1, 1, 8]
00000000: 7f81 893f 22e1 fa3e c0d4 be3c ec87 4640
00000010: 8632 6d3f 8a81 293f 1113 933f 2361 b23e
1.0742644 0.48999888 0.023294806 3.102046 0.9265522 0.66213286 1.1490194 0.34839734

attention_do.conv.s f4 [1, 1, 1, 8]
00000000: dcc7 9b3f a448 cc3e 683e f63e 3b7a 083f
00000010: d0cb ff3e 3bc0 d63e 483c 5d3f e80d 0e3f
1.2170367 0.3989917 0.48094487 0.5331151 0.49960184 0.41943535 0.86420107 0.5548997

attention_do.conv.conv.bias f4 [1, 8, 1]
00000000: f858 323f 0695 c4be 5acb 903e 1410 2abf
00000010: 0405 a1be 12e4 123f 4ae4 09bd c1e6 a13f
0.69667006 -0.38394946 0.28280145 -0.66430783 -0.3144914 0.5737926 -0.03366498 1.2648546

attention_do.conv.conv.module.weight f4 [4, 8, 1]
00000000: a589 1dbf 8efa 143f 3435 9f3e d974 963e
00000010: 8053 343f 6e17 bfbe 8e8c 7c3d 2d97 27be
00000020: 5f19 98be da6a 943e 63ae 263f 8617 85bf
00000030: b45d 20be 0308 8dbe 02dd da3e e458 0d3f
00000040: 7583 10be 2a20 9abe a28d 67be b969 4cbe
00000050: f320 2bbf 8e51 d53e 434d 453f 930a 673e
00000060: 8c7f 6bbf 87b9 fbbe 4023 fd3c 316b 623e
00000070: e727 7d3e 0396 1cbe 5fb1 3dbf 211d be3e
-0.61538154 0.58194816 0.31095278 0.29386023 0.7043991 -0.37322563 0.06165748 -0.16366263
-0.29706857 0.2898777 0.65109843 -1.0397804 -0.15660745 -0.27545175 0.4274674 0.5521376
-0.14112647 -0.30102664 -0.22612622 -0.19962205 -0.6684715 0.41663784 0.7707102 0.22562627
-0.91991496 -0.49164984 0.030900598 0.22111203 0.24722253 -0.152916 -0.7409877 0.371316

quadjetResNetBlock.reinforce.0.sym.weight f4 [8, 1, 2]
00000000: 0000 003f 0000 003f 0000 003f 0000 003f
00000010: 0000 003f 0000 003f 0000 003f 0000 003f
00000020: 0000 003f 0000 003f 0000 003f 0000 003f
00000030: 0000 003f 0000 003f 0000 003f 0000 003f
0.5 0.5 0.5 0.5 0.5 0.5 0.5 0.5
0.5 0.5 0.5 0.5 0.5 0.5 0.5 0.5

quadjetResNetBlock.reinforce.0.antisym.weight f4 [8, 1, 2]
00000000: 0000 003f 0000 00bf 0000 003f 0000 00bf
00000010: 0000 003f 0000 00bf 0000 003f 0000 00bf
00000020: 0000 003f 0000 00bf 0000 003f 0000 00bf
00000030: 0000 003f 0000 00bf 0000 003f 0000 00bf
0.5 -0.5 0.5 -0.5 0.5 -0.5 0.5 -0.5
0.5 -0.5 0.5 -0.5 0.5 -0.5 0.5 -0.5

quadjetResNetBlock.reinforce.0.conv.m f4 [1, 1, 3, 8]
00000000: 0937 2b40 1c12 883f b607 db3f 1dcb 7b3f
00000010: 6ad3 b93f c666 0540 fba1 ac3f d32d 6d40
00000020: a240 5c3f 47aa 083f d931 3a3f 5c8a 433f
00000030: 1b0f 703f 438c 8e3f d96c 053f 77e7 a03f
00000040: 4c4c 2140 2f1f 473f c9ed e43e 7689 163e
00000050: e496 683f 2a8d 21be 1cee 8d3f 8cb5 953e
2.675234 1.0630527 1.7111728 0.983568 1.4517643 2.0843978 1.3486933 3.705922
0.8603612 0.5338482 0.7273231 0.76382995 0.9377305 1.1136554 0.52119213 1.2570637
2.5202818 0.7778196 0.44712666 0.14700875 0.9085524 -0.15776506 1.108829 0.29240072

quadjetResNetBlock.reinforce.0.conv.s f4 [1, 1, 3, 8]
00000000: 791d 0d40 13ae d03f 69e3 e83f 3624 e83f
00000010: 6e5f 1040 3ea0 2840 3c91 e23f ccba 2540
00000020: f05c 603f e61d 2b3f 4dd2 503f a371 a33f
00000030: 3e76 ba3f 66b4 b73f fbaa 1b3f 8898 8e3f
00000040: df0e 253f eaa1 0c3f 6d01 943e 6115 0e3f
00000050: 3a7c f83e 1945 573e 0fde e93e b31a ec3e
2.2049239 1.6303123 1.81944 1.8136051 2.2558246 2.6347804 1.7700572 2.5895262
0.8764181 0.66842496 0.81570894 1.2769054 1.4567335 1.4351928 0.6080777 1.1140299
0.64475816 0.5493456 0.28907338 0.5550137 0.48532277 0.21022452 0.4567723 0.4611412

quadjetResNetBlock.reinforce.0.conv.conv.bias f4 [1, 8, 1]
00000000: ceba b53e 01ed debe f285 19be 0b4c 353f
00000010: c8f6 073f cb58 d6be 9bb8 91bf a076 edbe
0.35494083 -0.43540195 -0.14992502 0.7081916 0.53110933 -0.4186462 -1.1384462 -0.46379566

quadjetResNetBlock.reinforce.0.conv.conv.module.weight f4 [4, 8, 3]
00000000: 3122 153f af48 e9be c05e 4ebe 3af5 bc3d
00000010: f9e5 0b3e 6fab a5be 32da 773f 70a6 c63e
00000020: f77a 1bbf 9e80 813d db98 a43f 953d 123f
00000030: 05e6 7e3e 800a 893e af4a 6e3e 082a bcbe
00000040: ff7d 02be 4a24 5fbf 07e2 f9be 0daa 89be
00000050: a14b a13e e038 c4bd 0172 373f fcd7 31bf
00000060: dc98 833f 7ec1 283e 48ac f4bd 6b7a 41bf
00000070: f6c2 5cbe 4a35 df3e 4ea2 863f 6216 043f
00000080: 79fe d03e 14ce 763e ff10 c4bd 9a8b 8c3e
00000090: fe46 4bbe 9376 82be da40 833d a972 573f
000000a0: 4b3e a83d 5871 edbc c758 54bf 2cca 99bd
000000b0: 1df7 323e 6371 e73e add3 b33e eb91 d6be
000000c0: 14c5 713f ccf8 81be 3322 873e 2a09 cf3d
000000d0: 6a4f 02be e04d 2dbe 3c7e 8f3f 2174 c03d
000000e0: 5137 f93e 90f7 8fbe 2672 403d b186 543e
000000f0: 87ad fd3e b115 31be 17bd 2d3d 706b 6cbd
00000100: d5f0 adbd 90ff 0a3f 48fe ddbf 5fab 50bd
00000110: 0651 30bf 0e6b 473f 247a 88be 6bb3 f5bd
00000120: c991 f93e 2aef b33d 5917 af3e 3b3c d1be
00000130: a482 3c3e 37e9 5abc 7c6a 28bf b542 33be
00000140: ab14 afbe 5edd bd3f 6115 97bd 0f7f 2abe
00000150: 9823 7dbf 8bb7 64be aff2 593d f1d2 28be
00000160: 8bb6 0ebb 7758 223f f1c1 eebf 4732 013e
00000170: 74b9 b8bd 6a39 28bf 0580 f53b ae27 ea3d
0.58255297 -0.45563266 -0.20153332 0.09226461 0.13661946 -0.32357356 0.96817315 0.38798857
-0.60734504 0.0632336 1.2859148 0.57125217 0.24892433 0.26765823 0.23270677 -0.36750817
-0.12743376 -0.8716475 -0.48805258 -0.2688755 0.31503013 -0.095811605 0.7165833 -0.6947019
1.0281024 0.16480061 -0.119469225 -0.7557742 -0.21558747 0.43595344 1.0518281 0.51596653
0.40819147 0.2410205 -0.09573554 0.27450258 -0.198513 -0.2548109 0.06408854 0.8415933
0.082150064 -0.02898471 -0.82947963 -0.07509264 0.17477079 0.45203695 0.35122433 -0.41908202
0.9444134 -0.2538513 0.2639328 0.1010917 -0.12725607 -0.16924238 1.1210399 0.0939715
0.48675016 -0.28118563 0.04698386 0.20754506 0.49546453 -0.17293431 0.04241666 -0.057719648
-0.08493201 0.5429621 -1.7343225 -0.050944682 -0.6887363 0.7789773 -0.26655686 -0.11997112
0.48744038 0.08785851 0.341975 -0.40866265 0.1840921 -0.013361267 -0.6578748 -0.17505915
-0.34195456 1.4833181 -0.073771246 -0.16650032 -0.98882437 -0.22335641 0.053209957 -0.16486718
-0.0021776285 0.63416237 -1.8652936 0.12616836 -0.090197474 -0.65712607 0.0074920678 0.114333495

quadjetResNetBlock.reinforce.1.sym.weight f4 [8, 1, 2]
00000000: 0000 003f 0000 003f 0000 003f 0000 003f
00000010: 0000 003f 0000 003f 0000 003f 0000 003f
00000020: 0000 003f 0000 003f 0000 003f 0000 003f
00000030: 0000 003f 0000 003f 0000 003f 0000 003f
0.5 0.5 0.5 0.5 0.5 0.5 0.5 0.5
0.5 0.5 0.5 0.5 0.5 0.5 0.5 0.5

quadjetResNetBlock.reinforce.1.antisym.weight f4 [8, 1, 2]
00000000: 0000 003f 0000 00bf 0000 003f 0000 00bf
00000010: 0000 003f 0000 00bf 0000 003f 0000 00bf
00000020: 0000 003f 0000 00bf 0000 003f 0000 00bf
00000030: 0000 003f 0000 00bf 0000 003f 0000 00bf
0.5 -0.5 0.5 -0.5 0.5 -0.5 0.5 -0.5
0.5 -0.5 0.5 -0.5 0.5 -0.5 0.5 -0.5

quadjetResNetBlock.reinforce.1.conv.m f4 [1, 1, 3, 8]
00000000: 2b5e 2740 a5d3 7d3f 7836 3d3f c952 dd3e
00000010: 8077 253f 303f f43f 4d96 983f fecb a740
00000020: 39ee 363f dee7 f33e bf66 253f 7af8 cd3e
00000030: e5a5 0d3f 5f2d 8c3f 42aa 3f3f c1f0 943f
00000040: 520b 4440 55cb d13f c6f1 0b40 f202 4a3f
00000050: b9c1 ef3f 71b0 523f 5fa2 0940 aac5 6d3e
2.6151226 0.9915107 0.7391124 0.43227223 0.6463547 1.9081783 1.1920868 5.2436514
0.7145725 0.47637838 0.64609903 0.40228635 0.5533126 1.0951346 0.7486917 1.1635972
3.063191 1.6390177 2.1866317 0.78910744 1.8730994 0.8230048 2.1505353 0.23219934

quadjetResNetBlock.reinforce.1.conv.s f4 [1, 1, 3, 8]
00000000: 67d4 ca3f cde9 a13f 4ac6 ad3f a824 7f3f
00000010: d1f0 a93f ad5f 2740 6eee ac3f e134 2040
00000020: aa07 203f 7c5a 0b3f 763f 813f eadb 2e3f
00000030: 9922 6c3f 5e40 bd3f ec93 3c3f a7b2 7f3f
00000040: a4eb 1d40 821a 1540 04ff 4040 716d 603f
00000050: bcdd 0840 e84c b83f 3620 2640 0df4 4b3f
1.584607 1.2649475 1.3576138 0.9966531 1.3276616 2.6152146 1.3510263 2.5032275
0.62511694 0.54434943 1.0097492 0.6830431 0.9224029 1.4785268 0.7366321 0.99881977
2.4675074 2.329743 3.015565 0.87666994 2.1385336 1.439847 2.595716 0.79669267

quadjetResNetBlock.reinforce.1.conv.conv.bias f4 [1, 8, 1]
00000000: 3cbf 2e40 ac98 913f 13ed 553f 01be 57bf
00000010: 829c 993f 8297 a2be 0a0a 0840 d1d0 c43e
2.730422 1.1374717 0.8356487 -0.842743 1.2000887 -0.31756216 2.1256127 0.38440564

quadjetResNetBlock.reinforce.1.conv.conv.module.weight f4 [4, 8, 3]
00000000: 6df4 03bf c294 9a3c 03dc 183d b0da 2ebd
00000010: 0b18 903e 7866 b43e cf37 343d c294 9b3e
00000020: 2e64 e6be 0e4e 0ebe eeb1 873d bc57 503d
00000030: da41 ecbd ab5d 7fbd f810 263e 206a cf3c
00000040: fac8 40bd 1383 7fbe 17aa c0bf c356 90be
00000050: 490c 0ebf 4ba7 3cbe db2b 0a3e e4ec 04bf
00000060: ffde bcbf 999c c9bc d325 e1bd 8896 df3e
00000070: 0304 5cbe 1afd 17bf 1cd8 17bf 0faf 56be
00000080: d559 483d 43c8 89be 9502 30be 0dd1 3d3e
00000090: 3fe1 88be aac0 2cbe d93f a93e c54b c5bf
000000a0: c8d2 4cbb df48 793f 8b2c d0be f702 e1bc
000000b0: 2e25 02be 6dd3 08bf 361f 5c3e c046 d73d
000000c0: 8f74 28be b8a6 ae3e 3031 f83e b948 d9bd
000000d0: 4e06 e7bd 5619 cdbe 4f72 cfbe 009c d53b
000000e0: c305 9a3e d15b 383e 1d6f f13e 3860 85bd
000000f0: ad68 21bd 065b d4be ad8e 373e cc93 c83d
00000100: ba01 91bd 7f7a 8b3e db2e 30bf 59bd 3b3e
00000110: 8862 9f3f 01c5 29bf 47a0 203e a13a 61bd
00000120: 1c47 023d a1d7 cbbe e496 5fbf 9069 59bf
00000130: 9b62 21bb 8e57 0ebe 1281 acbe d32d 1ebe
00000140: 91bd 02bf 1c74 233f c384 57bf e35d 603e
00000150: a38f 5cbf 2603 8f3e 5899 873f 8d3d ebbe
00000160: 5b52 5bbe 8188 b63e 6f8e 55be 6ad2 0cbf
00000170: f628 ba3e 47a4 debe 5ad6 aabd ce5d 343e
-0.5154484 0.018869761 0.037319195 -0.042689025 0.28143343 0.35234427 0.043998536 0.3038693
-0.44998306 -0.13896963 0.06625734 0.05086492 -0.11535998 -0.062345188 0.1621741 0.025319159
-0.047066666 -0.24952345 -1.5051907 -0.28191194 -0.55487496 -0.18423192 0.13493292 -0.51923966
-1.4755553 -0.024610804 -0.109935425 0.43669534 -0.21485905 -0.5937058 -0.5931413 -0.20965217
0.048913796 -0.269106 -0.17188485 0.18536778 -0.2673435 -0.1687037 0.33056524 -1.5413748
-0.0031253565 0.9737682 -0.40658984 -0.027467234 -0.12709495 -0.5344761 0.21496281 0.10511541
-0.16450714 0.3411157 0.48475027 -0.10609574 -0.112804994 -0.40058392 -0.40516898 0.006518841
0.3008252 0.18003775 0.47155085 -0.06512493 -0.039406467 -0.41475695 0.1792552 0.09793815
-0.070804074 0.27241895 -0.68821496 0.18333949 1.2451944 -0.6631623 0.15686141 -0.054987554
0.031806096 -0.3981295 -0.87339616 -0.849267 -0.0024625424 -0.13900587 -0.33692223 -0.15447168
-0.51070505 0.63849044 -0.84186953 0.21910815 -0.8615667 0.2793209 1.0593672 -0.45945397
-0.21418135 0.3565102 -0.20855115 -0.55008566 0.36359376 -0.4348471 -0.083416656 0.17613909

quadjetResNetBlock.conv.0.m f4 [1, 1, 1, 8]
00000000: 0b37 2b40 1c12 883f b607 db3f 1dcb 7b3f
00000010: 6ad3 b93f c666 0540 fba1 ac3f d32d 6d40
2.6752346 1.0630527 1.7111728 0.983568 1.4517643 2.0843978 1.3486933 3.705922

quadjetResNetBlock.conv.0.s f4 [1, 1, 1, 8]
00000000: 1a88 2140 d4a9 eb3f 5ad6 0740 0723 1640
00000010: 0f0a 3640 7fd2 4c40 21af f83f ee8a 4540
2.523932 1.8411202 2.122458 2.345888 2.844364 3.2003477 1.9428445 3.0866046

quadjetResNetBlock.conv.0.conv.bias f4 [1, 8, 1]
00000000: 57d8 653f 3d42 c6be d382 d8bf 63a2 39bc
00000010: 1924 9c3e 322f edbe ca41 3c3b 0eb9 1240
0.89783233 -0.3872241 -1.6914924 -0.01133022 0.3049629 -0.4632507 0.0028725737 2.2925448

quadjetResNetBlock.conv.0.conv.module.weight f4 [4, 8, 1]
00000000: 0fe9 a2bd 2776 fcbe a1cd 5abf d674 03be
00000010: c759 8a3f 3f94 97be 38dd a53c 8a1b 52bf
00000020: a433 f83e 08cb 66bf a9bc 0abf b6b8 0f3f
00000030: d1c5 39be 9b0e 4f3d 9436 6abd 6708 893f
00000040: a01f 343f 91f6 edbe fe3f f23e 55a6 db3f
00000050: 4550 623f b39a 223f 3970 9a3f 6ae2 b43e
00000060: 6650 e9bd 08f6 30be fbe0 1c3e d04f cabe
00000070: ed14 71bf a7ab 00be aa3d f53e adea 413f
-0.07954609 -0.49308893 -0.85470015 -0.12837538 1.0808648 -0.2960529 0.020247087 -0.8207327
0.484769 -0.9015355 -0.5419412 0.5614122 -0.18141867 0.05055104 -0.057180956 1.0705689
0.70360756 -0.46477178 0.47314447 1.7160136 0.8840373 0.635173 1.2065498 0.3532899
-0.11392288 -0.17281353 0.15320198 -0.39514017 -0.94172555 -0.1256548 0.47898608 0.7574871

select_q.m f4 [1, 1, 1, 8]
00000000: 6dcd a940 78ac 0b40 6d08 bf3f 28d9 6e3f
00000010: 136f 1040 22c5 813e 596a 6140 bc0b d13f
5.3063264 2.1824017 1.4924446 0.93300104 2.2567794 0.25345713 3.522116 1.6331706

select_q.s f4 [1, 1, 1, 8]
00000000: 732f 1540 e6b0 e03f 17fb 0940 611d ef3f
00000010: 6c56 0c40 ab6c af3f dfde 0840 dbd7 0640
2.331021 1.7553985 2.1559503 1.8680841 2.1927748 1.3705038 2.138603 2.1069248

select_q.conv.module.weight f4 [1, 8, 1]
00000000: 586a 8cbe c868 aa3d c4ac 023e 269a c53e
00000010: 74a3 693e 8071 733e fed7 e4be 383e 97be
-0.27424884 0.08320767 0.12761217 0.38594168 0.22816259 0.23773766 -0.4469604 -0.29539657

out.m f4 [1, 1, 1, 8]
00000000: c064 6d40 07ed 4a40 f88f 3e40 1c68 0d40
00000010: 16b3 7240 d49e 173e 55e2 0240 56e5 103f
3.7092743 3.170717 2.9775372 2.2094793 3.7921805 0.14806682 2.0450642 0.5659994

out.s f4 [1, 1, 1, 8]
00000000: aaf3 ff3f b48d db3f fab8 ec3f ac8e ff3f
00000010: 11c3 0140 e0d0 533f 86ca ca3f dc0a 6a3f
1.9996235 1.7152619 1.849395 1.9965415 2.027531 0.8274059 1.5843055 0.9142282

out.conv.module.weight f4 [5, 8, 1]
00000000: ead7 ff3d eab7 4bbf 9a45 9a3d 44bc ecbd
00000010: a8ec 7fbe bd00 b13e eb9c 933e c6ca c3bb
00000020: 37fb 2e3e 88ee 1c3f d250 aabf d7c6 78bf
00000030: 772a 19bf 37c8 c83d a67d 883e 1e9d da3e
00000040: 0572 12be 562e 833c 246d 49bf 3e44 9d3d
00000050: 0dc4 7f3f 75c7 4e3d 9020 b7bd 5268 5b3d
00000060: ac9b e93e f458 093f 7e17 273f e8c2 713c
00000070: 1082 52bf 5139 40bd ff8c 81bd ce58 863d
00000080: 5ab5 5dbe 934a 043f 8104 8e3f 1833 67bf
00000090: cda2 2a3e 8a51 0dbe 6323 e43e c613 49bc
0.12492354 -0.79577506 0.07532807 -0.11559346 -0.24992621 0.34570876 0.28830656 -0.0059751
0.17088018 0.6130147 -1.3305914 -0.97178406 -0.5983042 0.09803813 0.26658362 0.42697996
-0.14301307 0.016013306 -0.7868216 0.07679032 0.99908525 0.050483186 -0.08941758 0.053566284
0.4562658 0.53651357 0.6527022 0.014755942 -0.8222971 -0.04692966 -0.06325721 0.06559907
-0.21651211 0.5167629 1.1095124 -0.9031234 0.16663666 -0.13800636 0.44558248 -0.012272781

out.conv.module.bias f4 [5]
00000000: 7176 db3f 374b 1ec0 e2de db3d 195c adbf
00000010: 6a86 79bf
1.714552 -2.4733407 0.10735871 -1.3543731 -0.97470725
