metadata/weights/pytorch_models/2024_HHUL_all_kl/model_SvB_ggF_all_kl__kfolds_3__offset_1__58798d73-c4d1-4ee2-876f-1edfaeeb49ba.pkl (torch, 114438 bytes, 118 tensors)

inputEmbed.ancillaryEmbed.m f4 [1, 1, 1, 4]
0	0x41877ca6	16.935863
1	0x3f0594c1	0.52180105
2	0x40519b29	3.2750952
3	0x3f9ba4ee	1.2159708

inputEmbed.ancillaryEmbed.s f4 [1, 1, 1, 4]
0	0x3f5b0b3e	0.8556403
1	0x3ef884e5	0.4853889
2	0x40393322	2.893746
3	0x4064296a	3.5650277

inputEmbed.ancillaryEmbed.conv.module.weight f4 [4, 4, 1]
0	0xbbcec250	-0.006309785
1	0xbd948434	-0.07251778
2	0xbd2faac3	-0.04288746
3	0xbc00494c	-0.007829975
4	0x3c93ee81	0.018058063
5	0xbe643895	-0.2228721
6	0x3dc7cdf5	0.0975608
7	0x3d9759ed	0.07390199
8	0xbcee708b	-0.029106399
9	0xbc8924a2	-0.0167411
10	0x3ba2419a	0.004951668
11	0xbccc1991	-0.024914535
12	0x3c9c7b27	0.019101692
13	0xbed0caba	-0.40779668
14	0x3dafad7e	0.08578013
15	0x3c3797c2	0.0112056155

inputEmbed.jetEmbed.m f4 [1, 1, 1, 4]
0	0x40916e48	4.544712
1	0x3ef29bd1	0.47384503
2	0x3f6cde6e	0.925269
3	0x402abbff	2.6677244

inputEmbed.jetEmbed.s f4 [1, 1, 1, 4]
0	0x3eec42f9	0.46144846
1	0x3f661aa9	0.8988443
2	0x3f4a8c23	0.7912008
3	0x3eb9172c	0.3615049

inputEmbed.jetEmbed.conv.bias f4 [1, 8, 1]
0	0xbe097717	-0.13424335
1	0xbd758d8a	-0.059949435
2	0x3eae4472	0.34036595
3	0xbf02dfc9	-0.5112272
4	0xbf342d5c	-0.7038171
5	0xbf425397	-0.759088
6	0x3db3d811	0.08781446
7	0x3e759a4a	0.23984638

inputEmbed.jetEmbed.conv.module.weight f4 [4, 4, 1]
0	0xbf1dcec0	-0.616436
1	0xbf806d93	-1.0033439
2	0xbf6f4c96	-0.93476236
3	0xbf63754f	-0.88850874
4	0x3f618f10	0.8810892
5	0xbf2d5a54	-0.67715955
6	0x3d774c83	0.0603757
7	0x3f9417a5	1.1569716
8	0x3fd98d74	1.6996293
9	0x3dee6306	0.11639981
10	0x3df525a8	0.11970073
11	0xbf4ce857	-0.8004202
12	0xbf276135	-0.653827
13	0xbc71b93a	-0.014753634
14	0x3e8d25c9	0.2756789
15	0xbe7f2aa6	-0.24918613

inputEmbed.jetConv.m f4 [1, 1, 1, 8]
0	0x3ee743eb	0.45169005
1	0x3f191e8e	0.5981225
2	0x3edf8c06	0.43661517
3	0x3ca66747	0.020312918
4	0x3e5899e8	0.2115246
5	0x3e8ff5ca	0.2811721
6	0x3e99a555	0.3000895
7	0x3eccdda1	0.4001284

inputEmbed.jetConv.s f4 [1, 1, 1, 8]
0	0x3f7123e5	0.94195396
1	0x3fa817d5	1.3132273
2	0x3f4cd850	0.80017567
3	0x3ec56cf4	0.38559687
4	0x3f537c13	0.826112
5	0x3f422fb9	0.7585407
6	0x3f1405c9	0.5782133
7	0x3f3c627e	0.7358779

inputEmbed.jetConv.conv.bias f4 [1, 8, 1]
0	0x3f9bfbba	1.2186196
1	0xbf1075dc	-0.5642984
2	0x3f752683	0.9576189
3	0xbd8d4d64	-0.06899527
4	0xbf6f6981	-0.9352036
5	0x3fb0824c	1.3789763
6	0xbef8cabc	-0.48592174
7	0xbf2da4a1	-0.6782933

inputEmbed.jetConv.conv.module.weight f4 [4, 8, 1]
0	0xbca58d2e	-0.020208921
1	0x3ed56525	0.4167873
2	0x3eeaeb16	0.4588248
3	0xbed1338e	-0.40859646
4	0x3e897f50	0.26854944
5	0xbe3a2d0f	-0.18181251
6	0x3d49387f	0.049126144
7	0x3f429447	0.76007503
8	0xbf0a4414	-0.5401013
9	0x3f0435fe	0.51644886
10	0xbf987c64	-1.1912961
11	0xbd8d771b	-0.06907483
12	0x3e972dde	0.2952718
13	0xbed24ef2	-0.41075855
14	0x3f856df1	1.0424176
15	0x3eb55a27	0.35420343
16	0xbf0770e6	-0.52906644
17	0x3f1d5b13	0.61467093
18	0x3f4cc8e9	0.79994065
19	0xbe3a6218	-0.18201482
20	0xbe777e43	-0.24169259
21	0xbf808ec9	-1.0043575
22	0xbf16cc7a	-0.58905756
23	0xbe1832db	-0.1486315
24	0xbc14ef0e	-0.009090198
25	0x3f30b0bc	0.69019675
26	0x3ee5fff8	0.4492185
27	0xbf4357a2	-0.7630559
28	0x3f290ccd	0.6603516
29	0xbdd2bfed	-0.10290513
30	0xbec6720a	-0.3875888
31	0xbe7710a0	-0.24127436

inputEmbed.othJetEmbed.m f4 [1, 1, 1, 4]
0	0x408ca53c	4.39517
1	0x3ebf3f31	0.373529
2	0x40248fa7	2.5712678
3	0x3fc5c41f	1.5450476

inputEmbed.othJetEmbed.s f4 [1, 1, 1, 4]
0	0x3f192413	0.5982067
1	0x3f8f37bf	1.1188887
2	0x3ee2b75a	0.4428051
3	0x3f3d40a0	0.73926735

inputEmbed.othJetEmbed.conv.bias f4 [1, 8, 1]
0	0xbe980730	-0.29692984
1	0x3fc34247	1.5254601
2	0xbf16195a	-0.58632433
3	0xbd48aa1b	-0.04899035
4	0x3ecae7bf	0.39629933
5	0xbcc77268	-0.024346545
6	0xbe5555ff	-0.20833586
7	0xbf146f66	-0.5798248

inputEmbed.othJetEmbed.conv.module.weight f4 [4, 4, 1]
0	0xbfa84a9d	-1.314777
1	0x3b070627	0.0020603032
2	0xbdfe6589	-0.1242171
3	0x3f971810	1.1804218
4	0xbbf1f724	-0.007384198
5	0xbbb698d3	-0.0055724173
6	0x3f970a60	1.1800041
7	0x3f626d24	0.88447785
8	0xbf0dc74b	-0.5538222
9	0xbcd63293	-0.026147163
10	0x3e3fbc30	0.18724132
11	0xbf91e5e7	-1.1398286
12	0xbfe970c7	-1.8237542
13	0xbb3819a9	-0.0028091467
14	0x3e07a78a	0.13247505
15	0xbb378f2e	-0.0028008926

inputEmbed.othJetConv.m f4 [1, 1, 1, 8]
0	0x3dff5498	0.12467307
1	0x3fcaa1ed	1.5830666
2	0x3dc39282	0.095494285
3	0x3ecfc120	0.4057703
4	0x3f135499	0.5755096
5	0x3efb3409	0.49063137
6	0x3e63365a	0.22188702
7	0x3e8f3377	0.27968952

inputEmbed.othJetConv.s f4 [1, 1, 1, 8]
0	0x3eec6c0e	0.4617619
1	0x3fa8a926	1.317662
2	0x3f413274	0.7546761
3	0x3f74678d	0.95470506
4	0x3f84ce92	1.037554
5	0x3fa03f3f	1.2519301
6	0x3eb21e54	0.34788764
7	0x3f5f1d2a	0.87153876

inputEmbed.othJetConv.conv.bias f4 [1, 8, 1]
0	0x3eddf4a9	0.43350723
1	0x3fce66f4	1.6125169
2	0x400267d5	2.0375874
3	0x3d8a54ff	0.06754493
4	0x3fddb943	1.7322162
5	0x3ff920fa	1.9463189
6	0x3f036e53	0.51340216
7	0x3f62e9de	0.88638103

inputEmbed.othJetConv.conv.module.weight f4 [4, 8, 1]
0	0xbf15c506	-0.5850376
1	0xbe9ab6f0	-0.30217695
2	0xbfc7bfff	-1.5605468
3	0xbe62d931	-0.22153164
4	0x3f0cb28d	0.54959947
5	0x3e6424dc	0.22279686
6	0x3d2789d6	0.040902935
7	0x3e307a5f	0.17234181
8	0x3e44149d	0.19148488
9	0xbe92f1c3	-0.28700075
10	0xbd01f08c	-0.031723544
11	0x3eaf2bfa	0.3421324
12	0xbf108c62	-0.5646421
13	0xbea35afa	-0.31905347
14	0xbeeed79c	-0.46648872
15	0xbf0e0565	-0.5547698
16	0x3f251009	0.6447759
17	0xbe438be9	-0.1909634
18	0x3f07ed5c	0.53096557
19	0x3f088d60	0.5334072
20	0xbf1bf275	-0.60916835
21	0x3db7abf4	0.08968344
22	0x3e15a9f5	0.14615615
23	0xbf58dc64	-0.8471129
24	0x3f75603b	0.9584996
25	0x3d25fd26	0.040524624
26	0x3e210811	0.15725733
27	0x3db6b4c3	0.08921196
28	0x3ce7f73e	0.028316136
29	0xbf9d605a	-1.2295029
30	0x3eec9360	0.46206188
31	0xbe7ee853	-0.24893312

inputEmbed.MdPhi_embed.m f4 [1, 1, 1, 3]
0	0x40ab27a3	5.3485885
1	0x3fe8f8bb	1.8200907
2	0x3eddf22c	0.43348825

inputEmbed.MdPhi_embed.s f4 [1, 1, 1, 3]
0	0x3f2f48f1	0.68470675
1	0x3f6d1214	0.9260571
2	0x3efdb994	0.49555647

inputEmbed.MdPhi_embed.conv.bias f4 [1, 8, 1]
0	0x3f888894	1.066668
1	0x3f0f2eaf	0.5593061
2	0x3ca9ce4b	0.020728251
3	0x40058f2a	2.086863
4	0x3fb5b974	1.4197221
5	0x3f4b129f	0.7932529
6	0x3c0c81b4	0.0085758455
7	0xbf3f6531	-0.7476378

inputEmbed.MdPhi_embed.conv.module.weight f4 [4, 3, 1]
0	0x3e885f05	0.26634994
1	0xbfd8c8bd	-1.693626
2	0x3ea7b9cf	0.32758948
3	0x3ebc1c9b	0.36740574
4	0x3f8ffaed	1.1248451
5	0xbf3a221e	-0.7270831
6	0x3e46fc36	0.19432148
7	0xbf523750	-0.8211565
8	0xbf99b72d	-1.2009026
9	0x4005ca9f	2.090492
10	0x3e61159e	0.21980903
11	0xbf33a267	-0.7016968

inputEmbed.MdPhi_conv.m f4 [1, 1, 1, 8]
0	0x3f893742	1.0719988
1	0x3f3b9ebb	0.7328908
2	0x3ed9f88b	0.42572436
3	0x400cd2fd	2.2003777
4	0x3fbc249a	1.469867
5	0x3f55dec7	0.83543056
6	0x3ec73f41	0.38915446
7	0x3e5ee4f8	0.21767032

inputEmbed.MdPhi_conv.s f4 [1, 1, 1, 8]
0	0x3fad4317	1.3536099
1	0x3f71f4d6	0.94514215
2	0x3f42f0d6	0.76148736
3	0x3fdb2564	1.7120786
4	0x3fab2f2e	1.3373773
5	0x3f872871	1.0559217
6	0x3f4f2561	0.8091641
7	0x3f5ba16f	0.85793203

inputEmbed.MdPhi_conv.conv.bias f4 [1, 8, 1]
0	0x3f8ed5dd	1.1159016
1	0xbf024287	-0.5088276
2	0x3f6722f6	0.9028772
3	0x3fbd46f8	1.4787283
4	0x40462c9f	3.0964735
5	0x40037ef9	2.0546248
6	0x3feb4544	1.8380513
7	0x3e857b85	0.260708

inputEmbed.MdPhi_conv.conv.module.weight f4 [4, 8, 1]
0	0xbf98f5a3	-1.1949962
1	0xbdd75840	-0.10514879
2	0x3c314fb8	0.010822229
3	0xbee89f02	-0.45433813
4	0x3e550356	0.20802054
5	0xbf720a66	-0.94547117
6	0xbe39153b	-0.18074505
7	0xbed4c8be	-0.41559404
8	0xbf03b408	-0.5144658
9	0x3e957894	0.29193556
10	0xbd8c838b	-0.06861027
11	0xbe6fe4d1	-0.2342713
12	0xbee221bd	-0.44166365
13	0x3f6bb009	0.92065483
14	0x3f8f7c19	1.1209747
15	0x3fe8d037	1.8188542
16	0x3f78711d	0.970476
17	0xbeb806e5	-0.3594276
18	0x3e0f49cb	0.13992994
19	0x3d72e4de	0.059300296
20	0xbda1ea76	-0.07906048
21	0x3edde6d9	0.43340185
22	0x3f38350c	0.71955943
23	0xbde5c223	-0.11218669
24	0x3cc9e12b	0.024643501
25	0xbf20900a	-0.62719786
26	0x3debf3bd	0.11521099
27	0xbf0f956b	-0.5608737
28	0xbf961abb	-1.1726907
29	0xbd6e7831	-0.058220092
30	0xbdf36c4f	-0.118858926
31	0xbf5c3233	-0.860141

inputEmbed.dijetEmbed.m f4 [1, 1, 1, 4]
0	0x4092b710	4.5848465
1	0x3f561ee5	0.8364089
2	0x3f749eac	0.95554614
3	0x40a2e3f9	5.0903287

inputEmbed.dijetEmbed.s f4 [1, 1, 1, 4]
0	0x3f405173	0.7512428
1	0x3fa3f6ec	1.280973
2	0x3f9833ca	1.1890805
3	0x3f049564	0.5179045

inputEmbed.dijetEmbed.conv.bias f4 [1, 8, 1]
0	0x3ebfdf84	0.37475216
1	0x3f11ed2a	0.5700251
2	0x3e333865	0.17501982
3	0xbc5acf01	-0.013355018
4	0x3f1373e4	0.5759871
5	0xbe3e945f	-0.18611287
6	0xbf8f12a3	-1.1177562
7	0x3e0a72ea	0.13520399

inputEmbed.dijetEmbed.conv.module.weight f4 [4, 4, 1]
0	0xbc163b4b	-0.00916941
1	0xba7f9b3d	-0.00097506103
2	0xbd3c580e	-0.045982413
3	0x3ff512f5	1.914641
4	0xbf1e6b92	-0.6188289
5	0xbd21cdbc	-0.039502844
6	0x3c26c4b3	0.010178733
7	0x3f7c33d0	0.9851656
8	0x3e9242e6	0.28566664
9	0xbcabc37b	-0.020967236
10	0x3d3065ad	0.043065716
11	0x3f8d4be1	1.1038781
12	0xbe5fa5be	-0.2184057
13	0x3ce20c72	0.027593825
14	0x3c4c0dc0	0.01245445
15	0x40733940	3.8003693

inputEmbed.quadjetEmbed.m f4 [1, 1, 1, 3]
0	0x408a866b	4.3289084
1	0x3fb7b51a	1.4352143
2	0x40c4e720	6.1532135

inputEmbed.quadjetEmbed.s f4 [1, 1, 1, 3]
0	0x3f5f9ad8	0.8734565
1	0x3fe73ebc	1.806602
2	0x3eabe3b1	0.33572152

inputEmbed.quadjetEmbed.conv.bias f4 [1, 8, 1]
0	0x3ca27ae9	0.019833999
1	0xc00411cb	-2.063586
2	0x3e869d4d	0.26291886
3	0x3f5dc339	0.8662601
4	0x3dfda809	0.12385566
5	0xbe25f936	-0.16208348
6	0xbf2197aa	-0.63122046
7	0xbe53b24e	-0.20673487

inputEmbed.quadjetEmbed.conv.module.weight f4 [4, 3, 1]
0	0xbc78b605	-0.015180116
1	0x3d6b67fc	0.057472214
2	0x3fcd2500	1.6026917
3	0x3fbe2761	1.4855767
4	0xbd7ad6d4	-0.061240032
5	0xbec02873	-0.3753086
6	0xbf15e691	-0.5855494
7	0xbf8563f7	-1.0421132
8	0x3e1f8b67	0.15580522
9	0xbef56539	-0.4792879
10	0x3f0cc5ab	0.5498912
11	0xbe189f49	-0.14904512

inputEmbed.dijetConv.m f4 [1, 1, 1, 8]
0	0x3f447b2e	0.7675046
1	0x3f33c575	0.7022317
2	0x3e8504ec	0.25980318
3	0x3fb78d08	1.4339914
4	0x3f76771e	0.9627551
5	0x3eb0adf3	0.34507713
6	0xbe167db7	-0.14696394
7	0x3fc0d5da	1.5065262

inputEmbed.dijetConv.s f4 [1, 1, 1, 8]
0	0x3faeea59	1.3665267
1	0x3f81bd1e	1.0135839
2	0x3f31b195	0.69411594
3	0x401b88bc	2.4302206
4	0x3fa0b6af	1.2555751
5	0x3f3b7e65	0.7323974
6	0x3e6a5632	0.22884443
7	0x40082d1f	2.127754

inputEmbed.dijetConv.conv.bias f4 [1, 8, 1]
0	0x3e08f04f	0.1337292
1	0x3eb6d03f	0.35705754
2	0xbf47f899	-0.78113705
3	0x3ece411d	0.40284052
4	0xbf1b859a	-0.60750735
5	0x3e2cb908	0.16867459
6	0xbf45ee7a	-0.7731701
7	0xbf221653	-0.63315314

inputEmbed.dijetConv.conv.module.weight f4 [4, 8, 1]
0	0x3eb978ee	0.36225075
1	0xbeb59164	-0.35462487
2	0x3e581735	0.21102603
3	0xbe75ac70	-0.23991561
4	0x3e2d797b	0.16940872
5	0xbe86c462	-0.26321703
6	0x3ea50222	0.3222819
7	0xbf289a69	-0.6586061
8	0xbe835b34	-0.2565552
9	0x3dd399ba	0.103320554
10	0xbe9ae2be	-0.30251116
11	0xbe7688cf	-0.24075626
12	0x3e9da25e	0.3078794
13	0x3ec7bd5e	0.39011663
14	0x3f14d43e	0.58136356
15	0x3ef46f72	0.47741276
16	0x3ecd97d8	0.4015491
17	0x3e7282b5	0.23682673
18	0xbe6a7f32	-0.22900084
19	0x3fdb1881	1.7116853
20	0x3e98783e	0.29779238
21	0xbe4be11a	-0.19910088
22	0x3e530f20	0.20611238
23	0x3f253de1	0.64547545
24	0xbe38dcd6	-0.18052992
25	0xbc9287b6	-0.017886978
26	0x3d0551eb	0.032548826
27	0x3eaa21c6	0.33228892
28	0x3f8d14be	1.1021955
29	0x3f02366f	0.5086431
30	0x3e44345b	0.19160597
31	0x400eb710	2.2299232

inputEmbed.quadjetConv.m f4 [1, 1, 1, 8]
0	0x3ed2048a	0.41019088
1	0xbe010d26	-0.12602672
2	0x3e9da04f	0.30786368
3	0x3f2f2dc9	0.6842924
4	0x3f0275d3	0.50961035
5	0x3eeec6a2	0.4663592
6	0xbd38e7a1	-0.045142774
7	0x3e0cefbf	0.13763331

inputEmbed.quadjetConv.s f4 [1, 1, 1, 8]
0	0x3f777fcc	0.9667938
1	0x3e55b586	0.20870027
2	0x3f5f17a3	0.8714544
3	0x3f40b86e	0.7528142
4	0x3f620f79	0.8830486
5	0x3f808c7b	1.0042871
6	0x3e474825	0.19461115
7	0x3ecfee8b	0.4061168

inputEmbed.quadjetConv.conv.bias f4 [1, 8, 1]
0	0x3e27cc10	0.16386437
1	0xbe9d0890	-0.30670595
2	0x3e34de56	0.1766294
3	0x3f329097	0.69751877
4	0x3e808499	0.25101164
5	0xbe6906c4	-0.22756487
6	0xbdf7f5d6	-0.12107436
7	0xbeed6209	-0.46363857

inputEmbed.quadjetConv.conv.module.weight f4 [4, 8, 1]
0	0xbe910231	-0.28321984
1	0xbe3c8c62	-0.18412927
2	0xbd82a9a4	-0.06380013
3	0xbdf1775e	-0.117903456
4	0xbeb2d23b	-0.34926018
5	0xbcd9c249	-0.0265819
6	0xbe372102	-0.17883685
7	0xbdad6ed2	-0.08468403
8	0xbba52337	-0.0050395983
9	0x3d817ee9	0.06323034
10	0x3e269c0a	0.16270462
11	0x3e9adaa7	0.30244943
12	0xbda1fd5c	-0.079096526
13	0x3bc1ff2e	0.0059203124
14	0x3eece0de	0.4626531
15	0xbe856703	-0.26055154
16	0x3f19bd42	0.6005441
17	0xbe8bad16	-0.27280492
18	0xbd58e2ce	-0.052950673
19	0xbda26d87	-0.07931047
20	0xbec441bf	-0.3833141
21	0x3de441b3	0.11145344
22	0x3e57fe7c	0.21093172
23	0x3d198fa8	0.037490517
24	0xbee772c1	-0.45204738
25	0xbee76943	-0.45197496
26	0xbc620c92	-0.013796942
27	0x3d244973	0.04010911
28	0x3eeab948	0.45844483
29	0x3d4f64c3	0.050633203
30	0x3e344267	0.17603455
31	0x3d1542b3	0.036440562

dijetResNetBlock.reinforce.0.conv.m f4 [1, 1, 3, 8]
0	0x4005fd3a	2.0935807
1	0x3d9504ed	0.0727633
2	0x4013ce02	2.3094487
3	0x3f744662	0.95419896
4	0xbdce67da	-0.10078402
5	0x3fcfa810	1.6223164
6	0x3df05473	0.117348574
7	0xbdac9680	-0.08427143
8	0x3ed73bac	0.42037714
9	0x3e7d205a	0.24719372
10	0x3f2b03a7	0.6680245
11	0x3e4afe16	0.19823489
12	0x3ecf7868	0.4052155
13	0x3f843cdf	1.0331076
14	0x3fa60c83	1.2972568
15	0x3f284432	0.6572906
16	0x3e1c01e3	0.15235095
17	0x3f1da723	0.61583155
18	0x3e95eb08	0.29280877
19	0x3fbceb43	1.4759296
20	0xbe0df534	-0.13863069
21	0x3f070ca7	0.5275368
22	0x3de4c5ec	0.11170563
23	0x3f6d4bd2	0.9269382

dijetResNetBlock.reinforce.0.conv.s f4 [1, 1, 3, 8]
0	0x3ff1abbd	1.8880535
1	0x3f170316	0.58989084
2	0x3fdf6eb4	1.7455659
3	0x3fb3776c	1.402082
4	0x3e70ac68	0.23503268
5	0x3fad5828	1.3542528
6	0x3f482f87	0.7819752
7	0x3e9d1323	0.30678663
8	0x3f872e81	1.0561067
9	0x3f2b99e6	0.67031705
10	0x3fa24a1c	1.2678866
11	0x3f88fa81	1.0701448
12	0x3f2d8625	0.67782813
13	0x3f9619ae	1.1726587
14	0x3fdf0968	1.7424746
15	0x3f83f483	1.0308994
16	0x3eb5f6d0	0.35539865
17	0x3fb2fc25	1.3983198
18	0x3fa0d83b	1.2565988
19	0x403a3dd8	2.9100246
20	0x3e349d75	0.1763819
21	0x3f406ba5	0.7516425
22	0x3eb3b285	0.35097137
23	0x3f834944	1.0256734

dijetResNetBlock.reinforce.0.conv.conv.bias f4 [1, 8, 1]
0	0x3e23d94a	0.16000858
1	0xbe704880	-0.23465157
2	0xc0004150	-2.0039864
3	0x3fdedd2b	1.7411245
4	0xbf2cd657	-0.67514557
5	0x3ea6a5a2	0.32548243
6	0xbef047d0	-0.4692979
7	0xbf636979	-0.88832814

dijetResNetBlock.reinforce.0.conv.conv.module.weight f4 [4, 8, 3]
0	0xbed9eba1	-0.42562583
1	0xbe607ccc	-0.21922606
2	0x3cbae714	0.022815265
3	0x3daec4bf	0.0853362
4	0x3e177756	0.14791617
5	0xbf50f439	-0.81622654
6	0xbc672598	-0.014108084
7	0x3df1fe4c	0.118160814
8	0xbe4e5421	-0.2014928
9	0x3dedc71c	0.11610243
10	0x3e0bb0ef	0.13641714
11	0xbfad5727	-1.3542222
12	0xbe1036e7	-0.14083444
13	0x3eabbec2	0.33543974
14	0xbf972ffa	-1.1811516
15	0x3e0eb20a	0.13935104
16	0x3e2e60fc	0.17029184
17	0x3e386114	0.18005782
18	0xbe109c1c	-0.14122051
19	0xbe82b4b9	-0.25528505
20	0x3f82b5d4	1.021174
21	0x3ed30e4b	0.41221842
22	0x3b0b942e	0.0021298039
23	0x3f625d51	0.8842364
24	0xbde2e071	-0.11077965
25	0xbe07ce20	-0.13262224
26	0x3ea01c38	0.3127153
27	0xbe79a45f	-0.24379109
28	0x3ba51887	0.0050383243
29	0xbc88e568	-0.016710952
30	0xbe16dded	-0.14733095
31	0x3c03a9cf	0.008036091
32	0x3f3662b2	0.7124435
33	0x3cb656e5	0.022258231
34	0x3df4bd95	0.119502224
35	0x3e9fd856	0.3121974
36	0xbebad3a3	-0.3648959
37	0xbda1e3d5	-0.07904784
38	0xbddebe8d	-0.108761884
39	0xbdf81db4	-0.121150404
40	0x3e26b663	0.16280513
41	0x3fb3301b	1.3999056
42	0xbd0e9d10	-0.034817755
43	0x3e1d3df9	0.15355672
44	0xbfb38ba6	-1.4026992
45	0xbdb2eb87	-0.087363295
46	0x3e2a19a5	0.16611345
47	0x3fe1a8a0	1.7629585
48	0x3e3bd268	0.18341982
49	0x3e2c9727	0.16854535
50	0xbe02d996	-0.12778315
51	0x3cf507b1	0.029910894
52	0xbf01b9bd	-0.5067404
53	0xbe1a1425	-0.15046747
54	0x3eb56ed8	0.3543613
55	0x3f2eb5e1	0.68246275
56	0xbe8630dd	-0.26209155
57	0x3f4cfeed	0.80076486
58	0x3e911c72	0.28342015
59	0x3f876005	1.0576178
60	0xbf0e49c5	-0.55581313
61	0xbf0a6a22	-0.54068196
62	0x3f1eddf8	0.6205745
63	0xbd9f40c1	-0.07776023
64	0xbe9bb4f2	-0.30411488
65	0x3eefefc7	0.46862623
66	0x3e0deaf4	0.13859159
67	0xbe49398a	-0.19650856
68	0x3ea9328f	0.33046386
69	0xbebb86a3	-0.36626157
70	0xbea47593	-0.32120952
71	0x3ec4f8ed	0.38471165
72	0xbdf27d6a	-0.11840327
73	0xbd6a68d9	-0.057228897
74	0xbc0e86cb	-0.008699129
75	0x3ed59439	0.41714647
76	0x3f11d764	0.56969285
77	0x3ebccefc	0.36876667
78	0xbe732f95	-0.2374862
79	0xbdabd4c9	-0.08390195
80	0x3f1aeb05	0.6051486
81	0x3da107b9	0.07862801
82	0x3e1aacd1	0.15104987
83	0x3f54befb	0.83103913
84	0xbd808104	-0.06274608
85	0x3e40e071	0.18835618
86	0xbe69398e	-0.22775862
87	0xbe43ea29	-0.19132294
88	0xbe2cdf8f	-0.16882156
89	0xbecfdc45	-0.4059774
90	0x3e65d36d	0.22443934
91	0x3c4e2645	0.012582366
92	0xbebc2504	-0.3674699
93	0xbe600ce7	-0.21879922
94	0xbe99b025	-0.300172
95	0xbf6ae343	-0.91753024

dijetResNetBlock.reinforce.1.conv.m f4 [1, 1, 3, 8]
0	0x404767e3	3.1157157
1	0x3f2d4e20	0.67697334
2	0x4028619e	2.630958
3	0x3f90747a	1.1285546
4	0xbdd8105e	-0.10549997
5	0x40128819	2.2895567
6	0x3e3b6cd0	0.18303227
7	0xbd310a4e	-0.043222718
8	0x3f7889bb	0.9708516
9	0x3ebe655c	0.37186706
10	0x3f29e8f0	0.6637106
11	0x3e9cd4c4	0.30631077
12	0x3f0e3c89	0.5556112
13	0x4029bbbc	2.6520834
14	0x3fa9f937	1.3279179
15	0x3f491832	0.78552544
16	0x3fff6953	1.9954017
17	0x3fb690d1	1.4262944
18	0x3f17b333	0.5925781
19	0x404d6e22	3.209847
20	0x3fb22f0b	1.3920606
21	0x3fc683ec	1.5509009
22	0x3f669018	0.9006362
23	0x3fb46e58	1.4096174

dijetResNetBlock.reinforce.1.conv.s f4 [1, 1, 3, 8]
0	0x4008057c	2.1253347
1	0x3fcb7714	1.5895715
2	0x401dd0db	2.4658725
3	0x40029ea0	2.0409317
4	0x3e7496d5	0.23885663
5	0x3ff8b2c8	1.942956
6	0x3f49e14e	0.7885941
7	0x3eac0b01	0.33602145
8	0x3fc6a328	1.5518541
9	0x3f8f5517	1.1197842
10	0x3fcdc898	1.6076841
11	0x3fc49f72	1.5361159
12	0x3f96cac4	1.1780629
13	0x400055e7	2.005243
14	0x3fd35ed0	1.651331
15	0x3faada01	1.334778
16	0x3fe0f2ca	1.7574093
17	0x3fef4e68	1.8695803
18	0x3fee7bb6	1.8631504
19	0x40a12379	5.03558
20	0x403d597b	2.9585865
21	0x400e9183	2.2276313
22	0x3fe1858e	1.7618883
23	0x3fd9f4aa	1.702779

dijetResNetBlock.reinforce.1.conv.conv.bias f4 [1, 8, 1]
0	0x3df7170e	0.12064944
1	0x3fd60b1c	1.672214
2	0xbea26a45	-0.31721702
3	0xbe4f7de2	-0.20262864
4	0x3df3e1bd	0.119082905
5	0x3f2ebe96	0.6825956
6	0xbef0e0df	-0.47046563
7	0x3eb8bc28	0.36081052

dijetResNetBlock.reinforce.1.conv.conv.module.weight f4 [4, 8, 3]
0	0x3ee1c030	0.4409194
1	0x3ed1ccdb	0.40976605
2	0xbf5e6928	-0.86879206
3	0xbf09d795	-0.5384458
4	0xbeaa4aca	-0.33260185
5	0xbf5597b7	-0.83434623
6	0x3f398f3e	0.72484195
7	0x3ef2bcf5	0.47409788
8	0xbeaa11e9	-0.3321679
9	0x3e986c1f	0.2976999
10	0x3cc6c1d5	0.024262348
11	0x3e7f9694	0.24959785
12	0x3e699e87	0.2281438
13	0xbd1900f3	-0.03735442
14	0xbe335c57	-0.17515694
15	0x3c85f529	0.016352253
16	0x3e84b8e9	0.25922325
17	0x3eae2df2	0.34019428
18	0xbeb93209	-0.36170986
19	0xbee32b5b	-0.44369015
20	0xbeda4310	-0.4262929
21	0xbe5dfac6	-0.21677694
22	0xbbe7840f	-0.007065303
23	0xc02bd19a	-2.684668
24	0xbe80198a	-0.25019485
25	0xbdf7654e	-0.12079869
26	0x3f78fd6e	0.97261703
27	0x3e8827ac	0.26592767
28	0x3ea4d337	0.32192394
29	0xbf272c66	-0.6530212
30	0xbe2a7103	-0.16644673
31	0xbe2d9df0	-0.1695478
32	0xbdce3764	-0.10069159
33	0xbe06da27	-0.13169156
34	0xbe162d56	-0.14665732
35	0xbf9ed423	-1.2408489
36	0xbe5df1be	-0.21674249
37	0xbbeab343	-0.007162483
38	0xbe53df0e	-0.20690557
39	0xbd31b528	-0.043385655
40	0xbde2d0de	-0.110749945
41	0x3f440b86	0.76580083
42	0x3d0c8431	0.034305755
43	0x3eb7efaf	0.35925052
44	0x3e3ba565	0.18324812
45	0x3d86f35b	0.06589385
46	0x3d8f8c49	0.07009179
47	0xbe000d49	-0.12505068
48	0x3d9c0079	0.07617278
49	0x3d3fe556	0.04684957
50	0x3e167d5a	0.14696255
51	0x3de5aab5	0.112142004
52	0x3ca00860	0.019535244
53	0x3e9b12dc	0.30287826
54	0x3d8daf30	0.0691818
55	0x3bf174a5	0.0073686414
56	0x3e547935	0.20749362
57	0x3e3abbe1	0.18235733
58	0xbdb16c13	-0.08663192
59	0x3ef266be	0.4734401
60	0x3c4c10e0	0.012455195
61	0xbcade417	-0.021226926
62	0x3f77c9c2	0.96792233
63	0xbca8a882	-0.020588163
64	0xbe762c7b	-0.24040405
65	0xbf107d82	-0.5644151
66	0xbc9e09e4	-0.019291826
67	0xbd8853e1	-0.06656624
68	0x3e45cde7	0.19316827
69	0x3b60a4ff	0.0034278033
70	0xbdb06a2f	-0.08614003
71	0x3fb86294	1.4405084
72	0xbe9c9ea9	-0.30589798
73	0x3dc3b451	0.09555877
74	0xbe31eacc	-0.17374724
75	0x3c895b0e	0.016767051
76	0xbd89cf7e	-0.06729029
77	0xbddd9a63	-0.108204626
78	0xbdbf5a81	-0.09343434
79	0xbe67de81	-0.22643472
80	0x3f5ff762	0.8748685
81	0xbe9191b8	-0.28431487
82	0xbeb4e16b	-0.3532823
83	0xbe65e6aa	-0.22451273
84	0x3cedbdf6	0.029021244
85	0x3d485cff	0.048916813
86	0x3df4207c	0.119202584
87	0x3d9fded5	0.07806174
88	0xbddb8842	-0.107193485
89	0xbe50e7c0	-0.20400906
90	0xbdadc3ab	-0.08484586
91	0xbe45adef	-0.19304632
92	0x3ede9136	0.43470162
93	0x3d42a7b1	0.047523204
94	0xbc9db602	-0.019251827
95	0xbe8b2911	-0.2717977

dijetResNetBlock.conv.0.m f4 [1, 1, 1, 8]
0	0x3fa0e4b1	1.2569791
1	0x3e23d168	0.15997851
2	0x3fbe8eea	1.4887364
3	0x3f1382f4	0.57621694
4	0x3e1bde73	0.15221576
5	0x3fa9f277	1.3277119
6	0x3f3511cb	0.70730275
7	0x3e92b162	0.28650957

dijetResNetBlock.conv.0.s f4 [1, 1, 1, 8]
0	0x3fdf2dc4	1.7435842
1	0x3f232f48	0.6374402
2	0x3fddbd16	1.732333
3	0x3fa6d2dd	1.30331
4	0x3f111fe1	0.5668927
5	0x3fa67854	1.3005471
6	0x3fbca410	1.4737568
7	0x3f589bb0	0.8461256

dijetResNetBlock.conv.0.conv.bias f4 [1, 8, 1]
0	0x3f3b4ead	0.73166925
1	0x3ce983fc	0.028505318
2	0xbdab6052	-0.08367981
3	0xbf28d0ce	-0.6594361
4	0xbf1beb5c	-0.60906005
5	0x3f85bc81	1.0448152
6	0xbefacf17	-0.48986122
7	0xbf12f8f4	-0.5741112

dijetResNetBlock.conv.0.conv.module.weight f4 [4, 8, 1]
0	0xbe5b7dce	-0.2143471
1	0xbc09ccbb	-0.008410628
2	0xbe3ef353	-0.18647508
3	0x3ec22c77	0.3792455
4	0xbe5ea7fc	-0.21743768
5	0x3ec4675b	0.38360104
6	0x3e2e23aa	0.17005792
7	0xbec9fd87	-0.3945124
8	0x3f214b69	0.6300569
9	0x3ed80d2c	0.4219755
10	0x3eb13241	0.34608653
11	0x3e3294c3	0.1743956
12	0xbea23c0c	-0.31686437
13	0xbee8c0ec	-0.45459688
14	0xbe685a8d	-0.22690792
15	0xbdc1c770	-0.09461868
16	0x3e80c40f	0.2514958
17	0xbe2ec4fd	-0.17067333
18	0x3e002e98	0.12517774
19	0x3f039cde	0.51411235
20	0x3da60ab1	0.08107508
21	0x3e3aba49	0.18235125
22	0x3d8e33b0	0.06943452
23	0x3e0dfed4	0.1386674
24	0xbe07b9ab	-0.1325442
25	0x3ca7e83e	0.020496484
26	0x3c6e5843	0.01454741
27	0x3f77d1f4	0.9680474
28	0x3e16d829	0.14730896
29	0x3e8856e7	0.266288
30	0x3ed5dfc1	0.41772273
31	0xbf07e02b	-0.5307643

attention_oo.q_GBN.gamma f4 [8]
0	0x3f065307	0.5247044
1	0xbf0be628	-0.54648066
2	0x3e169259	0.14704265
3	0x3e69fe5b	0.22850935
4	0xbe09fc7c	-0.13475221
5	0xbf65888d	-0.89661485
6	0x3f24ae29	0.6432825
7	0xbe3d9698	-0.18514478

attention_oo.q_GBN.bias f4 [8]
0	0x3fb57979	1.4177696
1	0x3fa02657	1.25117
2	0xbfc5fe41	-1.5468217
3	0x3e5f8d84	0.21831328
4	0xbffceb8f	-1.9759387
5	0x40b5d6bb	5.682462
6	0x40beb4a1	5.9595494
7	0xbf369b46	-0.7133068

attention_oo.q_GBN.m f4 [1, 1, 1, 8]
0	0x3f40f178	0.7536845
1	0x3fc85f11	1.5654012
2	0x400a932b	2.1652324
3	0x3ef35cdc	0.47531784
4	0x3fcc6272	1.5967543
5	0x3fe18612	1.761904
6	0x3f7e1c0a	0.99261534
7	0x3f669158	0.90065527

attention_oo.q_GBN.s f4 [1, 1, 1, 8]
0	0x3f656691	0.8960963
1	0x3f91c995	1.1389643
2	0x3ff63bec	1.9237037
3	0x3f3e71a4	0.7439215
4	0x3fd9c37a	1.701278
5	0x3fca7f2e	1.5820062
6	0x3fd2651a	1.6437104
7	0x3fadd4d4	1.3580575

attention_oo.v_GBN.gamma f4 [8]
0	0x3f30022b	0.6875331
1	0x3f8513a4	1.0396619
2	0x3fdfcc24	1.7484174
3	0x3fd397b8	1.6530676
4	0x4002a772	2.04147
5	0x3eb8f98d	0.36127892
6	0x3e9e564a	0.30925208
7	0x3fbd5bfe	1.4793699

attention_oo.v_GBN.bias f4 [8]
0	0xbeaf8a2d	-0.34285107
1	0x3f8c9699	1.0983459
2	0xbed8338f	-0.42226836
3	0xbf2ef85e	-0.6834773
4	0xbf51b6e6	-0.81919706
5	0x3d56e008	0.052459747
6	0x3f429d64	0.7602141
7	0xbe296321	-0.16541721

attention_oo.v_GBN.m f4 [1, 1, 1, 8]
0	0x3f40f178	0.7536845
1	0x3fc85f11	1.5654012
2	0x400a932b	2.1652324
3	0x3ef35cdc	0.47531784
4	0x3fcc6272	1.5967543
5	0x3fe18612	1.761904
6	0x3f7e1c0a	0.99261534
7	0x3f669158	0.90065527

attention_oo.v_GBN.s f4 [1, 1, 1, 8]
0	0x3f656691	0.8960963
1	0x3f91c995	1.1389643
2	0x3ff63bec	1.9237037
3	0x3f3e71a4	0.7439215
4	0x3fd9c37a	1.701278
5	0x3fca7f2e	1.5820062
6	0x3fd2651a	1.6437104
7	0x3fadd4d4	1.3580575

attention_oo.qv_GBN.gamma f4 [8]
0	0x3f534473	0.8252632
1	0x3ff0424d	1.8770233
2	0x3f67f9e2	0.90615666
3	0xbf154bac	-0.5831859
4	0x3f8e25b4	1.1105256
5	0x3fa03215	1.2515284
6	0x404fa168	3.2442265
7	0x3f4b3b0c	0.79386973

attention_oo.qv_GBN.bias f4 [8]
0	0xbece04db	-0.4023808
1	0x3f863a05	1.0486456
2	0xbfa97ee2	-1.3241847
3	0xbdcb89dc	-0.09938404
4	0xbecbfe2c	-0.39842355
5	0xbe97c176	-0.29639786
6	0x3f5ee349	0.8706556
7	0xbeed29ac	-0.46320856

attention_oo.qv_GBN.m f4 [1, 1, 1, 8]
0	0x3fe44844	1.7834554
1	0x3f0f58a2	0.5599462
2	0x3efe7a4a	0.49702674
3	0x3fa06d80	1.2533417
4	0x401ce6d0	2.4515877
5	0x403774f0	2.8665123
6	0x402634be	2.5969691
7	0x3f8cc35e	1.0997121

attention_oo.qv_GBN.s f4 [1, 1, 1, 8]
0	0x3fb4e33b	1.4131845
1	0x3ff1b714	1.8883996
2	0x3f86fd34	1.0546021
3	0x3fc15c63	1.5106319
4	0x3ff886b1	1.9416105
5	0x3fdbede2	1.7181971
6	0x3fc41e35	1.5321718
7	0x3fb5c1a5	1.4199721

attention_oo.score_GBN.gamma f4 [2]
0	0x3f20e190	0.6284418
1	0x3f15d78c	0.58532023

attention_oo.score_GBN.bias f4 [2]
0	0xbe91d7f2	-0.28485066
1	0x4041cea9	3.0282385

attention_oo.score_GBN.m f4 [1, 1, 1, 2]
0	0x3f527e87	0.82224315
1	0x40b11571	5.5338674

attention_oo.score_GBN.s f4 [1, 1, 1, 2]
0	0x4032465d	2.7855446
1	0x41131701	9.193116

attention_oo.conv.m f4 [1, 1, 1, 8]
0	0xbdb54a20	-0.08852029
1	0x3f8d2b0b	1.1028761
2	0xbe5201b8	-0.20508468
3	0xbdd80124	-0.105470926
4	0xbe5f18cf	-0.21786807
5	0x3e5ae108	0.21374905
6	0x401fb56b	2.4954479
7	0xbe0eac0b	-0.13932817

attention_oo.conv.s f4 [1, 1, 1, 8]
0	0x3de7c9e6	0.11317806
1	0x3fc236fe	1.5173032
2	0x3e1cd81f	0.15316819
3	0x3e8aab98	0.2708404
4	0x3d856712	0.065138
5	0x3ea40542	0.3203526
6	0x3f3a1350	0.7268572
7	0x3e3666e7	0.17812692

attention_oo.conv.conv.bias f4 [1, 8, 1]
0	0xbe1c7402	-0.15278628
1	0x3fc38fbc	1.5278239
2	0x3fd3ee47	1.6557091
3	0xbf8bf5e3	-1.0934414
4	0xbdbc0c79	-0.091820665
5	0x3dc2fa13	0.09520354
6	0xbca5aecf	-0.020224957
7	0xbf2d80ae	-0.67774475

attention_oo.conv.conv.module.weight f4 [4, 8, 1]
0	0x3ee5181b	0.44744954
1	0x3e48bbb0	0.19602847
2	0xbead9a68	-0.33906865
3	0xbeafa441	-0.34305003
4	0xbda8e115	-0.08246056
5	0x3d726853	0.059181523
6	0x3e051215	0.12995179
7	0xbf13b2f4	-0.57694936
8	0x3e895f31	0.26830438
9	0x3edee956	0.43537396
10	0xbde5e8fa	-0.112260774
11	0x3970fa38	0.00022981397
12	0xbdad4ace	-0.084615335
13	0x3eed4bc1	0.46346858
14	0x3fab3a66	1.3377197
15	0xbe69a35b	-0.22816221
16	0xbd09169a	-0.03346882
17	0xbde0d3d7	-0.10977905
18	0x3e6f9e17	0.2340015
19	0xbe5037af	-0.20333742
20	0x3de2ab77	0.110678606
21	0x3f6dcc41	0.9288979
22	0x3f2fe1e6	0.6870407
23	0x3e1a3a77	0.15061365
24	0xbee5d731	-0.4489074
25	0x3e889e67	0.2668335
26	0xbf081481	-0.53156286
27	0x3d2c9909	0.042138133
28	0x3cb94617	0.02261643
29	0x3f49a07e	0.78760517
30	0xbf171a4a	-0.5902449
31	0x3d0ca3b8	0.034335822

attention_do.q_GBN.gamma f4 [8]
0	0xbe380246	-0.17969617
1	0x3fea7c9a	1.8319275
2	0x3e7ca2ad	0.24671431
3	0xbfe5082c	-1.7893119
4	0x3e8a2048	0.26977754
5	0x3e9b6a32	0.30354458
6	0x3d85abb3	0.0652689
7	0x3e099383	0.13435178

attention_do.q_GBN.bias f4 [8]
0	0x3f540989	0.8282705
1	0xbd0a420b	-0.03375439
2	0xbfb5f6e6	-1.4215972
3	0xbe9ab432	-0.30215603
4	0xc00eaea7	-2.22941
5	0x3fa55a0c	1.2918105
6	0x3f856bb9	1.0423499
7	0xbf34fb4e	-0.7069596

attention_do.q_GBN.m f4 [1, 1, 1, 8]
0	0x3fb6c85a	1.4279892
1	0x400200ee	2.0313067
2	0x3f6c2256	0.9223989
3	0x3fcdd8d0	1.6081791
4	0x3f894493	1.0724052
5	0x3f993cc9	1.1971675
6	0x3f5a9696	0.85386026
7	0x3fae5ffc	1.3623042

attention_do.q_GBN.s f4 [1, 1, 1, 8]
0	0x400d482c	2.20753
1	0x3ff9fefa	1.9530938
2	0x3fe6d0e9	1.8032504
3	0x403e559f	2.973976
4	0x3fde16f4	1.7350755
5	0x3fd7c838	1.6857977
6	0x3fbb934c	1.4654326
7	0x3fcdaa8e	1.6067674

attention_do.v_GBN.gamma f4 [8]
0	0x3f0c4352	0.5479022
1	0x3e770677	0.2412356
2	0x3fbb9cae	1.465719
3	0x3e87d631	0.26530603
4	0x3fae408a	1.3613446
5	0x3f9b94de	1.2154806
6	0x3fadeaf0	1.3587322
7	0x3f7cf8ef	0.9881734

attention_do.v_GBN.bias f4 [8]
0	0x3ecd6560	0.40116405
1	0xbfe3fc53	-1.7811378
2	0x3eea0c83	0.4571267
3	0x3f102a9e	0.5631503
4	0x3f3ea393	0.74468344
5	0x3f4a5fd4	0.7905247
6	0xbf0a1fe5	-0.5395492
7	0x3f9dfe48	1.2343225

attention_do.v_GBN.m f4 [1, 1, 1, 8]
0	0x3f4b6f76	0.7946695
1	0x40428811	3.0395548
2	0x4062d934	3.544507
3	0x3d08e314	0.033419684
4	0x3fd3b401	1.6539308
5	0x3fef8327	1.87119
6	0x3f363bee	0.71185195
7	0x3eff4778	0.49859214

attention_do.v_GBN.s f4 [1, 1, 1, 8]
0	0x3f8132ef	1.0093669
1	0x3fa39ea2	1.2782786
2	0x3fd428c0	1.6574936
3	0x3ef245e2	0.4731894
4	0x400011c4	2.0010843
5	0x3f9d0df7	1.2269887
6	0x3f8b953f	1.0904921
7	0x3f8d5b7a	1.1043541

attention_do.qv_GBN.gamma f4 [8]
0	0x3fae8e13	1.3637108
1	0x3fe3ddfe	1.7802122
2	0x3f4ef507	0.8084263
3	0x3fd34033	1.6503967
4	0x3f539887	0.82654613
5	0xbf02d2a2	-0.5110265
6	0x3fb9586c	1.4480109
7	0xbda1eff8	-0.079070985

attention_do.qv_GBN.bias f4 [8]
0	0x3f7e7a6f	0.9940557
1	0xbf82895c	-1.0198169
2	0x3f2beb51	0.6715594
3	0x3eaf9c28	0.34298825
4	0x3d0986d6	0.033575855
5	0x3f85e9ad	1.0461937
6	0xbd7404c3	-0.059574854
7	0x3f96749e	1.1754339

attention_do.qv_GBN.m f4 [1, 1, 1, 8]
0	0x3f68faf4	0.91007924
1	0x3e9263b6	0.28591698
2	0x3ffc5659	1.9713851
3	0x3ff21826	1.891362
4	0x40737531	3.8040278
5	0x3fa3c3d3	1.2794136
6	0x3f287bc3	0.65813845
7	0x3ec04351	0.37551358

attention_do.qv_GBN.s f4 [1, 1, 1, 8]
0	0x3f83d26c	1.0298591
1	0x3f66419e	0.89943874
2	0x3f90a44b	1.1300138
3	0x3fba7de4	1.4569669
4	0x4008e45d	2.1389382
5	0x3f437de4	0.7636397
6	0x3f2f226e	0.6841191
7	0x3f550474	0.8320992

attention_do.score_GBN.gamma f4 [2]
0	0x3f803b36	1.001807
1	0x3eb9b635	0.36271825

attention_do.score_GBN.bias f4 [2]
0	0xbf706cc6	-0.93915975
1	0x3f32eb42	0.69890225

attention_do.score_GBN.m f4 [1, 1, 1, 2]
0	0x3f1841e6	0.59475553
1	0xbe9ab60a	-0.3021701

attention_do.score_GBN.s f4 [1, 1, 1, 2]
0	0x406fe269	3.748194
1	0x40b3fc4c	5.624548

attention_do.conv.m f4 [1, 1, 1, 8]
0	0x3e8cdb44	0.27511036
1	0xbd46b73f	-0.0485146
2	0x3e63dcf5	0.22252257
3	0x3e9912ed	0.29897252
4	0x3e4b4d52	0.19853714
5	0x3f82ece7	1.0228547
6	0x3e0886ea	0.13332716
7	0x3fac6c87	1.347062

attention_do.conv.s f4 [1, 1, 1, 8]
0	0x3e947ddb	0.2900227
1	0x3f59268c	0.8482444
2	0x3ebe61f6	0.37184113
3	0x3eaaff13	0.3339773
4	0x3ed61536	0.41813058
5	0x3f24d5dc	0.64388824
6	0x3ed07951	0.40717557
7	0x3e9c4d97	0.30527946

attention_do.conv.conv.bias f4 [1, 8, 1]
0	0xbd6e0f24	-0.058119908
1	0x3f0e376c	0.5555332
2	0x3e9b3d53	0.30320224
3	0x3d641d5c	0.05569206
4	0x3e6b0161	0.22949745
5	0x3ed0ba88	0.40767312
6	0xbef25163	-0.47327718
7	0x3f3cb27a	0.73709834

attention_do.conv.conv.module.weight f4 [4, 8, 1]
0	0x3f1d0cf2	0.6134788
1	0x3f865365	1.04942
2	0xbe7d00c7	-0.24707328
3	0xbee42481	-0.445591
4	0xbf35a38b	-0.7095267
5	0xbd264ed6	-0.040602528
6	0xbef9a6a2	-0.48759943
7	0x3da39a72	0.079884425
8	0xbe108a1d	-0.14115186
9	0x3fa92731	1.3215085
10	0x3db431a3	0.0879853
11	0xbec351fa	-0.3814848
12	0x3ed27b86	0.41109866
13	0x3f3aa1ff	0.72903436
14	0x3e3d2f52	0.18475083
15	0xbee56986	-0.4480707
16	0xbdca24dc	-0.098703116
17	0x3ee6f36a	0.45107585
18	0xbaa9d6d5	-0.0012957702
19	0x3e10b755	0.14132436
20	0x3c62e1f1	0.013847814
21	0x3b9c0aa1	0.0047620093
22	0xbf01f65e	-0.5076655
23	0x3e4bf00a	0.19915786
24	0x3e715298	0.23566663
25	0xbd962126	-0.07330541
26	0x3dc9001f	0.09814476
27	0xbe943916	-0.28949803
28	0x3e09c46b	0.13453834
29	0xbfdc0435	-1.7188784
30	0xbe8653be	-0.26235765
31	0xbf86f5f6	-1.0543811

quadjetResNetBlock.reinforce.0.sym.weight f4 [8, 1, 2]
0	0x3f000000	0.5
1	0x3f000000	0.5
2	0x3f000000	0.5
3	0x3f000000	0.5
4	0x3f000000	0.5
5	0x3f000000	0.5
6	0x3f000000	0.5
7	0x3f000000	0.5
8	0x3f000000	0.5
9	0x3f000000	0.5
10	0x3f000000	0.5
11	0x3f000000	0.5
12	0x3f000000	0.5
13	0x3f000000	0.5
14	0x3f000000	0.5
15	0x3f000000	0.5

quadjetResNetBlock.reinforce.0.antisym.weight f4 [8, 1, 2]
0	0x3f000000	0.5
1	0xbf000000	-0.5
2	0x3f000000	0.5
3	0xbf000000	-0.5
4	0x3f000000	0.5
5	0xbf000000	-0.5
6	0x3f000000	0.5
7	0xbf000000	-0.5
8	0x3f000000	0.5
9	0xbf000000	-0.5
10	0x3f000000	0.5
11	0xbf000000	-0.5
12	0x3f000000	0.5
13	0xbf000000	-0.5
14	0x3f000000	0.5
15	0xbf000000	-0.5

quadjetResNetBlock.reinforce.0.conv.m f4 [1, 1, 3, 8]
0	0x3fc83cd7	1.5643567
1	0x4029edf9	2.6551497
2	0x3f953b9e	1.1658819
3	0x3fd27ead	1.6444908
4	0x3faca75d	1.3488575
5	0x3fe14b2d	1.7601067
6	0x3f40fe86	0.7538837
7	0x3fe6a3ce	1.8018739
8	0x3f32cfb6	0.6984819
9	0x3f9eadfb	1.2396845
10	0x3f5d9e64	0.8656981
11	0x3f7b6fa4	0.98217225
12	0x3f4c99d1	0.79922205
13	0x3f7cf34a	0.9880873
14	0x3f127bf6	0.572204
15	0x3f4896c2	0.7835504
16	0x3e0bcd3f	0.13652514
17	0xbce5131f	-0.02796322
18	0x3e9a6701	0.3015671
19	0x3f110f25	0.56663734
20	0x3e4af062	0.19818261
21	0x3d1b7c0d	0.0379601
22	0x3e018358	0.1264776
23	0xbd4c6b00	-0.04990673

quadjetResNetBlock.reinforce.0.conv.s f4 [1, 1, 3, 8]
0	0x400e2fae	2.2216601
1	0x400abdcd	2.1678345
2	0x3fc7cd1a	1.5609467
3	0x401996e6	2.399835
4	0x3fda74b1	1.7066861
5	0x3fdd0343	1.726662
6	0x3f8af497	1.0855893
7	0x4001f2f4	2.0304537
8	0x3f5b3caf	0.8563947
9	0x3f935b1d	1.151218
10	0x3f8a1a96	1.0789363
11	0x3fab98a9	1.3405963
12	0x3f707feb	0.9394519
13	0x3f730cc1	0.94941336
14	0x3f2ee896	0.6832365
15	0x3f5eaf6b	0.86986417
16	0x3e5c1e3c	0.21495908
17	0x3e9300f3	0.28711662
18	0x3f29178e	0.66051567
19	0x3f1ba59f	0.6079959
20	0x3eb1f37b	0.34756073
21	0x3ea16799	0.3152435
22	0x3edd1ba6	0.43185157
23	0x3eae323f	0.3402271

quadjetResNetBlock.reinforce.0.conv.conv.bias f4 [1, 8, 1]
0	0xbd9564bd	-0.07294605
1	0xbf07bc1c	-0.5302141
2	0xbd0aebaf	-0.03391617
3	0x3e76aca9	0.24089302
4	0xbf4039a6	-0.75087965
5	0xbf604e7f	-0.87619776
6	0xbefb424b	-0.49074015
7	0x3ec758bd	0.3893489

quadjetResNetBlock.reinforce.0.conv.conv.module.weight f4 [4, 8, 3]
0	0xbf47f700	-0.7811127
1	0xbe0a5503	-0.13508992
2	0xbdbd5b5a	-0.092459396
3	0x3eb1545d	0.34634677
4	0xbe1b863d	-0.15187927
5	0x3e831cb7	0.25607845
6	0x3f3d8a38	0.7403903
7	0xbd89f9df	-0.06737112
8	0x3eaeaa9c	0.3411454
9	0xbe61b43f	-0.22041415
10	0x3fa06e53	1.2533668
11	0xbde11745	-0.109907664
12	0x3ebdda3d	0.37080565
13	0x3cfbdc71	0.030744763
14	0xbed057c4	-0.4069196
15	0xbea086f6	-0.31352967
16	0x3f9ccf41	1.2250749
17	0xbd876e7d	-0.06612871
18	0xbcb03d32	-0.021513555
19	0x3df218bf	0.11821126
20	0xbd274afb	-0.04084299
21	0x3e38becc	0.18041533
22	0x3d657d46	0.056027673
23	0x3e8efb3f	0.2792606
24	0x3ec8a847	0.39190885
25	0x3e03f592	0.12886646
26	0x3d7162e2	0.058932193
27	0xbef3f6c6	-0.4764921
28	0xbc0bd733	-0.008535194
29	0xbe41083a	-0.18850794
30	0xbf1081a3	-0.5644781
31	0x3e3a9fdd	0.18225046
32	0x3ed5ab22	0.41732126
33	0xbf68a18e	-0.9087151
34	0xbf6cd034	-0.9250519
35	0x3d898df0	0.067165256
36	0xbea83244	-0.3285085
37	0xbefd4b55	-0.49471536
38	0xbf37c124	-0.71779084
39	0xbf6adb49	-0.9174085
40	0xbec6d8c6	-0.3883726
41	0x3ea3734f	0.3192391
42	0x3f667de3	0.9003584
43	0xbee51e45	-0.44749656
44	0xbf07c0dc	-0.53028655
45	0x3e405f5d	0.18786378
46	0xbeb72107	-0.35767385
47	0x3e48a4e1	0.19594146
48	0xc00780fa	-2.117247
49	0xbe942e59	-0.2894161
50	0xbb1ef720	-0.0024256185
51	0xbd3fd64d	-0.046835233
52	0xbd2d5325	-0.04231562
53	0x3d4983fd	0.04919814
54	0x3f920155	1.1406657
55	0x3df98e48	0.12185341
56	0xbbdf38bf	-0.0068121846
57	0x3eb47a5b	0.352496
58	0x3e6270fe	0.22113416
59	0xbef91bff	-0.48654172
60	0x3f978841	1.1838456
61	0x3ed22332	0.41042477
62	0x3d15675e	0.03647553
63	0x3dd59f2a	0.10430749
64	0x3effc185	0.4995233
65	0xbeca1717	-0.3947074
66	0x3f0d0b76	0.55095613
67	0x3d2531bc	0.040330634
68	0xbc2cd603	-0.010549071
69	0x3f1256b2	0.57163537
70	0x3e5ca1e8	0.21546137
71	0x3dfbda90	0.12297547
72	0x3f410157	0.7539267
73	0xbdc2def6	-0.09515183
74	0xbe56baf1	-0.2096975
75	0xbef8323a	-0.4847582
76	0x3daad6ee	0.08341776
77	0x3e66b230	0.2252891
78	0x3ef081de	0.4697408
79	0x3e6f2372	0.23353365
80	0xbdb35ce3	-0.08757951
81	0xbf415b4b	-0.75529927
82	0x3e5fa9e2	0.21842149
83	0xbf06359a	-0.5242554
84	0x3f14c1ef	0.5810842
85	0xbdd88cd9	-0.105737396
86	0x3e74c0b1	0.23901631
87	0x3fb395ae	1.4030054
88	0x3d3046c6	0.043036245
89	0xbd35ba64	-0.04436721
90	0xbec66bae	-0.38754028
91	0x3e48a0d8	0.19592607
92	0x3e508dcf	0.20366596
93	0x3fb777cb	1.4333433
94	0xbdba0b0a	-0.09084137
95	0x3e7a7fdc	0.24462837

quadjetResNetBlock.reinforce.1.sym.weight f4 [8, 1, 2]
0	0x3f000000	0.5
1	0x3f000000	0.5
2	0x3f000000	0.5
3	0x3f000000	0.5
4	0x3f000000	0.5
5	0x3f000000	0.5
6	0x3f000000	0.5
7	0x3f000000	0.5
8	0x3f000000	0.5
9	0x3f000000	0.5
10	0x3f000000	0.5
11	0x3f000000	0.5
12	0x3f000000	0.5
13	0x3f000000	0.5
14	0x3f000000	0.5
15	0x3f000000	0.5

quadjetResNetBlock.reinforce.1.antisym.weight f4 [8, 1, 2]
0	0x3f000000	0.5
1	0xbf000000	-0.5
2	0x3f000000	0.5
3	0xbf000000	-0.5
4	0x3f000000	0.5
5	0xbf000000	-0.5
6	0x3f000000	0.5
7	0xbf000000	-0.5
8	0x3f000000	0.5
9	0xbf000000	-0.5
10	0x3f000000	0.5
11	0xbf000000	-0.5
12	0x3f000000	0.5
13	0xbf000000	-0.5
14	0x3f000000	0.5
15	0xbf000000	-0.5

quadjetResNetBlock.reinforce.1.conv.m f4 [1, 1, 3, 8]
0	0x3ff8790b	1.9411939
1	0x402a5a04	2.661744
2	0x3fe6dfef	1.8037089
3	0x3eeacbce	0.45858616
4	0x3ff17828	1.8864794
5	0x3fb4c8cc	1.4123778
6	0x3f87b242	1.0601275
7	0x3fd5aa92	1.6692679
8	0x3f44994c	0.7679641
9	0x3f9651f5	1.1743761
10	0x3f8f2ad0	1.118494
11	0x3ecad676	0.39616746
12	0x3f721478	0.9456248
13	0x3f32b717	0.6981062
14	0x3f359877	0.7093577
15	0x3f0e1a16	0.55508554
16	0x3f3b1115	0.7307294
17	0x3eeda920	0.46418095
18	0x3fd28cc3	1.6449207
19	0x3fc26b21	1.5188943
20	0x3efd9121	0.49524787
21	0x3ef167ce	0.4714951
22	0x3fa6a1e3	1.3018154
23	0x3f7657fb	0.96228

quadjetResNetBlock.reinforce.1.conv.s f4 [1, 1, 3, 8]
0	0x40231fe6	2.548822
1	0x4001893f	2.0240018
2	0x40055362	2.0832143
3	0x3f6e4c77	0.93085426
4	0x400247e6	2.0356383
5	0x3f955e8d	1.166948
6	0x3fac3468	1.3453493
7	0x3fa836a4	1.3141675
8	0x3f76ab50	0.9635515
9	0x3f93d036	1.1547916
10	0x3fa434de	1.2828634
11	0x3f16f811	0.5897227
12	0x3f88b385	1.0679785
13	0x3f24027b	0.64066285
14	0x3f50eed6	0.81614435
15	0x3efddb65	0.49581447
16	0x3fb60ec6	1.4223258
17	0x3faea5c6	1.364434
18	0x400a766b	2.1634777
19	0x40089581	2.134125
20	0x3f90aac7	1.1302117
21	0x3fdca14c	1.7236724
22	0x4007296b	2.111903
23	0x3fc359a1	1.5261728

quadjetResNetBlock.reinforce.1.conv.conv.bias f4 [1, 8, 1]
0	0x3d95b013	0.07308974
1	0xbe0fd605	-0.14046486
2	0x3eef2401	0.46707156
3	0x3f05dd6d	0.52290994
4	0x3f022002	0.5083009
5	0x3f415a5d	0.7552851
6	0x3eb6afbd	0.35680953
7	0xbf5fd97f	-0.8744125

quadjetResNetBlock.reinforce.1.conv.conv.module.weight f4 [4, 8, 3]
0	0x3eab4678	0.334522
1	0xbdf4b069	-0.1194771
2	0xbe0dacc7	-0.1383544
3	0xbee3aa73	-0.4446598
4	0xbd90ed96	-0.07076566
5	0x3ccd78e3	0.025082057
6	0x3eabdcf3	0.33567008
7	0x3ec440f6	0.3833081
8	0x3eb0f1ff	0.34559628
9	0x3d3b07dd	0.045661796
10	0xbda4d85d	-0.080490805
11	0xbdec6756	-0.11543147
12	0x3e82b49f	0.25528428
13	0xbe19275f	-0.14956425
14	0x3efeda76	0.49776047
15	0xbf9865a9	-1.1906024
16	0xbe8a0a57	-0.26961014
17	0x3ef5f905	0.4804155
18	0x3fb1350b	1.3844312
19	0xbe5d6081	-0.21618845
20	0xbdcd36c9	-0.10020215
21	0x3e67c36f	0.22633146
22	0xbe851c44	-0.25998127
23	0x3e18f850	0.14938474
24	0x3fb09b43	1.3797382
25	0xbe25a012	-0.16174343
26	0xbe0615a1	-0.13094188
27	0xbf1e2ac0	-0.6178398
28	0xbd8c7b40	-0.068594456
29	0xbf1bb1cf	-0.6081819
30	0xbf92eba1	-1.1478158
31	0x3e0875c6	0.13326177
32	0xbe9a8187	-0.30176947
33	0x3e880fdd	0.26574603
34	0xbdd8fc24	-0.10594967
35	0xbe7bfe72	-0.24608782
36	0xbecb0f1e	-0.3965997
37	0xbe1480d9	-0.14502276
38	0x3dd28bd4	0.10280576
39	0x3d899fa4	0.06719902
40	0x3e78ffd7	0.24316345
41	0xbe93bdff	-0.28855893
42	0x3ea1712e	0.31531662
43	0x3de7df01	0.113218315
44	0x3fc93300	1.5718689
45	0xbf7d24a1	-0.98884016
46	0xbe55904d	-0.20855828
47	0x3edd5d90	0.43235445
48	0xbeda4423	-0.4263011
49	0xbb9a0f2b	-0.004701515
50	0x3f354ec3	0.70823306
51	0xbd796cd1	-0.06089479
52	0x3e9a8861	0.30182174
53	0xbef42a5a	-0.47688562
54	0xbf6d9c6a	-0.92816794
55	0x3e09984a	0.13437
56	0xbc767ddf	-0.015044658
57	0x3d91b8ef	0.071153514
58	0xbf0e9167	-0.55690616
59	0xbf144741	-0.57921225
60	0xbec6b09c	-0.38806617
61	0xbdb08fe1	-0.08621193
62	0x3eee1fba	0.4650858
63	0x3eadafbd	0.3392314
64	0xbee91436	-0.45523232
65	0x3e8ae63f	0.2712879
66	0xbf52e128	-0.8237481
67	0xbf38b129	-0.72145325
68	0x3efbe063	0.4919463
69	0xbf9050c0	-1.1274643
70	0xbe9c7271	-0.30556062
71	0xbe4e2b87	-0.20133792
72	0x3f312f4b	0.6921279
73	0xbd8bd4b6	-0.06827681
74	0x3ef14062	0.47119433
75	0xbf427e10	-0.75973606
76	0xbe355057	-0.17706428
77	0x3e7739b4	0.24143106
78	0xbe370a0b	-0.17874925
79	0x3dcea467	0.10089951
80	0x3dcb4e09	0.099269934
81	0xbfc4b998	-1.5369139
82	0xbf08853e	-0.5332831
83	0x3f36b611	0.7137156
84	0xbf469dc7	-0.775845
85	0xbda47db2	-0.08031787
86	0x3ca16a8b	0.019704124
87	0xbd99d36e	-0.0751103
88	0x3de30f37	0.110868864
89	0xbe2bb3da	-0.16767827
90	0x3da56efd	0.0807781
91	0x3b89f5b9	0.0042102006
92	0x3f801b88	1.0008402
93	0x3f1608d0	0.58607197
94	0xbcd868d7	-0.026417179
95	0xbf8be179	-1.0928184

quadjetResNetBlock.conv.0.m f4 [1, 1, 1, 8]
0	0x3fc83cd7	1.5643567
1	0x4029edf9	2.6551497
2	0x3f953b9e	1.1658819
3	0x3fd27ead	1.6444908
4	0x3faca75d	1.3488575
5	0x3fe14b2d	1.7601067
6	0x3f40fe87	0.7538838
7	0x3fe6a3ce	1.8018739

quadjetResNetBlock.conv.0.s f4 [1, 1, 1, 8]
0	0x401ed06a	2.4814706
1	0x402ffdc3	2.7498634
2	0x40057c8a	2.0857263
3	0x403ad2ee	2.9191241
4	0x4006c49b	2.1057498
5	0x400d145c	2.2043676
6	0x3fb3c830	1.4045467
7	0x40160103	2.3438118

quadjetResNetBlock.conv.0.conv.bias f4 [1, 8, 1]
0	0x3e8d4c79	0.27597407
1	0x3e84c19a	0.25928956
2	0x3ec65334	0.38735354
3	0xbee199df	-0.44062707
4	0x3f0f8b93	0.5607235
5	0xbe78d5b3	-0.2430027
6	0xbe6ea0d0	-0.23303533
7	0x3f8b00d1	1.0859624

quadjetResNetBlock.conv.0.conv.module.weight f4 [4, 8, 1]
0	0xbe1694bd	-0.14705177
1	0x3ee527f7	0.44757053
2	0x3e2c9584	0.1685391
3	0x3f9c395f	1.2205008
4	0x3e86f956	0.26362103
5	0xbf20d358	-0.62822485
6	0x3da9f132	0.082979575
7	0x3e6fa8e8	0.23404276
8	0xbd5c1d76	-0.053739034
9	0xbf20615a	-0.62648547
10	0x3f8a4e5b	1.0805162
11	0xbe351bba	-0.17686358
12	0x3e7aedf6	0.24504837
13	0x3e8ae44e	0.27127308
14	0x3f98db93	1.1942009
15	0xbd9ff169	-0.07809717
16	0xbefa280a	-0.48858672
17	0xbf7af5b1	-0.98031145
18	0x3e863562	0.26212603
19	0x3ee266a2	0.44218928
20	0x3e34827f	0.17627905
21	0x3e6f54aa	0.2337214
22	0x3ed0db43	0.40792283
23	0x3f0c096a	0.54701865
24	0xbee635af	-0.44962832
25	0x3e56bee4	0.20971256
26	0x3c9210ec	0.017830335
27	0xbfbc8d49	-1.4730617
28	0x3f3a96ec	0.7288654
29	0x3f4166f6	0.7554773
30	0x3e8e84c8	0.2783568
31	0x3f81d1d1	1.0142156

select_q.m f4 [1, 1, 1, 8]
0	0x3f2c8d0f	0.6740274
1	0x3fdbf311	1.7183553
2	0x3f84563f	1.033882
3	0x3fddc174	1.7324662
4	0x3f8d2001	1.1025392
5	0x40142ffb	2.3154285
6	0x3f4d28df	0.8014049
7	0x3f006b8e	0.50164115

select_q.s f4 [1, 1, 1, 8]
0	0x3fc61064	1.5473752
1	0x4043b7f9	3.0581038
2	0x3fd452a2	1.6587718
3	0x3ff9d20c	1.9517226
4	0x3f984f17	1.1899136
5	0x40218ccb	2.5242183
6	0x3fa42866	1.2824829
7	0x3fd15162	1.6352961

select_q.conv.module.weight f4 [1, 8, 1]
0	0x3e4cad90	0.19988084
1	0x3f66cca0	0.9015598
2	0xbd5f6a02	-0.054544456
3	0xbe21932a	-0.15778795
4	0xbb332c35	-0.0027339582
5	0xbe9eba69	-0.31001595
6	0x3cac8468	0.02105923
7	0x3e150646	0.14553174

out.m f4 [1, 1, 1, 8]
0	0x3f9e179f	1.2350959
1	0x40890ada	4.2825747
2	0x3f970040	1.1796951
3	0x400bb83e	2.1831203
4	0x3f826ed2	1.019007
5	0x3f50477f	0.81359094
6	0x3f73d6ff	0.95249933
7	0x3f074461	0.5283871

out.s f4 [1, 1, 1, 8]
0	0x3fe62dfe	1.7982786
1	0x404426c5	3.0648663
2	0x3ff6435e	1.9239309
3	0x400677b8	2.101057
4	0x3f8d4654	1.1037087
5	0x3f879135	1.0591189
6	0x3f874f64	1.0571103
7	0x3fb9ab0d	1.4505326

out.conv.module.weight f4 [5, 8, 1]
0	0xbad1a548	-0.0015994692
1	0xbe7ead10	-0.24870706
2	0x3e2c0a46	0.16800794
3	0xbf2ebb4f	-0.6825456
4	0xbddd4b4c	-0.10805377
5	0x3d02c6bd	0.031927813
6	0xbddaf0f0	-0.106904864
7	0x3ed15680	0.40886307
8	0xbdf85f24	-0.12127522
9	0xbf97cd89	-1.1859599
10	0x3dff9344	0.124792606
11	0x3ec17896	0.37787312
12	0x3cb89a4c	0.022534512
13	0x3ec94fa9	0.39318588
14	0x3c11ddbb	0.008902962
15	0xbea1d57a	-0.31608182
16	0x3f4fe80c	0.8121345
17	0x3eaa24e3	0.33231267
18	0xbe886525	-0.26639667
19	0x3e3c049e	0.18361136
20	0xbf071c61	-0.5277768
21	0xbeb72287	-0.3576853
22	0x3d1f90c0	0.038956404
23	0xbeaf0f77	-0.34191486
24	0xbf011ad9	-0.5043159
25	0x3e1e5dea	0.15465513
26	0x3f61b0c6	0.8816036
27	0x3c34f3e9	0.011044481
28	0x3ed040f7	0.40674564
29	0xbe6fcd72	-0.23418215
30	0xbd306ac4	-0.04307057
31	0x3d8c5385	0.068518676
32	0xbf11eed4	-0.5700505
33	0x3f8f55fc	1.1198115
34	0xbf46d4e8	-0.7766862
35	0x3d5c4bca	0.053783216
36	0x3e5011e1	0.2031932
37	0xbe85e11a	-0.261483
38	0x3e8caabc	0.2747401
39	0xbe157e11	-0.14598872

out.conv.module.bias f4 [5]
0	0x3fef9b17	1.8719205
1	0xc01c04ba	-2.4377885
2	0x3dfa1bc2	0.12212326
3	0xbf8ef404	-1.1168218
4	0xbf4becfb	-0.7965848
