metadata/weights/pytorch_models/2024_HHUL_all_kl/model_SvB_ggF_all_kl__kfolds_3__offset_0__60e40fae-89ed-494e-b0b0-bd47c9c27488.pkl (torch, 114438 bytes, 118 tensors)

inputEmbed.ancillaryEmbed.m f4 [1, 1, 1, 4]
000000 9e 7b 87 41 a6 5b 05 3f cd d0 51 40 10 d5 9b 3f
       16.93536 0.5209297 3.2783692 1.2174397

inputEmbed.ancillaryEmbed.s f4 [1, 1, 1, 4]
000000 17 08 5b 3f c2 5f f8 3e 97 14 39 40 2b 2e 64 40
       0.8555922 0.48510557 2.8918817 3.5653179

inputEmbed.ancillaryEmbed.conv.module.weight f4 [4, 4, 1]
000000 6d 0c 03 3d 69 21 22 be d8 a5 8a bc 2d 30 8c 3c
       0.031994272 -0.15833057 -0.016924784 0.017112816
000010 b5 c3 28 3d 8d 4f a5 be 9b 76 aa bd 48 91 66 bd
       0.041202266 -0.32287255 -0.083234034 -0.056290895
000020 bb ce 8a bd d3 85 fa 3d c7 82 0f be 85 72 07 be
       -0.06777712 0.12232556 -0.14014731 -0.1322728
000030 44 bd 54 bb 6a d9 46 be 69 8c e9 3c cc 9e 05 3b
       -0.0032461444 -0.19418874 0.028509336 0.002038884

inputEmbed.jetEmbed.m f4 [1, 1, 1, 4]
000000 8b 6e 91 40 60 90 f2 3e c4 e4 6c 3f 33 b9 2a 40
       4.544744 0.47375774 0.9253657 2.6675537

inputEmbed.jetEmbed.s f4 [1, 1, 1, 4]
000000 08 4b ec 3e 38 0e 66 3f 81 92 4a 3f aa 1c b9 3e
       0.46150994 0.89865446 0.791298 0.3615468

inputEmbed.jetEmbed.conv.bias f4 [1, 8, 1]
000000 a7 00 bc 3e 20 82 8d bd df 27 16 be 85 59 3b 3e
       0.36719248 -0.06909585 -0.14663647 0.18295868
000010 5b 5c 2c bd 1a 33 a2 be 12 4a cd 3e db 8d 8c be
       -0.042080265 -0.31679612 0.40095574 -0.27451977

inputEmbed.jetEmbed.conv.module.weight f4 [4, 4, 1]
000000 51 39 e4 bf 7d 0e 8a be 3b eb 0b bf 90 1a f0 3e
       -1.7829992 -0.2696418 -0.5465581 0.46895266
000010 e4 bb 51 3f 56 51 04 3f ee f8 8d bf 4b aa a1 3e
       0.81927323 0.5168661 -1.1091592 0.31575236
000020 ce 54 f6 be 92 de bc 3f eb a3 56 3e 83 f3 56 3f
       -0.48111576 1.4755423 0.20960967 0.8396532
000030 b5 71 84 3f a4 6e fc bd b7 99 f3 be 8d f2 f0 bf
       1.0347201 -0.123257905 -0.47578213 -1.8824021

inputEmbed.jetConv.m f4 [1, 1, 1, 8]
000000 59 85 13 3f bf ee 24 3f 89 56 bb 3e b5 0e c0 3e
       0.5762535 0.644268 0.3658946 0.3751122
000010 34 d2 b6 3e bf b8 eb 3e 41 68 29 3f 04 35 24 3e
       0.35707247 0.46039388 0.66174704 0.16035849

inputEmbed.jetConv.s f4 [1, 1, 1, 8]
000000 f6 d8 5c 3f 8a 68 99 3f 80 3c 4e 3f 1d 92 36 3f
       0.86268556 1.1985028 0.80561066 0.713167
000010 76 26 5e 3f 8c ad 86 3f bd 22 8e 3f 76 fb 2c 3f
       0.86777437 1.0521712 1.1104351 0.675712

inputEmbed.jetConv.conv.bias f4 [1, 8, 1]
000000 24 82 4f bf 1b ec 65 be 7b 7d 1d bf 0d 84 ba bd
       -0.81057954 -0.22453348 -0.61519593 -0.09107218
000010 ee 10 73 3f 6d e8 e2 be 9a 14 24 3e 96 01 8e 3d
       0.9494771 -0.44317952 0.16023484 0.06933896

inputEmbed.jetConv.conv.module.weight f4 [4, 8, 1]
000000 8f e2 99 3e b5 7e a8 3e f4 44 e5 be 0d 65 05 be
       0.30055663 0.3290917 -0.4477917 -0.13026829
000010 4c 8c 3e be b3 bd f1 be a8 ea 1f be b1 62 8b 3f
       -0.18608207 -0.47215042 -0.15616858 1.0889493
000020 63 df 0d 3f 81 01 37 be a6 cf 34 3d b1 b8 c7 be
       0.55418986 -0.17871667 0.04414334 -0.39008096
000030 e5 c4 05 bf ab f0 23 3d 78 71 30 be df ce f4 3e
       -0.5225356 0.04002444 -0.17230785 0.4781408
000040 03 c9 66 bf a0 0a b2 3e 82 6b 13 3f a9 65 c7 be
       -0.9015047 0.3477373 0.5758592 -0.38944748
000050 82 b3 2a 3f c9 a3 1f be 40 d0 33 bd b4 41 63 be
       0.6668016 -0.15589823 -0.043899775 -0.22193033
000060 35 a2 ce 3e a1 8c 97 be 75 53 0f 3f 72 ef 9c 3e
       0.4035813 -0.2959948 0.5598672 0.30651432
000070 a7 de 52 bf 96 41 a5 3d 57 5a 9f be 89 57 cb bd
       -0.8237099 0.0806915 -0.3112361 -0.099288054

inputEmbed.othJetEmbed.m f4 [1, 1, 1, 4]
000000 07 a5 8c 40 65 51 bf 3e b5 8c 24 40 6e cd c5 3f
       4.395145 0.37366787 2.571088 1.5453317

inputEmbed.othJetEmbed.s f4 [1, 1, 1, 4]
000000 8a 1b 19 3f 3c 36 8f 3f e9 9f e2 3e 74 3e 3d 3f
       0.59807646 1.1188426 0.44262627 0.7392342

inputEmbed.othJetEmbed.conv.bias f4 [1, 8, 1]
000000 bc 88 82 be 67 10 4c bf 72 01 a5 3e 8e 87 bf 3f
       -0.25494945 -0.7971253 0.32227665 1.4963243
000010 e5 28 84 bf bc 72 93 3f c2 9b 53 bf e6 07 a1 bd
       -1.032498 1.1519389 -0.8265954 -0.07862835

inputEmbed.othJetEmbed.conv.module.weight f4 [4, 4, 1]
000000 1d f4 8d 3f e3 43 25 3b 34 71 26 be bf f6 3e 3e
       1.1090122 0.0025217466 -0.16254121 0.18648814
000010 e1 95 8b bf 50 66 3d bb 19 11 a4 be df 7e 9b 3f
       -1.0905114 -0.0028900094 -0.32044294 1.2148093
000020 21 5f ba 3f f4 d3 30 bd 1f 1c 40 bc da db e3 bd
       1.4560281 -0.043170884 -0.011725455 -0.11125918
000030 9d 6a e8 bb 95 71 8c bc 44 d6 91 3f 64 b8 5e 3f
       -0.0070927874 -0.017144004 1.1393514 0.8700011

inputEmbed.othJetConv.m f4 [1, 1, 1, 8]
000000 6d 57 15 3e bf 07 29 bd 3c fa 14 3f 25 ee c9 3f
       0.14584132 -0.041267153 0.5819433 1.5775801
000010 dd 32 ba bd 9b 9c 97 3f 22 79 1e 3d e0 a9 c5 3e
       -0.09091733 1.1844667 0.03868974 0.38606167

inputEmbed.othJetConv.s f4 [1, 1, 1, 8]
000000 83 95 04 3f 0d 50 a1 3e 24 44 7a 3f 17 c4 9a 3f
       0.51790637 0.31506386 0.97760224 1.2091092
000010 9c 52 b0 3e ec 5b 9f 3f 27 ec ff 3e 39 8f 8b 3f
       0.34438026 1.2449927 0.49984857 1.0903083

inputEmbed.othJetConv.conv.bias f4 [1, 8, 1]
000000 2d 2c f6 3f 8e 9c 2a 3f 66 0e a9 3f 85 dc fd 3f
       1.9232231 0.66645133 1.3207519 1.9832922
000010 2b 05 2a bf c9 18 df 3e 4e a6 6c 3f 90 60 70 3f
       -0.66414136 0.43573597 0.9244126 0.9389734

inputEmbed.othJetConv.conv.module.weight f4 [4, 8, 1]
000000 aa fe 46 bd f9 67 1e 3f bf 8c ab be 89 de 88 3e
       -0.04858271 0.618774 -0.33505818 0.2673228
000010 7f 09 4f 3f c7 4b 85 bd 9b 6d 5f be fd 4b 5b bf
       0.80873865 -0.06508594 -0.21819155 -0.85662824
000020 f6 93 27 3f 1d 5c 86 bd ae 78 12 3f 9e 6a 95 3e
       0.65460145 -0.06560538 0.5721539 0.29182905
000030 ed 0c 53 bf 3c 48 88 bc a3 8e e5 be 3e 01 49 3f
       -0.824416 -0.016636007 -0.44835386 0.7851752
000040 26 03 ff 3e 8b 3a f8 3e 57 1a fa 3d 32 0c 94 3d
       0.4980709 0.48482165 0.12212055 0.072288886
000050 d8 7d 06 bf 4d 9f 65 3e d7 fc 05 3e 10 d3 fc be
       -0.5253577 0.2242405 0.13084732 -0.49379778
000060 f2 1f ca be 77 15 0b 3f 11 f5 05 bf d8 95 45 3d
       -0.39477497 0.5432963 -0.52327067 0.048238605
000070 e5 1b 0b 3f 2a 40 ef be 9c 49 40 3e 25 ff 86 3e
       0.5433944 -0.4672864 0.1877808 0.26366535

inputEmbed.MdPhi_embed.m f4 [1, 1, 1, 3]
000000 e5 27 ab 40 23 fd e8 3f 32 fe dd 3e
       5.34862 1.8202251 0.43357998

inputEmbed.MdPhi_embed.s f4 [1, 1, 1, 3]
000000 c4 3d 2f 3f d4 10 6d 3f 30 bb fd 3e
       0.6845362 0.926038 0.49556875

inputEmbed.MdPhi_embed.conv.bias f4 [1, 8, 1]
000000 69 09 95 3f 7e d4 ed 3f 25 13 ff be 10 e2 af bf
       1.1643497 1.8580472 -0.49819294 -1.3740864
000010 4c 48 67 3f 2e 00 98 bf 7a 76 7a 3f 13 c2 8f bf
       0.9034469 -1.1875055 0.9783703 -1.1231102

inputEmbed.MdPhi_embed.conv.module.weight f4 [4, 3, 1]
000000 85 be 34 bd 29 84 d2 3f 91 d1 6e be 03 cc 98 3f
       -0.044127006 1.6446582 -0.2332213 1.193726
000010 0a e2 01 3f 83 de d0 be 55 49 a8 bf 25 35 47 bf
       0.50735533 -0.40794763 -1.3147379 -0.7781547
000020 ef 5c 99 bf 4d 19 4b 3f a3 26 a4 be db d4 e1 3f
       -1.1981486 0.7933548 -0.32060727 1.7643083

inputEmbed.MdPhi_conv.m f4 [1, 1, 1, 8]
000000 9b 9c 9b 3f 1c 5c dd 3f 44 14 1c 3f 30 0f 97 3e
       1.2157167 1.7293735 0.6096842 0.29503775
000010 59 57 70 3f 39 5a 27 bd 0c 0f af 3f df b5 97 3e
       0.9388328 -0.040857527 1.3676467 0.29630944

inputEmbed.MdPhi_conv.s f4 [1, 1, 1, 8]
000000 8a e7 9c 3f df 73 9d 3f 7c c1 9e 3f de 9c 11 3f
       1.225816 1.2300986 1.2402797 0.56879985
000010 b0 28 a4 3f 14 f9 dd 3e 0a e1 d7 3f b4 9d f8 3e
       1.2824917 0.43354094 1.6865551 0.48557818

inputEmbed.MdPhi_conv.conv.bias f4 [1, 8, 1]
000000 f0 d4 db 3f 34 51 42 40 cb e3 a7 3e 20 34 ba 3f
       1.7174358 3.0362062 0.3279098 1.4547157
000010 c6 1c 48 40 c1 6c a8 3c 8e 88 7b 3f e3 47 dc be
       3.1267562 0.02055967 0.9825524 -0.43023595

inputEmbed.MdPhi_conv.conv.module.weight f4 [4, 8, 1]
000000 60 c9 da be d6 a2 01 3f e0 a9 9d be d4 a4 d9 bd
       -0.42731762 0.5063909 -0.30793667 -0.106271416
000010 73 ae 66 3f 19 20 ba 3e bb 4c 57 bf 74 a5 ee be
       0.9010994 0.36352614 -0.84101456 -0.46610606
000020 4f 90 8c 3e f5 b6 5c bd 5b 64 33 3e 12 a1 5a bc
       0.2745385 -0.05388542 0.17518751 -0.013344066
000030 50 99 ce bf 7e 2e 1a bf 7a 0a ef 3b d7 48 8c be
       -1.6140537 -0.6022719 0.00729495 -0.27399322
000040 55 48 a3 3e 06 69 83 be e7 2c 1d bf 3d c6 38 be
       0.31891122 -0.25666064 -0.6139664 -0.18044372
000050 ea 3f 26 bf 4f ac de bf 5f 38 db 3c ec 03 b4 3c
       -0.64941275 -1.7396334 0.026760278 0.021974526
000060 40 c5 80 3f 18 98 85 3f d4 22 90 3e 93 a9 cd 3f
       1.0060196 1.043704 0.28151572 1.6067375
000070 5e af 2e 3e 1c d9 57 bd b0 45 7a 3f 6c 7c ba 3e
       0.17059085 -0.052697286 0.97762585 0.3642305

inputEmbed.dijetEmbed.m f4 [1, 1, 1, 4]
000000 0a b5 92 40 42 11 56 3f ac b0 74 3f c6 e2 a2 40
       4.5845995 0.83620083 0.9558208 5.0901823

inputEmbed.dijetEmbed.s f4 [1, 1, 1, 4]
000000 78 60 40 3f 8c 07 a4 3f 51 3b 98 3f 58 97 04 3f
       0.751472 1.2814803 1.1893102 0.5179343

inputEmbed.dijetEmbed.conv.bias f4 [1, 8, 1]
000000 8a a0 65 3e e9 c8 53 be b7 85 db 3c 02 55 1d 3f
       0.22424522 -0.2068211 0.026797159 0.61457837
000010 92 73 f7 bf 33 06 c6 3f f3 32 30 be 2b 77 04 3e
       -1.9332144 1.5470642 -0.17206936 0.12936084

inputEmbed.dijetEmbed.conv.module.weight f4 [4, 4, 1]
000000 93 2c 34 3d 47 25 ed bb fe 68 46 3c 11 94 98 3f
       0.04398782 -0.00723711 0.012109993 1.1920186
000010 cd c2 ee bd a9 6d 7b bd 23 6f 47 3c ea b4 11 c0
       -0.11658249 -0.061383877 0.012172493 -2.276667
000020 93 b5 1f bf 6a 26 2f bd af af 7e 3c cc bf 3e 3f
       -0.62386435 -0.042761244 0.015544816 0.7451141
000030 ee a1 07 bf 0a 0f 13 3e 12 db bd 3b 73 a1 66 bf
       -0.5298146 0.14361206 0.0057939375 -0.900901

inputEmbed.quadjetEmbed.m f4 [1, 1, 1, 3]
000000 5a 77 8a 40 aa c8 b7 3f ac e5 c4 40
       4.3270693 1.4358113 6.153036

inputEmbed.quadjetEmbed.s f4 [1, 1, 1, 3]
000000 fe b4 5f 3f f9 7b e7 3f 4b fc ab 3e
       0.8738555 1.8084708 0.33590922

inputEmbed.quadjetEmbed.conv.bias f4 [1, 8, 1]
000000 26 ad 1f 3c 2f ce 8a bf d9 8b 46 be 39 db cd bf
       0.009745872 -1.0844172 -0.19389285 -1.6082526
000010 50 77 90 bd 2c b4 b6 3e 67 34 13 3f 30 47 75 3f
       -0.07054007 0.35684335 0.57501835 0.9581175

inputEmbed.quadjetEmbed.conv.module.weight f4 [4, 3, 1]
000000 fa 45 5b be 41 48 c0 be 9a 94 70 3f 5c c8 9c 3f
       -0.21413413 -0.37555125 0.9397675 1.2248645
000010 ce 89 e4 bd 2b dd e4 be d9 5d 5f be 7e 7f 10 bf
       -0.11159097 -0.44699988 -0.21813144 -0.5644454
000020 36 e9 a2 bf 77 5f df be 6e 6b 4b be ce ea 76 bf
       -1.272742 -0.4362752 -0.198652 -0.96452034

inputEmbed.dijetConv.m f4 [1, 1, 1, 8]
000000 e7 9e b0 3e b3 85 16 3f 6e d5 97 3e 37 4a 0d 3f
       0.34496233 0.5879776 0.2965502 0.5519137
000010 f9 5b 41 be 53 f8 c8 3f 32 e0 48 3e 8d d6 57 3e
       -0.18882741 1.5700783 0.19616774 0.21077938

inputEmbed.dijetConv.s f4 [1, 1, 1, 8]
000000 8b 9b 46 3f b1 09 8b 3f 3a 49 28 3f 81 ea 24 3f
       0.7758109 1.0862333 0.65736735 0.64420325
000010 03 ed 0a 3e e1 9d f4 3f 80 ba 09 3f e5 1d 15 3f
       0.13566975 1.9110681 0.538002 0.5824874

inputEmbed.dijetConv.conv.bias f4 [1, 8, 1]
000000 44 56 96 bf f9 9e 8f bf 78 e7 d5 3d 71 8c d7 be
       -1.1745076 -1.122039 0.1044454 -0.42099336
000010 57 f6 fe 3e d5 5e 2f 3f b5 68 9a 3d 6f 24 13 bf
       0.49797317 0.6850408 0.075395025 -0.5747747

inputEmbed.dijetConv.conv.module.weight f4 [4, 8, 1]
000000 38 29 f6 bd 79 c5 2e 3f 8f 77 eb 3e 49 d0 90 be
       -0.120195806 0.6827007 0.45989653 -0.2828391
000010 48 9e a8 be e4 01 75 bf 6e 8f 11 3f 48 84 fa 3d
       -0.3293326 -0.9570601 0.5685948 0.12232262
000020 04 8b 6c 3d 4c 72 3c 3e 3c be dc bc 4e a4 d4 3e
       0.057749763 0.18402976 -0.02694618 0.41531605
000030 ef da 6b 3f 3c 51 66 be 22 c5 9c be a5 27 65 bf
       0.9213094 -0.22491926 -0.3061915 -0.8951362
000040 98 6e 36 3f b6 d0 0d bf d3 35 a2 3e 60 52 b5 bd
       0.712625 -0.5539659 0.3168169 -0.088536024
000050 b9 3e 68 3f cb 85 b5 3f 0c f1 2e bf 8f fe 06 be
       0.9072071 1.4181455 -0.6833656 -0.13183044
000060 4b db 0b 3e bc 75 cd bf 12 ab 33 3f 84 2a 91 be
       0.13657872 -1.6051555 0.7018291 -0.2835275
000070 0b c3 65 be b2 93 83 3f ab 8e 10 bf be 61 5b 3d
       -0.22437684 1.0279448 -0.56467694 0.05356001

inputEmbed.quadjetConv.m f4 [1, 1, 1, 8]
000000 74 c8 6a 3e c9 74 c2 bc ce 7e 89 3e 28 d1 34 be
       0.2292803 -0.023737328 0.26854557 -0.17657912
000010 3b 70 56 3e c3 53 0e 3f 7b d3 18 3f 1d fa 53 3f
       0.2094125 0.5559656 0.59697694 0.8280352

inputEmbed.quadjetConv.s f4 [1, 1, 1, 8]
000000 d7 32 29 3f 10 f6 cb 3e d6 c9 25 3f 5c a8 22 3e
       0.660932 0.39836168 0.647611 0.15884537
000010 88 5b 04 3f 37 6e 78 3f f8 a8 74 3f ef 37 65 3f
       0.51702166 0.97043175 0.95570326 0.8953847

inputEmbed.quadjetConv.conv.bias f4 [1, 8, 1]
000000 22 ea 4d be 16 ff 8a be c3 23 c6 bf 1e b5 15 3f
       -0.20108846 -0.2714774 -1.5479664 0.5847949
000010 ac b7 37 3e 53 03 38 3f 05 30 9f 3e 20 0f ec 3f
       0.17941159 0.7188007 0.31091323 1.8442116

inputEmbed.quadjetConv.conv.module.weight f4 [4, 8, 1]
000000 c3 3c e5 be c3 81 74 be ef b2 7a 3e e2 3f fd bc
       -0.4477292 -0.23877625 0.2448232 -0.03091425
000010 ce bf 46 3e c5 95 06 be 98 ae b1 be cf a8 de be
       0.19409105 -0.1314307 -0.34703517 -0.43488166
000020 c7 97 ab 3d c9 d3 bb 3e f5 af 48 3e 13 1e b9 bd
       0.083785586 0.36685017 0.19598372 -0.09038939
000030 ef 1e 7d 3e 2f 4b f0 bc 20 16 05 3e ce 65 5e be
       0.24718831 -0.029332725 0.12996721 -0.21718523
000040 cc fb f1 3d e2 01 b6 bd d3 ab 23 3e 1b f9 7a bd
       0.118156046 -0.08887078 0.15983514 -0.06127272
000050 8a 70 b7 3e a1 3a a8 3d 6a 35 80 3e 47 24 de bc
       0.35828048 0.082143076 0.25040752 -0.027116908
000060 57 4a 39 3b a5 05 a6 3e bf 13 df bd 62 97 a0 3d
       0.002827307 0.3242618 -0.10892438 0.07841374
000070 c8 32 2c bd 38 c0 0e 3e 82 af 81 bd 2f 7e 05 3e
       -0.042040616 0.13940513 -0.063323036 0.13036416

dijetResNetBlock.reinforce.0.conv.m f4 [1, 1, 3, 8]
000000 dd 94 06 3e b7 71 0c 3d 34 3f 29 3f 82 dc e3 3d
       0.13142724 0.034288134 0.66112065 0.11126043
000010 88 16 2d 3f 87 d5 a3 3e c4 32 a3 3e b0 eb 37 3f
       0.67612505 0.31998846 0.3187467 0.71844006
000020 23 9e bb bd 77 16 ba 3e 6b ef d5 3d 13 e5 0c 3f
       -0.091610216 0.36345264 0.10446056 0.5503704
000030 9f 50 93 3f e7 c2 86 bd 7e 16 88 3f e4 7c d8 3d
       1.1508979 -0.065801434 1.0631864 0.10570696
000040 60 77 fa 3c d0 6d db bc 0c 48 a7 3f 57 e8 8d 3f
       0.0305745 -0.026785761 1.3068862 1.108653
000050 28 9a 32 3f 0b af 3d 3f 12 90 a1 3f a4 2c 8a 3f
       0.69766474 0.7409522 1.2622092 1.0794873

dijetResNetBlock.reinforce.0.conv.s f4 [1, 1, 3, 8]
000000 14 c7 6e 3f 66 9f e2 3e a1 0d 95 3f a1 fe 03 3f
       0.9327252 0.44262236 1.1644784 0.5156041
000010 15 21 1e 3f 30 10 41 3f 4e b3 63 3f f9 08 94 3f
       0.6176923 0.75415325 0.8894547 1.1565238
000020 85 db 07 3f 44 08 19 3f 26 25 30 3f e7 b4 3b 3f
       0.53069335 0.5977824 0.68806684 0.7332291
000030 fc 89 5b 3f 78 72 d2 3e cf 31 a6 3f 45 9e 35 3f
       0.8575742 0.41102958 1.298395 0.70944625
000040 1f 2a dc 3e f1 2d 6d 3f 6a 27 0f 40 6a df d5 3f
       0.43000886 0.92648226 2.2367806 1.6708806
000050 af 40 81 3f 87 db 68 3f cf b6 c8 3f 81 db 0c 40
       1.0097865 0.9095997 1.5680789 2.2008975

dijetResNetBlock.reinforce.0.conv.conv.bias f4 [1, 8, 1]
000000 e5 fb a4 3e 44 b9 dd bf 13 39 e3 3e 5b 37 0d bf
       0.3222343 -1.7322164 0.44379482 -0.5516259
000010 9d 77 43 bf a1 bf 1a bf 23 f6 41 bd 67 b0 63 bd
       -0.7635439 -0.6044865 -0.047353875 -0.055588152

dijetResNetBlock.reinforce.0.conv.conv.module.weight f4 [4, 8, 3]
000000 43 f6 a5 3e e3 89 85 3e 3f 6b 73 bf 95 6e 00 be
       0.32414445 0.26081762 -0.9508552 -0.12542184
000010 6a 82 b9 be 78 dd 88 be d6 7a 47 be f7 1d 85 3c
       -0.3623231 -0.26731467 -0.19480452 0.01624964
000020 b8 3b 35 be d0 2d ad 3a 79 86 61 3c 11 82 63 bf
       -0.17698562 0.0013212506 0.013764971 -0.8887034
000030 cd e9 cd bd 73 d4 5d be 5f 2c 52 bf f3 9e 40 3e
       -0.100543596 -0.21663074 -0.82098955 0.18810634
000040 68 16 79 3d d5 3f 6b 3e 43 c6 b5 bd 95 70 c1 3b
       0.060812384 0.22973569 -0.08875706 0.0059033134
000050 bb 38 11 bf 7a bf 84 3e 28 a0 e8 3e 17 d9 ab be
       -0.5672719 0.25927335 0.4543469 -0.33564064
000060 4f dd 79 be ab 27 b3 be 06 c7 57 3f 4a a5 60 be
       -0.24400829 -0.34991202 0.8428806 -0.21938053
000070 37 c8 18 be d7 44 3c 3e 19 2d 1e be b1 ca 1c be
       -0.14920126 0.18385635 -0.15446891 -0.15311696
000080 05 d0 e4 3e 56 04 e7 bc d5 27 da 3c a5 98 86 3f
       0.44689956 -0.02820031 0.026630322 1.0515333
000090 0c 82 c5 bd 4e 41 20 be ba f3 dc 3e 72 e3 bc 3d
       -0.09643945 -0.15649912 0.431547 0.09223069
0000a0 6e e2 77 be 48 c2 d2 3e 30 0b 95 3c 8a 12 eb bb
       -0.2420747 0.4116385 0.018193811 -0.007173841
0000b0 a3 95 1c 3f 71 a6 2f 3e 58 b5 3d 3c cc fd 72 3f
       0.6116583 0.17153336 0.01157888 0.94918513
0000c0 03 d0 c7 be 52 60 b6 be b4 62 de be cd 62 d5 be
       -0.39025888 -0.35620362 -0.4343468 -0.41676942
0000d0 25 48 43 bf 19 4d f1 b9 17 f4 e7 3d 96 a8 6c 3e
       -0.7628196 -0.00046024544 0.11325853 0.23111185
0000e0 c5 8a 1c bf 5f 99 c3 3d 8b 26 8b be 7e 20 92 bf
       -0.61149246 0.095507376 -0.27177843 -1.1416166
0000f0 18 7d 97 3e 0d bc 9c be ad 83 6d bf 3d d8 b0 bc
       0.29587626 -0.3061222 -0.92779046 -0.021587485
000100 3e 23 ef 3e b6 f6 13 3f d4 50 71 be db 48 1c be
       0.46706575 0.57798326 -0.2356599 -0.15262167
000110 0e 67 89 3d 06 fc 04 3e cf fe 7b be 52 d7 75 3e
       0.06709109 0.12986764 -0.2460892 0.2400792
000120 64 c5 77 bd 4a a8 b0 be 5e 4b 4c bf dd 84 6f be
       -0.06049098 -0.34503394 -0.798025 -0.23390527
000130 fe 90 5e be 66 d5 86 3e 09 b6 53 3e 66 f1 74 3a
       -0.21734998 0.26334685 0.2067491 0.00093438325
000140 37 3f df be 6e ea c5 3b 9b ef 02 be 49 46 fe be
       -0.43602917 0.006039909 -0.12786715 -0.49662998
000150 cb b9 96 3c 8d 6a 3a 3e 69 6c ad bd f7 a8 37 3e
       0.01839914 0.18204708 -0.08467943 0.17935549
000160 f6 1c ee 3d ba 77 f8 bc a6 10 37 be 33 7f 63 bb
       0.116266176 -0.030330528 -0.17877445 -0.0034713268
000170 3c dc eb bf 5a f7 01 3e 61 74 7c 3d 39 71 9c bf
       -1.8426585 0.12692013 0.061634425 -1.2222053

dijetResNetBlock.reinforce.1.conv.m f4 [1, 1, 3, 8]
000000 58 4b 7d 3e 85 a1 f3 3d b9 87 d4 3f ce 35 41 3d
       0.24735773 0.11896042 1.6603919 0.047170453
000010 65 78 2e 40 ae 5f 43 be 0d dc 10 3f 51 ac 8b 3f
       2.7260983 -0.19079468 0.5658577 1.0911962
000020 06 3a bf 3d 24 92 66 3e ca 08 a5 3e dd 95 ac 3e
       0.09337239 0.22516686 0.32233268 0.33708087
000030 56 f9 e2 3f ce 1f 60 bd 2c 91 f8 3f 3e 7c da 3e
       1.7732341 -0.05471783 1.9419303 0.42672914
000040 51 0d 8e 3e 64 df 57 3e 43 4b 8b 3f ae 92 ff 3f
       0.27744535 0.2108131 1.0882343 1.9966638
000050 15 7c 05 3f c1 38 69 3f 6d b1 49 3f f2 42 18 40
       0.5214246 0.91102225 0.78786355 2.379086

dijetResNetBlock.reinforce.1.conv.s f4 [1, 1, 3, 8]
000000 08 5a a4 3f c6 63 02 3f e9 d1 19 40 b5 18 29 3f
       1.2839975 0.5093349 2.403437 0.66053325
000010 29 73 09 40 e3 c2 36 3e 74 92 99 3f 3c 3e ba 3f
       2.1476538 0.17847781 1.1997819 1.4550242
000020 6d 70 5c 3f a8 37 2d 3f cd ac 9d 3f 86 50 84 3f
       0.8610905 0.6766305 1.231836 1.0337074
000030 8e 01 bf 3f 3c 0c c7 3e d9 c6 e8 3f a8 09 78 3f
       1.492235 0.38876522 1.8185683 0.96889734
000040 88 fe 49 3f ba e4 bb 3f 41 44 c7 3f 01 28 07 40
       0.7890401 1.4679177 1.5567704 2.1118166
000050 c8 7d a3 3f 23 ea 93 3f 99 7c b6 3f 4e e0 89 40
       1.277276 1.1555828 1.4256774 4.308631

dijetResNetBlock.reinforce.1.conv.conv.bias f4 [1, 8, 1]
000000 03 6b 54 3e d4 77 68 bf a5 f6 8d 3e c4 6a c2 3e
       0.20743947 -0.90807843 0.27727237 0.3797208
000010 34 79 4c 3f 57 62 9a 3f 6c a4 68 3e b8 47 63 bf
       0.7987244 1.2061261 0.22718972 -0.8878131

dijetResNetBlock.reinforce.1.conv.conv.module.weight f4 [4, 8, 3]
000000 ff ce 3d 3e 7d 83 89 3d 46 1d d7 bd de 31 d6 bc
       0.18535994 0.067145325 -0.1050363 -0.026146825
000010 15 9d 63 3e ef 5b 17 3f a0 16 8a 3e ee 8f 2c 3e
       0.22227891 0.59124655 0.26970387 0.1685178
000020 87 38 ea be 3d 50 07 bd a6 ba 18 3d 20 8d 18 bf
       -0.45746252 -0.033035506 0.037287377 -0.5959034
000030 a4 27 12 be b8 fb 03 3e e2 15 ea 3e 02 61 da 3b
       -0.14272934 0.12888992 0.4571982 0.0066643963
000040 71 3b 5f bd ef 7e 9d 3e bc 90 26 be f0 af 30 be
       -0.054500047 0.30760905 -0.1626615 -0.17254615
000050 cd b8 7f be b7 8c da bc 7d cb b1 bc 6f 34 91 3f
       -0.2497284 -0.026678426 -0.021703476 1.1344126
000060 3b 3b 11 3d e9 27 9a bd 33 40 4a be ad 63 48 3c
       0.035456877 -0.075271435 -0.19751053 0.012230796
000070 22 c7 93 3e 63 a3 2a 3f 00 51 97 be da d4 4c 3e
       0.28862864 0.6665556 -0.29553986 0.20003071
000080 07 c9 ab be d8 2f 57 be 42 9c 59 bd ff 33 14 3e
       -0.3355181 -0.21014345 -0.053127535 0.1447296
000090 27 39 3b be f1 5f 4c be 21 c8 44 bf 6c fb df 3c
       -0.1828352 -0.19958474 -0.7686787 0.027341567
0000a0 f4 0f 1c 3e 65 18 8b 3e 1d e2 cd bd 52 26 41 be
       0.1524046 0.2716705 -0.10052893 -0.18862274
0000b0 3a 5a 4b 3e d6 f3 91 bd ec 3c 40 3e 87 13 05 3f
       0.19858637 -0.07126586 0.1877324 0.5198292
0000c0 cb 4e 0d 3e 3f ea 47 bd 1d 51 c8 be e4 5e 62 3e
       0.13799588 -0.04880738 -0.39124385 0.2210651
0000d0 75 1f 83 3e 42 15 b4 3e 3c a1 59 bf 1b c8 99 bc
       0.25609937 0.35172468 -0.8501165 -0.018772176
0000e0 fd a2 5b be 25 4e c6 3d 59 fb 18 bd 56 09 07 40
       -0.21448894 0.09682874 -0.03734908 2.1099448
0000f0 5c 22 08 bf 5a b3 04 bf 5b 99 82 3d 56 4f 27 3d
       -0.5317743 -0.5183617 0.063769065 0.040847145
000100 22 7b 2c 3e 7a 3b 5d be 29 59 02 3f a5 5d 0b 3f
       0.16843846 -0.2160472 0.509173 0.54439765
000110 82 58 c0 3e 36 0c 4a be 67 02 8e 3d aa 1e 8d 3e
       0.37567526 -0.1973122 0.06934052 0.27562457
000120 20 e4 0b 3e 76 ee 53 3e 10 4a 02 3e 8a 24 95 3d
       0.13661242 0.20696434 0.12723565 0.0728236
000130 f6 b6 17 3e d0 d1 c7 3e c2 a2 56 be c0 04 b5 bd
       0.14815888 0.39027262 -0.20960525 -0.088387966
000140 75 a2 0d be 18 fb 92 bd 50 bd a2 3c 0c 77 cc 3f
       -0.13831504 -0.071767986 0.019865662 1.597383
000150 ea 9b 96 bd 77 9b e3 bd 84 ea 78 3e 45 23 24 bd
       -0.07353957 -0.11113637 0.2430821 -0.0400727
000160 82 09 de 3c 23 bd 12 3f 45 ea 28 3e 22 d6 6d 3e
       0.027104143 0.5731985 0.16495617 0.23226216
000170 03 16 93 3c 8d 56 29 bd dd bb 46 be 0d 5f a6 be
       0.017954832 -0.041342307 -0.19407602 -0.32494393

dijetResNetBlock.conv.0.m f4 [1, 1, 1, 8]
000000 2e 17 a3 3c ac a4 4b 3e 20 fd c3 3e a3 60 a9 3e
       0.019908514 0.19887036 0.38279057 0.3308154
000010 e4 db 69 3f ce 24 02 3e 2d e3 30 3f 4c fb d2 3e
       0.9135115 0.12709352 0.6909664 0.4120735

dijetResNetBlock.conv.0.s f4 [1, 1, 1, 8]
000000 ee 5a 44 3f d6 15 0d 3f ca 00 7f 3f 41 ba 2b 3f
       0.7670125 0.55111444 0.9961058 0.67081076
000010 95 bc 48 3f 68 22 23 3f 73 34 96 3f 06 ea 80 3f
       0.78412753 0.63724375 1.1734756 1.0071418

dijetResNetBlock.conv.0.conv.bias f4 [1, 8, 1]
000000 9e 2e fb be 75 ed 50 3d 69 1e 75 3c ab 9b 79 bf
       -0.49059004 0.051007707 0.014960864 -0.97503155
000010 0e a9 a8 3f 05 5b 71 bf 4e c2 5c bc 19 0a 82 3e
       1.3176591 -0.9427951 -0.01347406 0.2539833

dijetResNetBlock.conv.0.conv.module.weight f4 [4, 8, 1]
000000 7c 46 02 3f 2d ce 9b 3e 2f 2b 8d be 2f 9d 82 3e
       0.508888 0.30430737 -0.2757201 0.25510547
000010 88 5b 03 3f e4 8f 73 bf d6 8f 03 3e 5c eb 44 be
       0.5131154 -0.95141435 0.12847838 -0.19230407
000020 59 a3 f7 be d8 52 0a bd 42 94 22 be a3 90 c2 be
       -0.48366812 -0.033770412 -0.15876868 -0.38000974
000030 8c 90 48 bf c1 3d 50 3f 3b cc d3 bd 2e 60 2e be
       -0.7834556 0.8134423 -0.10341688 -0.17028877
000040 d6 4a 3f 3e c5 3f 8c be 82 28 db 3e 3d 56 30 bf
       0.18680891 -0.27392402 0.42804343 -0.6888159
000050 d1 a6 9f be 81 06 87 3e e4 90 8d 3d 2f b6 ec 3e
       -0.31181958 0.2637215 0.06912401 0.46232745
000060 4c 20 a9 be 51 3d 64 bd e4 31 c1 3e 5e 5e cf 3e
       -0.33032453 -0.05572254 0.37733376 0.40501684
000070 f6 f4 98 bd 4b 4c 4a bd 9a cf 30 bf df 43 9a be
       -0.074685976 -0.049389165 -0.69066775 -0.30129907

attention_oo.q_GBN.gamma f4 [8]
000000 09 c6 47 3e 89 2f 43 bf b4 3a ab 3e 1b f2 2c 3e
       0.19509138 -0.7624441 0.33443224 0.16889231
000010 b5 b3 99 bd 39 a5 88 3e 11 ac e0 3e d4 61 50 bf
       -0.075049795 0.26688555 0.43881276 -0.81399274

attention_oo.q_GBN.bias f4 [8]
000000 41 0e 56 bf e4 ec c8 3f f1 5f 05 40 1b 94 bf bf
       -0.836155 1.5697293 2.0839808 -1.4967073
000010 b0 f7 5d be 60 c8 c1 bf 3c 3c af bf d7 4a 19 40
       -0.21676517 -1.5139275 -1.3690257 2.3951929

attention_oo.q_GBN.m f4 [1, 1, 1, 8]
000000 e8 d9 e1 3f 2c 2e 48 3f 17 f2 9e 3f a2 cc fa 3f
       1.7644625 0.7819545 1.241763 1.9593699
000010 36 c2 c5 bd c6 33 26 3f ba 6d 4b 3f 2d 37 98 3f
       -0.096561834 0.6492275 0.79464304 1.1891838

attention_oo.q_GBN.s f4 [1, 1, 1, 8]
000000 3b 31 6c 3f 2d 28 90 3f cf 6c 72 3f fa f2 dd 3f
       0.9226262 1.1262261 0.9469728 1.7339776
000010 07 92 8a 3e b9 b5 7b 3f f4 ad 8f 3f 77 10 ba 3f
       0.27064535 0.9832416 1.1224961 1.4536275

attention_oo.v_GBN.gamma f4 [8]
000000 c4 07 6c 3f 3b b5 c6 3e aa ed 9e 3f ae 66 a5 3f
       0.9219935 0.38810143 1.2416279 1.292196
000010 f9 14 d4 3f 65 f4 7a 3f c8 85 81 3e b9 33 4b 3f
       1.65689 0.98029166 0.2529738 0.793758

attention_oo.v_GBN.bias f4 [8]
000000 d2 4f a4 3e 3c 10 57 3f 3c 97 a9 3f 51 7c 28 3f
       0.32092148 0.84009147 1.3249278 0.6581469
000010 71 e6 96 3f 3d 4d 80 3f 0c ab 9a 3f 35 1d 07 3f
       1.1789075 1.0023571 1.2083449 0.5277894

attention_oo.v_GBN.m f4 [1, 1, 1, 8]
000000 e8 d9 e1 3f 2c 2e 48 3f 17 f2 9e 3f a2 cc fa 3f
       1.7644625 0.7819545 1.241763 1.9593699
000010 36 c2 c5 bd c6 33 26 3f ba 6d 4b 3f 2d 37 98 3f
       -0.096561834 0.6492275 0.79464304 1.1891838

attention_oo.v_GBN.s f4 [1, 1, 1, 8]
000000 3b 31 6c 3f 2d 28 90 3f cf 6c 72 3f fa f2 dd 3f
       0.9226262 1.1262261 0.9469728 1.7339776
000010 07 92 8a 3e b9 b5 7b 3f f4 ad 8f 3f 77 10 ba 3f
       0.27064535 0.9832416 1.1224961 1.4536275

attention_oo.qv_GBN.gamma f4 [8]
000000 d5 29 81 3f 52 c4 1c 40 f4 af 98 3f a8 68 94 3f
       1.0090891 2.4494824 1.1928697 1.1594439
000010 d5 43 d7 3f 44 98 a0 3e 1f d1 b7 3f 63 51 ab 3f
       1.6817576 0.3136617 1.4360694 1.3384212

attention_oo.qv_GBN.bias f4 [8]
000000 87 b5 8b 3d 6a 40 e9 3e 65 03 d4 3f 53 f6 09 40
       0.06821733 0.45556957 1.6563536 2.1556594
000010 d5 9f 82 3f 65 2d dc 3f a9 43 af 3f 55 ae 70 be
       1.0205027 1.7201353 1.3692523 -0.23504002

attention_oo.qv_GBN.m f4 [1, 1, 1, 8]
000000 34 dc e1 3f 75 b2 3f 40 d0 92 7b 3f e1 0f 0e 3f
       1.7645326 2.9952672 0.98270893 0.5549298
000010 e3 45 35 40 92 2b 38 3f 47 ea d0 3f 1b 5d 9f 3f
       2.8323905 0.71941483 1.6321496 1.2450289

attention_oo.qv_GBN.s f4 [1, 1, 1, 8]
000000 d4 36 8e 3f 62 7f ed 3f eb 03 7a 3f 50 4e 8e 3f
       1.1110482 1.8554499 0.9766223 1.1117649
000010 a3 0e 92 3f 52 03 c7 3f 1d 17 41 40 3b 2b a3 3f
       1.1410717 1.5547888 3.0170357 1.2747568

attention_oo.score_GBN.gamma f4 [2]
000000 44 a9 0b 3f b6 da 24 3f
       0.54555154 0.64396226

attention_oo.score_GBN.bias f4 [2]
000000 bf 37 03 40 2e ea 03 bf
       2.0502775 -0.51529205

attention_oo.score_GBN.m f4 [1, 1, 1, 2]
000000 8b 3d e0 40 81 0c de 3f
       7.0075126 1.7347566

attention_oo.score_GBN.s f4 [1, 1, 1, 2]
000000 96 80 cf 40 1d 75 66 40
       6.4844465 3.600898

attention_oo.conv.m f4 [1, 1, 1, 8]
000000 33 ed bf 3d d6 4c 01 40 0a 9e 5d 40 a8 6f 22 40
       0.09371414 2.0203147 3.462771 2.538065
000010 5c d4 f2 3e 62 71 3c 3f 7e 21 72 3f ad a8 9c 3e
       0.47427642 0.7361051 0.94582355 0.3059744

attention_oo.conv.s f4 [1, 1, 1, 8]
000000 9e 7e 77 3e 22 27 1a 3f e5 8c 6b 3f 50 43 5a 3f
       0.24169394 0.6021596 0.92011863 0.8525896
000010 af a6 a8 3e 8e fb 7d 3e 92 58 12 3f cb ca b7 3e
       0.3293967 0.24802992 0.571664 0.35896906

attention_oo.conv.conv.bias f4 [1, 8, 1]
000000 4e 88 fb 3f ac 0f 86 3e 0d 0d d4 3f 3a 85 28 40
       1.9650972 0.26183832 1.6566483 2.6331315
000010 40 30 1e c0 7f 28 13 40 be 7e d9 3e 6e 27 ce 3f
       -2.471695 2.2993467 0.4247951 1.6105783

attention_oo.conv.conv.module.weight f4 [4, 8, 1]
000000 87 f2 a4 bf c1 b0 16 3e e5 e4 d1 3d 58 80 36 be
       -1.2886513 0.14715864 0.10248736 -0.17822397
000010 8c 12 78 3f 25 ab 80 bf 62 19 2a bd c5 f8 56 3e
       0.969033 -1.0052229 -0.041528113 0.20993336
000020 0b 2d 1c 3e d8 1b ae bf 63 2b 1e be 31 c5 88 3d
       0.15251558 -1.3602247 -0.15446238 0.06678236
000030 41 bd 27 bd 0b b3 03 3e fc 99 cd be a9 58 61 3f
       -0.04095197 0.12861268 -0.40156543 0.8802591
000040 f8 65 36 bf eb da 63 bc fc 50 12 3e 72 97 45 bf
       -0.7124934 -0.013907175 0.14288706 -0.7718421
000050 3d 40 f1 3e 58 49 79 bf 9f e5 45 bf cf 33 9e bf
       0.47119322 -0.9737754 -0.773035 -1.2359561
000060 15 80 ce 3e 37 f4 5d 3e c0 3d 02 3e 0a 1a 8f 3c
       0.40332094 0.21675192 0.12718868 0.017468471
000070 13 29 51 3e a9 b8 94 bd bf a9 91 bd bc a0 e4 bd
       0.20425825 -0.07261784 -0.071124546 -0.1116347

attention_do.q_GBN.gamma f4 [8]
000000 7d dd 73 bf e6 48 42 be 21 e9 37 3e 6f 9d ca 3f
       -0.9525984 -0.18973121 0.17960025 1.5829295
000010 f1 de af 3f d9 03 62 bd cc be a7 3e 29 26 f6 3e
       1.3739911 -0.05517945 0.32762754 0.4807599

attention_do.q_GBN.bias f4 [8]
000000 1b d0 69 3d 7a 86 5e 3e 6f 2f 02 40 e9 8a df bf
       0.05708323 0.21730986 2.034145 -1.7464267
000010 eb bf f2 be fa 77 b5 bf ae 63 89 3e ab 85 77 3f
       -0.47412047 -1.4177239 0.26833862 0.96688336

attention_do.q_GBN.m f4 [1, 1, 1, 8]
000000 14 51 30 3f 39 ea 37 3e 1d da f9 3f 3b 3c fe 3f
       0.68873715 0.17960443 1.9519688 1.9862131
000010 de e9 e8 3f da 39 04 40 1a c2 eb 3f 41 f9 b4 3f
       1.8196371 2.066031 1.841861 1.4138566

attention_do.q_GBN.s f4 [1, 1, 1, 8]
000000 a1 80 ea 3f e9 9a bf 3f 3d b3 23 40 33 8d 0f 40
       1.8320504 1.496915 2.5578148 2.242993
000010 f4 1a e1 3f f2 7a 07 40 a6 e8 37 40 dd f2 1e 40
       1.758635 2.116879 2.8735747 2.4835732

attention_do.v_GBN.gamma f4 [8]
000000 1d 54 ee 3e c5 34 61 3f a1 15 8b 3f 0f 50 da 3f
       0.46548548 0.87971145 1.0865976 1.7055682
000010 46 7e 2a 3e 92 f0 ef 3e 9e 20 86 3f d8 f1 9e 3f
       0.16649732 0.46863228 1.0478704 1.2417555

attention_do.v_GBN.bias f4 [8]
000000 cd 78 15 3f d8 3b 59 3e 25 b7 13 3e 4e 85 cd bf
       0.5838745 0.21214235 0.14425333 -1.6056306
000010 02 a7 15 3f 86 e4 6d be e2 4c 27 3f 33 0f 73 bf
       0.5845796 -0.23231706 0.6535169 -0.9494507

attention_do.v_GBN.m f4 [1, 1, 1, 8]
000000 ce ec 79 40 b9 c9 59 3f f4 d0 50 40 e9 7c 91 40
       3.9050784 0.8507343 3.2627535 4.546498
000010 14 55 31 bd 37 37 2e 40 70 85 cc 3f f3 19 1d 40
       -0.043294027 2.72212 1.5978222 2.4547088

attention_do.v_GBN.s f4 [1, 1, 1, 8]
000000 bf 59 e8 3f a2 f1 60 3f e2 28 13 40 64 85 df 3f
       1.8152388 0.878687 2.2993703 1.7462583
000010 58 bf 01 3f 98 5d 91 3f b6 be 26 40 f7 bb d3 3f
       0.5068259 1.1356688 2.60539 1.6541737

attention_do.qv_GBN.gamma f4 [8]
000000 77 22 65 3f 7f 0d 90 3f 07 c3 a2 3f 71 aa 5e 3e
       0.89505714 1.1254119 1.2715768 0.21744706
000010 05 40 6d 3f 58 c9 9f 3f ea ed 82 3d 22 74 fe 3f
       0.9267581 1.248332 0.06393035 1.9879191

attention_do.qv_GBN.bias f4 [8]
000000 10 ed ca 3d 31 0f 8c 3f 96 b1 73 3f fe 67 36 bf
       0.09908497 1.0942136 0.9519285 -0.7125243
000010 f3 cb 63 3e ae e9 58 bf 72 31 d0 3f 5d c8 1c c0
       0.22245769 -0.84731567 1.626509 -2.4497292

attention_do.qv_GBN.m f4 [1, 1, 1, 8]
000000 c8 19 ad 3f 9e 46 47 40 7f 34 82 3f 94 54 5d 40
       1.3523493 3.1136851 1.017227 3.4582872
000010 fb a3 55 40 a9 83 2d 3f 44 11 0e 3f 4a 41 d5 3d
       3.3381336 0.6777902 0.55495095 0.104128435

attention_do.qv_GBN.s f4 [1, 1, 1, 8]
000000 53 0b b4 3f 64 3b f9 3f 6e 7a 5f 3f fb 15 28 40
       1.4065956 1.947125 0.8729619 2.6263416
000010 a2 78 bf 3f 6c cd b9 3f e3 25 9f 3f f3 10 25 3f
       1.4958689 1.4515815 1.2433437 0.6447899

attention_do.score_GBN.gamma f4 [2]
000000 5e cd e3 3e 33 da 0f 3f
       0.4449262 0.5619232

attention_do.score_GBN.bias f4 [2]
000000 cd f5 d1 bc 1a 4c 61 bf
       -0.025629902 -0.88006747

attention_do.score_GBN.m f4 [1, 1, 1, 2]
000000 5c 50 93 40 56 f6 02 c0
       4.6035595 -2.0462852

attention_do.score_GBN.s f4 [1, 1, 1, 2]
000000 04 11 df 40 d0 9d 27 40
       6.970827 2.619007

attention_do.conv.m f4 [1, 1, 1, 8]
000000 e4 90 0f 3e 50 2f 1b 3f ae 95 32 3f e0 dd 5a be
       0.14020115 0.6061907 0.69759643 -0.21373701
000010 9a 40 dc 3d 8a c9 51 bc f4 77 2d 3f 61 5e 86 bd
       0.10754509 -0.012804398 0.6776116 -0.0656097

attention_do.conv.s f4 [1, 1, 1, 8]
000000 07 3a 0e 3e 8e 24 bc 3e f7 f8 e5 3e 4e a7 d7 3d
       0.13889323 0.3674664 0.44916508 0.10529958
000010 82 5c 1a 3e ff 25 9a 3e 78 3f 16 3f ef 98 30 3f
       0.15074351 0.30107114 0.58690596 0.6898336

attention_do.conv.conv.bias f4 [1, 8, 1]
000000 48 d0 8f 3e ff 6c 96 bf 2c 75 d7 3e 62 94 52 bd
       0.28088593 -1.1752013 0.42081583 -0.05141104
000010 aa 59 6b 3f c6 6b 91 3f 56 dc ea bd a5 59 6d bf
       0.9193369 1.1361015 -0.11467807 -0.9271491

attention_do.conv.conv.module.weight f4 [4, 8, 1]
000000 14 c8 4a 3f 73 02 95 3d f3 eb 06 bf 69 c6 e0 be
       0.79211545 0.07275858 -0.5270378 -0.43901375
000010 9a 97 3e bf 98 1e 5a be 20 08 2c be d9 3b ae 38
       -0.74450076 -0.21300733 -0.16799974 8.308114e-05
000020 66 62 88 bf 8c 5f 4e bf 96 e6 5a be f1 96 a1 3c
       -1.0655029 -0.8061454 -0.21377024 0.019725295
000030 b9 46 b3 3e 53 d3 7f 3e 0d d7 20 3e 96 5c e1 3e
       0.35014895 0.24982958 0.15707035 0.4401595
000040 d8 f6 84 3e 84 79 1d 3e 0f 79 3d bf 6d 66 08 3f
       0.25969577 0.15378386 -0.74012846 0.5328129
000050 ba 92 24 bf a2 f3 e0 be 77 af 95 3e df 4d 21 bf
       -0.64286387 -0.43935877 0.29235432 -0.63009447
000060 7b ae b5 bc ab 0a 7c 3f d1 af f6 be 6d af 42 be
       -0.022177925 0.9845378 -0.48181012 -0.19012232
000070 82 64 9e be a1 2a 8a bd f6 e1 2e 3b 6f ec 08 3f
       -0.30936056 -0.06746412 0.0026684976 0.5348577

quadjetResNetBlock.reinforce.0.sym.weight f4 [8, 1, 2]
000000 00 00 00 3f 00 00 00 3f 00 00 00 3f 00 00 00 3f
       0.5 0.5 0.5 0.5
000010 00 00 00 3f 00 00 00 3f 00 00 00 3f 00 00 00 3f
       0.5 0.5 0.5 0.5
000020 00 00 00 3f 00 00 00 3f 00 00 00 3f 00 00 00 3f
       0.5 0.5 0.5 0.5
000030 00 00 00 3f 00 00 00 3f 00 00 00 3f 00 00 00 3f
       0.5 0.5 0.5 0.5

quadjetResNetBlock.reinforce.0.antisym.weight f4 [8, 1, 2]
000000 00 00 00 3f 00 00 00 bf 00 00 00 3f 00 00 00 bf
       0.5 -0.5 0.5 -0.5
000010 00 00 00 3f 00 00 00 bf 00 00 00 3f 00 00 00 bf
       0.5 -0.5 0.5 -0.5
000020 00 00 00 3f 00 00 00 bf 00 00 00 3f 00 00 00 bf
       0.5 -0.5 0.5 -0.5
000030 00 00 00 3f 00 00 00 bf 00 00 00 3f 00 00 00 bf
       0.5 -0.5 0.5 -0.5

quadjetResNetBlock.reinforce.0.conv.m f4 [1, 1, 3, 8]
000000 67 36 3d 3f 44 e5 1e 3e 0d 48 1c 40 49 bd df 3f
       0.73911136 0.15517145 2.4418976 1.747964
000010 fc ef 1c 40 32 fc 48 40 04 26 02 40 1c 92 66 3f
       2.4521475 3.1403928 2.0335703 0.90066695
000020 ee c6 1d 3f 98 0d 89 3e 32 aa 83 3f bd 56 2f 3f
       0.6163167 0.26768184 1.0286314 0.6849173
000030 f8 9f 5e 3f 8c 93 6c 3f ef ed 40 3f 0b 78 22 3f
       0.8696284 0.9241264 0.7536306 0.6346442
000040 99 66 66 3e de 1d 19 bd 4a 14 88 be bb bc d6 3e
       0.22500075 -0.037382 -0.2657798 0.41940865
000050 24 4c d5 3e 2a b5 14 3f 6b 35 69 3e 41 a0 d2 3f
       0.41659653 0.58088934 0.22774284 1.6455156

quadjetResNetBlock.reinforce.0.conv.s f4 [1, 1, 3, 8]
000000 54 b8 bd 3f 1b 21 8a 3f a6 53 26 40 0e e2 e1 3f
       1.4821877 1.0791353 2.5988555 1.7647111
000010 2e 24 e8 3f 73 fa e3 3f 05 99 3d 40 02 47 c0 3f
       1.8136041 1.7810806 2.9624646 1.502167
000020 48 82 83 3f 91 76 69 3f 44 30 95 3f 5f cf 43 3f
       1.0274134 0.9119654 1.1655354 0.764883
000030 5e fb 43 3f 59 77 44 3f 69 1f 7d 3f 26 12 7b 3f
       0.7655543 0.7674461 0.98876053 0.9807457
000040 7a 54 05 3f f2 6c c9 3e 40 b8 ca 3c b7 e4 7b 3e
       0.52082026 0.3934093 0.02474606 0.24598967
000050 a2 61 7c 3f 80 b5 cb 3e 15 11 3d 3e f0 65 9d 3e
       0.98586476 0.3978691 0.18463548 0.30741835

quadjetResNetBlock.reinforce.0.conv.conv.bias f4 [1, 8, 1]
000000 d8 2a af be 2d 16 57 3f 3a 3d 31 c0 29 a6 00 3f
       -0.34212375 0.8401821 -2.769362 0.5025354
000010 32 9c 5e be d7 ba 39 3f f2 44 2d bf 33 67 5f bf
       -0.21739271 0.7255072 -0.6768333 -0.87266845

quadjetResNetBlock.reinforce.0.conv.conv.module.weight f4 [4, 8, 3]
000000 e1 11 94 3d 7f 05 7c 3e 75 e2 ec 3c d0 6c 0c 3f
       0.07229973 0.24611472 0.028916577 0.54853535
000010 00 b3 6d 3e 12 af c1 3e f5 1d 51 3f f3 9e 16 3d
       0.23212814 0.3782888 0.81686336 0.03677268
000020 4a e9 29 3e 97 47 e6 3e 82 cf 7c 3f 57 8e 75 be
       0.16592899 0.44976494 0.9875413 -0.2398008
000030 f8 01 9c 3f 10 ca 87 be 71 fa d6 3e d4 54 47 3f
       1.2188101 -0.2652135 0.41987947 0.7786381
000040 27 51 95 3e 1a 35 c6 bd 1a 38 5e bf e2 59 38 be
       0.29163477 -0.09678097 -0.86804354 -0.18003038
000050 ef 40 e4 bd 57 3a e8 be 14 5c 69 be c1 7f 85 be
       -0.111451976 -0.4535701 -0.22789031 -0.2607403
000060 64 cc 64 3f 8c e7 bd 3f 1e 51 b3 3c 92 89 f3 be
       0.89374375 1.4836287 0.021889266 -0.47565895
000070 69 98 3f bf 2f 26 ee be bc e3 0a 3f b3 92 88 3e
       -0.74841934 -0.46513507 0.54253745 0.26674423
000080 2a af a6 bc 30 5a 14 3f 74 c2 1f bc c0 9f a4 3d
       -0.020347197 0.57950115 -0.009750951 0.080382824
000090 9c 5f b2 3f 07 c8 ee 3e 38 49 7a be 69 87 8b bf
       1.3935428 0.46636984 -0.24441993 -1.0900699
0000a0 a8 22 35 be e6 6a 24 3f 3e bf 08 3e 2d 97 73 be
       -0.17689002 0.64225614 0.13354203 -0.23788138
0000b0 e7 a6 95 3d 44 6b 57 bf 48 12 83 be 72 82 f1 3d
       0.07307225 -0.8414805 -0.25599885 0.117924586
0000c0 1a 9b 3b 3f 86 f0 95 3d fb 3c bd 3e ff ce 38 3f
       0.7328354 0.07321267 0.36960587 0.7219085
0000d0 35 56 38 3d 75 b6 c1 3e cd a4 1a 3c 69 63 99 3c
       0.04500409 0.37834516 0.009438706 0.01872416
0000e0 93 86 69 bd 59 c9 9f 3f 49 07 ea 3e a7 d9 bc 3e
       -0.057013106 1.2483321 0.45708683 0.36884806
0000f0 a3 04 bb 3e 6b 63 fe 3e 28 bc b9 be fe ec 81 be
       0.36526975 0.49685225 -0.36276364 -0.25376123
000100 a1 88 10 be ef 6a ef be b4 55 11 bf 3d ea c6 3d
       -0.1411462 -0.4676127 -0.567714 0.09712646
000110 45 6f 61 3d f2 29 e7 3d 83 7a 54 3f 5c 01 1d 3e
       0.055037756 0.11287297 0.8299944 0.1533255
000120 1b 72 8b 3f a0 e6 cf 3c 9e b3 22 3c 23 1e 2e bf
       1.0894197 0.025378525 0.009930519 -0.68014735
000130 98 b3 0c 3c c7 d3 20 3f 80 24 3b bf be 44 e6 bc
       0.00858774 0.62823147 -0.7310257 -0.02810895
000140 6b 5f 87 3c c7 ce 8f 3e ef f5 dd 3e f1 54 e6 3e
       0.016524991 0.28087446 0.43351695 0.4498668
000150 3b ac e3 be 9a bd 2e 3e d4 42 43 be bb e8 af 3e
       -0.4446734 0.17064515 -0.19068462 0.34357247
000160 5f 75 85 3b 61 1f 07 be 6a ec 46 3c 2b ea dd 3c
       0.0040728296 -0.13195564 0.012141326 0.027089199
000170 82 d3 07 3b e0 53 6c bf 4c da 13 bf 73 f9 b7 be
       0.0020725434 -0.92315483 -0.5775497 -0.35932502

quadjetResNetBlock.reinforce.1.sym.weight f4 [8, 1, 2]
000000 00 00 00 3f 00 00 00 3f 00 00 00 3f 00 00 00 3f
       0.5 0.5 0.5 0.5
000010 00 00 00 3f 00 00 00 3f 00 00 00 3f 00 00 00 3f
       0.5 0.5 0.5 0.5
000020 00 00 00 3f 00 00 00 3f 00 00 00 3f 00 00 00 3f
       0.5 0.5 0.5 0.5
000030 00 00 00 3f 00 00 00 3f 00 00 00 3f 00 00 00 3f
       0.5 0.5 0.5 0.5

quadjetResNetBlock.reinforce.1.antisym.weight f4 [8, 1, 2]
000000 00 00 00 3f 00 00 00 bf 00 00 00 3f 00 00 00 bf
       0.5 -0.5 0.5 -0.5
000010 00 00 00 3f 00 00 00 bf 00 00 00 3f 00 00 00 bf
       0.5 -0.5 0.5 -0.5
000020 00 00 00 3f 00 00 00 bf 00 00 00 3f 00 00 00 bf
       0.5 -0.5 0.5 -0.5
000030 00 00 00 3f 00 00 00 bf 00 00 00 3f 00 00 00 bf
       0.5 -0.5 0.5 -0.5

quadjetResNetBlock.reinforce.1.conv.m f4 [1, 1, 3, 8]
000000 7c 83 3e 3f 56 31 d1 3e 51 2d 46 40 6a 4f 1e 40
       0.7441938 0.40857953 3.096516 2.473597
000010 c3 dc 19 40 36 25 67 40 c0 6c 13 40 8c 2d a8 3f
       2.4040992 3.6116462 2.3035126 1.31389
000020 44 d2 07 3f 15 b6 d6 3e b0 5d 94 3f 7d 16 74 3f
       0.53055215 0.41935793 1.1591091 0.95346814
000030 e1 bd 36 3f 17 c6 82 3f 72 4c 5a 3f 49 4d 7b 3f
       0.7138348 1.0216702 0.85272896 0.981648
000040 e7 61 9a 3f e4 27 8b 3f fc d2 3b 3e 92 e5 9a 3f
       1.2061127 1.0871549 0.18342203 1.2101309
000050 cf 10 c2 3f 16 f9 de 3f 42 63 1d 3f a8 ee a0 3f
       1.516138 1.7419765 0.6147958 1.2572832

quadjetResNetBlock.reinforce.1.conv.s f4 [1, 1, 3, 8]
000000 09 5b a7 3f 94 0e b8 3f b6 02 3f 40 5e 8c 0d 40
       1.3074657 1.4379449 2.9845405 2.2116923
000010 3b 36 d6 3f e0 52 e7 3f 24 3c 5e 40 07 ed 1a 40
       1.67353 1.8072166 3.4724207 2.420717
000020 fd 77 4d 3f 94 d3 99 3f ee ae a5 3f 1b 90 78 3f
       0.8026121 1.2017694 1.2944009 0.9709489
000030 a3 54 20 3f d3 ca 60 3f 3a a6 99 3f 24 77 e1 3f
       0.62629145 0.87809485 1.2003853 1.7614484
000040 85 e8 d7 3f 04 ab c1 3f cc fb 9e 3f 69 cf ef 3f
       1.6867834 1.5130315 1.2420592 1.8735172
000050 5a c6 2e 40 db 00 00 40 00 e5 aa 3f 34 94 b6 3f
       2.7308564 2.0000522 1.3351135 1.4263978

quadjetResNetBlock.reinforce.1.conv.conv.bias f4 [1, 8, 1]
000000 7a 86 9d 3d c0 d2 75 bf 5e 9a 7f bf 3c 13 2c 3f
       0.07691665 -0.96024704 -0.9984492 0.6721685
000010 80 ee 0d 3e 2b d7 eb 3d 3f 2c a3 3f 93 34 02 40
       0.13860512 0.115156494 1.2747878 2.0344589

quadjetResNetBlock.reinforce.1.conv.conv.module.weight f4 [4, 8, 3]
000000 e1 9b 30 3e b4 34 0b bd fa 03 87 3e e4 eb 8b bf
       0.17246963 -0.03398581 0.2637022 -1.0931363
000010 27 99 75 be 1b 66 8e 3e 83 46 5d bf de 29 cb be
       -0.23984204 0.27812275 -0.8643572 -0.3968038
000020 56 85 07 bf 6b c6 0c bf b3 92 cc be 98 9f e8 bd
       -0.5293783 -0.5499026 -0.39955673 -0.11358565
000030 66 59 2d bf 04 d5 5f be 8d e5 00 3e 61 27 55 3f
       -0.67714536 -0.21858603 0.12587567 0.8326321
000040 33 88 85 bc a1 c3 82 3d ae d3 e0 3f df bc 0b 3d
       -0.016300296 0.063849695 1.75646 0.03411567
000050 94 b5 e9 bb 54 fe 1f bd 6d 33 2b 3e 56 97 f7 be
       -0.0071322415 -0.039060906 0.16718836 -0.48357648
000060 dc fd 2c bf 1e e5 cf be 44 f3 65 bf cb 51 9a bd
       -0.6757486 -0.4060449 -0.8982432 -0.07535132
000070 22 1e 9d 3e d9 4c 1e 3f 76 67 93 bf 2a 82 44 bd
       0.30687052 0.6183601 -1.1515949 -0.047975697
000080 92 ce cf 3e 4e 59 5e bf cc aa a3 3e d5 a3 a2 be
       0.40587288 -0.8685502 0.31966245 -0.3176562
000090 4c 68 01 bf d0 bd 15 be 93 29 03 bf 61 eb f2 be
       -0.5054977 -0.14623189 -0.5123531 -0.47445205
0000a0 e9 fa d5 be 93 a7 aa 3d 2b 91 46 3f f0 eb e9 3d
       -0.41792992 0.083327435 0.7756526 0.11421955
0000b0 84 e6 0a 3f 72 73 1f 3e 91 7e 3c bf 5e bb 20 3c
       0.5425799 0.15571383 -0.73630625 0.009810297
0000c0 e6 c0 95 3f f1 7e 58 3d 89 b6 02 be 99 14 8c be
       1.1699493 0.052855436 -0.12764944 -0.27359465
0000d0 92 d8 3b be 10 85 8a be f9 c1 63 bd 93 bd 0a 3f
       -0.18344334 -0.27054644 -0.05560491 0.5419552
0000e0 a0 06 3c 40 2e 12 9f 3f ce f9 f6 3e 27 c1 3d be
       2.9379044 1.2427423 0.4823746 -0.18530713
0000f0 4e 55 e3 be c1 46 e8 3d 8c 17 1f 3e b2 5c 3f bd
       -0.4440102 0.1134162 0.15536326 -0.04671926
000100 39 41 58 be 0c 08 f4 3e 37 39 f2 bf 17 02 6f bc
       -0.2111863 0.4766239 -1.892371 -0.014587901
000110 38 f9 bb 3e 2a b5 c7 3e 5d 09 06 bf c8 56 e7 bd
       0.36713576 0.39005405 -0.5235804 -0.11295849
000120 b4 cd 11 3e 58 b0 cf 3d b1 9e 82 3f bf 35 0d bf
       0.14238626 0.10141057 1.0204679 -0.55160135
000130 61 f3 87 bd ea b0 18 bf b6 48 57 be e3 8e 3b be
       -0.06638218 -0.5964495 -0.21023831 -0.18316226
000140 6a 92 e2 3a 4f d5 8c 3e 40 4c a4 3d 81 50 9a be
       0.0017286066 0.27506492 0.08022356 -0.30139545
000150 62 a1 c6 bd a7 86 90 3d 1b 04 c8 3e 65 57 2b bf
       -0.0969875 0.07056933 0.39065632 -0.6693023
000160 a8 9b 21 3e c4 32 da 3d 62 42 7b 3e 2f e7 6f bd
       0.15782034 0.10654214 0.24537042 -0.058570083
000170 60 7c eb be 72 be 6d 3f ab b2 bf bd 67 04 83 3e
       -0.45993328 0.9286872 -0.0936025 0.25589296

quadjetResNetBlock.conv.0.m f4 [1, 1, 1, 8]
000000 67 36 3d 3f 42 e5 1e 3e 0d 48 1c 40 4a bd df 3f
       0.73911136 0.15517142 2.4418976 1.7479641
000010 fc ef 1c 40 32 fc 48 40 04 26 02 40 1c 92 66 3f
       2.4521475 3.1403928 2.0335703 0.90066695

quadjetResNetBlock.conv.0.s f4 [1, 1, 1, 8]
000000 5e f3 f3 3f 0c 11 b8 3f cd cf 41 40 bd ab 02 40
       1.9058645 1.4380202 3.0283082 2.041732
000010 1e bc 09 40 c1 7e 09 40 08 9e 4d 40 76 93 f3 3f
       2.1521068 2.1483614 3.2127705 1.9029377

quadjetResNetBlock.conv.0.conv.bias f4 [1, 8, 1]
000000 44 80 20 3f 00 30 30 bf 4b ab b2 3e dd 84 b2 3e
       0.6269572 -0.6882324 0.3489631 0.34866992
000010 8a fe 59 3e c7 7e 49 3e 07 6d 98 be b9 f7 20 bf
       0.21288505 0.19677268 -0.2977068 -0.62877995

quadjetResNetBlock.conv.0.conv.module.weight f4 [4, 8, 1]
000000 59 0c 0b bf 15 5f b8 bd e9 5f e3 3d 78 4c d6 3e
       -0.54315716 -0.090025105 0.11102278 0.41855216
000010 f5 b7 95 3e 9b c4 09 3f e8 41 d5 3e 18 03 c0 3e
       0.2924191 0.5381562 0.41651845 0.3750236
000020 d2 56 8e 3f 70 0a 5b bf 77 51 37 3e d2 f0 e6 be
       1.1120245 -0.855628 0.1790217 -0.45105606
000030 1b 76 84 be 44 bd 75 3f 99 84 00 bf 54 4e 97 3f
       -0.25871357 0.9599192 -0.5020233 1.1820779
000040 7a 98 39 3f e7 d2 ce 3d aa a9 c9 be 97 17 a7 3e
       0.72498286 0.1009882 -0.39387256 0.32635185
000050 34 d5 49 3f 3d 02 03 3e 1b f2 51 bf 7d ea 6a bd
       0.7884095 0.12793823 -0.8201005 -0.05735253
000060 e0 a5 84 be 48 2d 1b bf 18 32 4a be 73 b3 de be
       -0.25907803 -0.6061597 -0.19745672 -0.43496284
000070 4c 90 96 3f d5 f8 c2 3e 10 93 01 3f 0b 04 02 bf
       1.1762786 0.3808047 0.50615025 -0.5078742

select_q.m f4 [1, 1, 1, 8]
000000 c4 de b3 3f 5a 90 1b 3f 5f c8 d6 3e 22 e8 a2 3f
       1.4052358 0.6076714 0.41949746 1.2727091
000010 7a 2b d0 3f 46 8e d3 3f cc 3b 05 40 59 11 7b 40
       1.6263268 1.6527793 2.0817747 3.9229338

select_q.s f4 [1, 1, 1, 8]
000000 b8 80 14 40 7b f9 a2 3f 6a e4 38 40 69 90 db 3f
       2.3203564 1.2732385 2.8889413 1.7153445
000010 40 b6 15 40 5f 0b 15 40 6c fb ee 3f 6d 00 e3 3f
       2.3392487 2.328819 1.8670478 1.7734505

select_q.conv.module.weight f4 [1, 8, 1]
000000 42 70 d5 3e 3e 3b 39 3e 8b 17 28 3e 60 84 ba bc
       0.41687208 0.18089005 0.16415231 -0.0227682
000010 60 b7 23 be 65 0b 50 be d0 86 3c 3e 62 8c 85 be
       -0.15987921 -0.20316847 0.18410802 -0.26083666

out.m f4 [1, 1, 1, 8]
000000 85 47 48 40 02 a9 b2 3f 7a 52 99 3e a9 82 00 40
       3.1293652 1.3957827 0.29945737 2.0079749
000010 63 0d 1d 3f b5 6e 01 3f ad 32 55 40 48 54 4b 40
       0.6134855 0.5055955 3.331218 3.1770191

out.s f4 [1, 1, 1, 8]
000000 eb c4 02 40 52 0c a3 3f 67 d0 b5 3f 72 18 c2 3f
       2.043269 1.2738135 1.4204224 1.516371
000010 44 6b 77 3f 5f 27 36 3f db 0e d9 3f 08 82 ca 3f
       0.9664805 0.71153826 1.6957659 1.5820932

out.conv.module.weight f4 [5, 8, 1]
000000 cf 8a 1f 3f 1a 35 53 bf a1 fc a1 3e ee be 64 be
       0.6232118 -0.825029 0.31638053 -0.22338459
000010 34 1a 20 bf f5 4c 10 3f 1d 46 90 bf eb 2d 28 3f
       -0.6253998 0.5636743 -1.1271397 0.65695065
000020 5b 10 44 bf cc 5c 8a 3d 3b c2 0f be ef e9 2a 3e
       -0.76587456 0.06755981 -0.14038937 0.16690801
000030 19 be 80 3e 77 0b 0a be 4e 5c 8c 3d 05 f1 77 3e
       0.25145033 -0.13480936 0.06853543 0.24213035
000040 36 b4 d6 3d d5 04 eb 3e e9 03 da be 82 34 4c 3f
       0.10483591 0.45902124 -0.42581108 0.7976762
000050 fe dd 36 be ca 12 2b be 23 f3 22 bf 6e 94 41 bf
       -0.17858121 -0.16706386 -0.6365225 -0.7561711
000060 56 ed 0d 3f 25 34 8a 3e 94 8b fe bc fc cb 33 bf
       0.5544027 0.26992908 -0.031072415 -0.7023313
000070 b1 df 26 bd b4 22 19 be 18 f7 10 3f a8 41 81 3e
       -0.040740672 -0.14954644 0.56627035 0.25245404
000080 4a fb 2d 3f 5e 3a 28 bf a7 7f 33 3d 15 c2 b5 3e
       0.6796156 -0.6571406 0.04382291 0.35499635
000090 90 c9 fb be 83 2c b3 be 72 fb 02 3f ae 61 a6 be
       -0.49177217 -0.34994897 0.51164925 -0.324964

out.conv.module.bias f4 [5]
000000 02 e2 26 c0 12 19 d5 3f 85 fb ac bf d0 2d 96 3d
       -2.6075444 1.6648276 -1.3514258 0.07332957
000010 c4 a2 81 bf
       -1.0127797
