metadata/weights/pytorch_models/2024_HHUL_all_kl/model_SvB_ggF_all_kl__kfolds_3__offset_1__c0d3373e-4356-4c62-8e25-8f85bc3e15bd.pkl (torch, 114438 bytes, 118 tensors)

inputEmbed.ancillaryEmbed.m f4 [1, 1, 1, 4]
000000 a5 7c 87 41 c1 94 05 3f 2a 9b 51 40 f0 a4 9b 3f
       16.935862 0.52180105 3.2750955 1.215971

inputEmbed.ancillaryEmbed.s f4 [1, 1, 1, 4]
000000 41 0b 5b 3f e5 84 f8 3e 23 33 39 40 6c 29 64 40
       0.8556405 0.4853889 2.8937461 3.5650282

inputEmbed.ancillaryEmbed.conv.module.weight f4 [4, 4, 1]
000000 e7 be ee 3c a8 e1 b4 bc aa 1a 52 bd 0e 5a c5 bc
       0.029143764 -0.022080258 -0.05129496 -0.024090793
000010 cd 65 28 bd 29 65 51 be b6 e7 d8 3d da ce 1b 3c
       -0.04111271 -0.20448746 0.1059107 0.0095097665
000020 fd 90 fd 3c d3 da 92 be 48 32 06 3e d7 05 d8 3d
       0.030952925 -0.28682575 0.13105118 0.10547989
000030 85 6a 9f 3d 7b 47 23 bf 86 54 b0 3b 70 5c 4f 3d
       0.07783989 -0.63780946 0.0053811697 0.050625265

inputEmbed.jetEmbed.m f4 [1, 1, 1, 4]
000000 47 6e 91 40 d0 9b f2 3e 6d de 6c 3f 00 bc 2a 40
       4.5447116 0.473845 0.92526895 2.6677246

inputEmbed.jetEmbed.s f4 [1, 1, 1, 4]
000000 f6 42 ec 3e a9 1a 66 3f 24 8c 4a 3f 2c 17 b9 3e
       0.46144837 0.8988443 0.7912009 0.3615049

inputEmbed.jetEmbed.conv.bias f4 [1, 8, 1]
000000 4e d3 1d 3f f5 04 8d bd 8b 9f a3 be 7e dc a6 3f
       0.6165055 -0.06885711 -0.3195766 1.3036039
000010 fa 63 97 3e 11 6e 3f bc 15 18 6f 3f ef d4 78 bf
       0.29568464 -0.011683957 0.9339612 -0.9719991

inputEmbed.jetEmbed.conv.module.weight f4 [4, 4, 1]
000000 89 d8 4d 3f e2 a8 0a 3e ff 67 7a bd 75 cc d7 bf
       0.8040853 0.13540986 -0.061134335 -1.685927
000010 87 c4 be 3f 63 b7 0a 3d 6f ce 59 3f 0d 8c 2f bf
       1.4903725 0.033866297 0.8508062 -0.68573076
000020 70 60 a9 bf 67 2b 52 3d 4a f9 52 3e f1 f7 75 3e
       -1.3232555 0.051310923 0.20602909 0.24020363
000030 de dc 57 be fd f1 91 be 03 d6 c9 bf e9 6b c5 3e
       -0.21080348 -0.28504935 -1.5768436 0.3855889

inputEmbed.jetConv.m f4 [1, 1, 1, 8]
000000 b5 49 2a 3f e4 ff 71 3e af 1d b5 3d 91 e2 c1 3f
       0.6651872 0.23632771 0.08843552 1.5147268
000010 2b 98 cd 3e 5c e8 8c 3e 3b 9f 81 3f 2b cd 86 3e
       0.40155157 0.27521026 1.0126718 0.26328406

inputEmbed.jetConv.s f4 [1, 1, 1, 8]
000000 a3 05 48 3f ed ac 37 3f 22 51 e3 3e bb 0d ad 3f
       0.781336 0.7174824 0.44397837 1.3519815
000010 44 4d 57 3f dc 59 1b 3f 9c 89 89 3f 1e ff 79 3f
       0.84102273 0.6068399 1.074512 0.976549

inputEmbed.jetConv.conv.bias f4 [1, 8, 1]
000000 1a c5 a0 be 7e 62 89 3d 46 83 76 3f 79 c3 06 3b
       -0.31400377 0.06708239 0.9629406 0.0020563288
000010 9e 86 42 be 08 05 52 3e cb 00 ec be 3c 99 e9 3e
       -0.18996665 0.20509732 -0.46094355 0.4562472

inputEmbed.jetConv.conv.module.weight f4 [4, 8, 1]
000000 3b 48 34 bf f0 a4 c5 3d e6 40 02 3e 08 a5 aa be
       -0.70422715 0.096506 0.1272007 -0.33329034
000010 82 e9 37 3f e4 de cf 3e a6 b1 69 3d 5d ff 2c 3e
       0.7184068 0.4059974 0.057054184 0.16894288
000020 bc 04 66 be e6 5d be be ff 51 45 3f c4 6d a6 be
       -0.22462744 -0.37181014 0.7707824 -0.3250562
000030 cf 92 90 3d 56 14 c2 bd fc b7 3b bf 0b a5 18 be
       0.070592515 -0.09476535 -0.7332761 -0.14906709
000040 dc 20 48 3e c0 5e 17 bf 2f aa 12 bf 29 be 89 bd
       0.19543785 -0.5912895 -0.5729093 -0.06725723
000050 d0 7c 61 3e 24 b6 3d 3f cd 08 6c 3e b3 71 68 3e
       0.22020268 0.7410605 0.23050232 0.22699623
000060 8f f8 1f 3d 12 38 09 3f 66 f5 b5 be f1 75 04 bf
       0.039055403 0.5360118 -0.35538787 -0.51742464
000070 fa b0 9f be e3 8e 1f bf 23 bd 94 3d 0d bb 37 be
       -0.3118971 -0.623274 0.072626375 -0.17942448

inputEmbed.othJetEmbed.m f4 [1, 1, 1, 4]
000000 3a a5 8c 40 30 3f bf 3e a8 8f 24 40 20 c4 c5 3f
       4.3951693 0.37352896 2.571268 1.5450478

inputEmbed.othJetEmbed.s f4 [1, 1, 1, 4]
000000 13 24 19 3f bf 37 8f 3f 5b b7 e2 3e a0 40 3d 3f
       0.5982067 1.1188887 0.44280514 0.73926735

inputEmbed.othJetEmbed.conv.bias f4 [1, 8, 1]
000000 da 09 0c 3e 1f 61 38 bf cc 1e 9c 3f 0e 5b d5 3f
       0.13675633 -0.72023195 1.2196898 1.6668413
000010 72 66 4e 3f fb 72 39 be 9a 37 37 3c 9e 70 c6 bf
       0.8062507 -0.18110268 0.01118269 -1.5503118

inputEmbed.othJetEmbed.conv.module.weight f4 [4, 4, 1]
000000 be 26 9d bf f2 a5 2c bc 15 a0 8b 3e 57 33 c2 3f
       -1.2277448 -0.010537611 0.2727057 1.5171918
000010 bf a6 d1 bf 1b 0a 1c 3c 14 75 b6 3c e8 6b b1 3e
       -1.6379012 0.009523894 0.022272624 0.34652638
000020 8d 7e c2 3d 4e 72 0d 3b 35 df 93 3f 70 da 83 3f
       0.09496794 0.0021583023 1.1552492 1.0301037
000030 47 64 49 3f e4 16 49 39 a7 92 c3 be 44 ac 2c 40
       0.78668636 0.00019177381 -0.38197824 2.6980143

inputEmbed.othJetConv.m f4 [1, 1, 1, 8]
000000 44 dd bc 3e 22 38 c8 3d b3 d1 b4 3f 9e 7c 09 40
       0.36887562 0.097763315 1.4126495 2.148231
000010 4d 3b 4a 3f ee 23 b9 3e 8e ae 18 3f 2e d0 2b 3f
       0.78996736 0.36160225 0.5964135 0.6711453

inputEmbed.othJetConv.s f4 [1, 1, 1, 8]
000000 81 ae 1c 3f 58 34 0d 3f d1 c9 a7 3f 8d 6d d5 3f
       0.6120377 0.55157995 1.3108464 1.6674057
000010 86 5f 8f 3f 8c 0e 6e 3f 3f f0 b9 3f 76 f5 cd 3f
       1.1201026 0.92990947 1.4526442 1.6090534

inputEmbed.othJetConv.conv.bias f4 [1, 8, 1]
000000 4c 34 9c 3e 66 fc dc 3f af 32 85 be a5 0b bf 3f
       0.3050865 1.7264526 -0.2601523 1.4925429
000010 13 91 8c 3f 83 5a c7 3f e0 7f 0c 40 a7 32 0e 3e
       1.0981773 1.5574497 2.1953049 0.1388651

inputEmbed.othJetConv.conv.module.weight f4 [4, 8, 1]
000000 00 9e cb 3e 3c 59 14 3f 17 6d 18 be 96 38 3a 3f
       0.39768982 0.5794866 -0.14885364 0.72742593
000010 1e d1 12 3e 25 d2 6c bf ca 61 03 bd ed da 91 bf
       0.14337584 -0.92508155 -0.03207568 -1.1394936
000020 b6 4b 46 3e f6 7c 35 3f 2b fe 69 be a5 1b 53 bd
       0.19364819 0.708938 -0.22850864 -0.051540036
000030 e2 95 34 bf 71 c2 62 bf ba e5 4e 3d 04 b3 18 3f
       -0.70541203 -0.88577944 0.050512053 0.59648156
000040 c2 e2 82 3d a3 3c 7d 3d ed 26 58 be 1a 43 1d bf
       0.06390907 0.061825406 -0.21108599 -0.61430514
000050 1c 05 16 3f a5 c2 b1 3d 76 b3 57 3f 11 b1 3e bf
       0.58601546 0.086797036 0.8425821 -0.7448893
000060 50 13 99 bf 50 6e 1c bf 89 84 2c 3f 45 35 79 3e
       -1.1959019 -0.61105824 0.6738973 0.24336727
000070 a1 c3 4c 3d bc 17 d7 3e 00 ea ab be 32 05 d3 be
       0.049991254 0.42010295 -0.33576965 -0.412149

inputEmbed.MdPhi_embed.m f4 [1, 1, 1, 3]
000000 a3 27 ab 40 bb f8 e8 3f 2c f2 dd 3e
       5.3485885 1.8200907 0.43348825

inputEmbed.MdPhi_embed.s f4 [1, 1, 1, 3]
000000 ef 48 2f 3f 13 12 6d 3f 92 b9 fd 3e
       0.6847066 0.92605704 0.4955564

inputEmbed.MdPhi_embed.conv.bias f4 [1, 8, 1]
000000 2e c7 38 be 5b 91 8b 3f f0 dc 75 3f e2 c9 c1 be
       -0.18044731 1.0903734 0.9604025 -0.37849337
000010 71 d8 44 3d bb 5b c4 bf 85 07 b6 3f 22 c5 56 bc
       0.048057977 -1.5340494 1.4221045 -0.013108524

inputEmbed.MdPhi_embed.conv.module.weight f4 [4, 3, 1]
000000 bd e9 ce be 26 6f 17 bd cf 17 6c bf 62 14 cc 3f
       -0.40412703 -0.036971234 -0.9222383 1.594372
000010 ea 44 02 be 9c fd cf bd 71 b8 18 3f 9d 2f 59 3f
       -0.12721601 -0.10155794 0.59656435 0.8483828
000020 9f 9f aa be ea f1 06 3f 69 7f 0b bf ba 68 16 40
       -0.33324906 0.5271288 -0.5449129 2.350142

inputEmbed.MdPhi_conv.m f4 [1, 1, 1, 8]
000000 1c 55 69 3e 04 c3 83 3f 6d c4 5e 3f 0b a8 77 3f
       0.22786373 1.0293889 0.8701847 0.9674079
000010 40 eb b2 3e ec 19 9e bd a0 af a3 3f 4f b3 89 3f
       0.34945107 -0.07719788 1.2787971 1.0757846

inputEmbed.MdPhi_conv.s f4 [1, 1, 1, 8]
000000 83 63 f7 3e 04 e2 90 3f 83 55 63 3f 43 7f ae 3f
       0.4831811 1.1318974 0.88802356 1.3632587
000010 3f c2 31 3f 26 e1 c8 3e 4a 5d 8b 3f 05 39 91 3f
       0.6943702 0.39234275 1.0887845 1.1345526

inputEmbed.MdPhi_conv.conv.bias f4 [1, 8, 1]
000000 24 bf 10 40 8d 66 03 bf 9a 29 65 3f a0 da b5 be
       2.2616663 -0.51328355 0.89516604 -0.3551836
000010 74 25 c5 3f 85 92 ba bf 7d c5 d2 3f 74 c5 1f bf
       1.5402055 -1.4575964 1.6466519 -0.62410665

inputEmbed.MdPhi_conv.conv.module.weight f4 [4, 8, 1]
000000 50 58 2c be 1f b3 4d bc b5 2b 02 bf 0b db d1 be
       -0.16830564 -0.012554913 -0.5084794 -0.4098743
000010 c1 0d 2c be 82 0e 50 3f 38 9b 55 3f f0 0a 48 bf
       -0.16802122 0.8127214 0.8343997 -0.7814169
000020 ad 8e 82 bf 78 56 0b bf 7c cc 51 3f a3 b2 1e be
       -1.0199791 -0.54428816 0.81952643 -0.15497832
000030 01 46 3e bd 10 35 01 be 86 57 4e bf c0 e9 e4 bf
       -0.04645348 -0.12617898 -0.806023 -1.7883835
000040 f0 85 a3 3e bb 2a be be 4c e7 85 bf b3 00 9a 3e
       0.31938124 -0.37141976 -1.0461211 0.30078658
000050 8a 78 67 3e 83 29 e4 be a3 95 d2 be 1d 9d 5c 3f
       0.22604576 -0.4456292 -0.4112979 0.86177236
000060 6c f9 00 3f 81 b1 12 c0 61 ef 97 bf 9a 8d 11 bf
       0.5038059 -2.292084 -1.1869928 -0.5685669
000070 39 a4 5f bf 55 af d0 be fd 71 e3 3e d5 4d 0d 3f
       -0.8735996 -0.40758768 0.44422904 0.5519689

inputEmbed.dijetEmbed.m f4 [1, 1, 1, 4]
000000 11 b7 92 40 e5 1e 56 3f ac 9e 74 3f fa e3 a2 40
       4.584847 0.8364089 0.95554614 5.090329

inputEmbed.dijetEmbed.s f4 [1, 1, 1, 4]
000000 73 51 40 3f ed f6 a3 3f ca 33 98 3f 64 95 04 3f
       0.7512428 1.2809731 1.1890805 0.5179045

inputEmbed.dijetEmbed.conv.bias f4 [1, 8, 1]
000000 90 f2 26 3f 93 d3 31 bc c0 d6 1b 40 09 ff 80 3e
       0.6521387 -0.010853666 2.4349823 0.25194576
000010 d1 ce 12 bf 6e 92 57 3f fa 24 e1 be 8b ba 4b 3e
       -0.57346827 0.8420781 -0.43973523 0.19895379

inputEmbed.dijetEmbed.conv.module.weight f4 [4, 4, 1]
000000 ca 31 29 bd 8e 3b 8d 3e b4 3b 36 3d 86 d4 01 40
       -0.04130725 0.275845 0.04449053 2.0285964
000010 16 47 d9 3f 6f 2a d9 3d 8a 50 3a 3c 54 92 ce 3d
       1.6974819 0.10603797 0.011371741 0.100865036
000020 20 f7 87 bd 5b 6f 72 be b1 a8 bb bc 8a 48 1b 40
       -0.06638932 -0.23675291 -0.022907587 2.4263024
000030 59 b3 b7 be c8 17 7a bd a8 2f b1 bc 00 86 e3 3f
       -0.3587902 -0.061057836 -0.02162917 1.7775269

inputEmbed.quadjetEmbed.m f4 [1, 1, 1, 3]
000000 6a 86 8a 40 1b b5 b7 3f 1f e7 c4 40
       4.328908 1.4352144 6.153213

inputEmbed.quadjetEmbed.s f4 [1, 1, 1, 3]
000000 d8 9a 5f 3f bd 3e e7 3f b0 e3 ab 3e
       0.8734565 1.8066021 0.3357215

inputEmbed.quadjetEmbed.conv.bias f4 [1, 8, 1]
000000 ff 4f 99 bf 00 1b f3 bf ba bf 7f be 01 e5 65 bd
       -1.1977538 -1.8992615 -0.24975482 -0.0561266
000010 7b fd d2 3f 3a 24 b8 3f 6a b0 61 be 5c 53 e1 be
       1.6483606 1.4386055 -0.22039953 -0.4400891

inputEmbed.quadjetEmbed.conv.module.weight f4 [4, 3, 1]
000000 9b c6 c1 3f f6 d8 f9 bb 49 58 ef be 5a 0c bc 3e
       1.5138735 -0.0076247407 -0.46747044 0.36728173
000010 f8 e5 d0 bc cb 3e 06 c0 67 5c 57 be be 0c 83 bf
       -0.025500283 -2.0975826 -0.21031342 -1.0238264
000020 c4 13 0b 3f af 90 10 3e 5f d8 97 3e e5 95 4c 3f
       0.54327035 0.14117692 0.29657266 0.7991622

inputEmbed.dijetConv.m f4 [1, 1, 1, 8]
000000 56 12 7e 3f 8d 8d f6 3e 0b 5f 13 40 f4 e5 37 3f
       0.9924673 0.4815487 2.302676 0.71835256
000010 b6 db bb 3e f3 8e 6e 3f de dd 0d 3f 04 9f 37 3f
       0.36691064 0.93186873 0.5541667 0.71727014

inputEmbed.dijetConv.s f4 [1, 1, 1, 8]
000000 77 e1 c4 3f 44 1b 59 3f 20 95 0e 40 be 3c a3 3f
       1.5381306 0.8480723 2.2278519 1.2752912
000010 a8 8f 61 3f 3b e3 b3 3f 6b c1 8d 3f 2d 04 91 3f
       0.8810983 1.405372 1.1074651 1.1329399

inputEmbed.dijetConv.conv.bias f4 [1, 8, 1]
000000 97 d4 61 3e 92 c0 2c bf 1d 0f 9c 3d 48 1d 3e 3e
       0.22053753 -0.6748134 0.0762007 0.18565857
000010 6f dd 44 bf f5 09 f0 3e e5 e4 76 be 3f 02 94 be
       -0.7690038 0.46882597 -0.24110754 -0.28907964

inputEmbed.dijetConv.conv.module.weight f4 [4, 8, 1]
000000 71 55 47 3f 4b 32 0f bf de fe 42 3f 87 2f 33 3f
       0.7786475 -0.55936116 0.76170146 0.69994396
000010 03 3a 10 bf 8c 3f 3c be 91 aa 29 bf 7b 78 9d be
       -0.5633852 -0.18383616 -0.6627589 -0.30755982
000020 7a 78 03 be 12 07 38 be dd c7 e1 be 08 ee 03 3e
       -0.12838927 -0.17971447 -0.44097796 0.1288377
000030 6e 18 63 3f ae b5 c9 3e 52 e3 a5 3f b5 d0 13 3f
       0.8870915 0.39396423 1.2959998 0.57740337
000040 3a d3 cb bf d6 4b 8d 3f 39 5f 45 3c fe c9 15 bf
       -1.5923836 1.1038768 0.012046629 -0.5851134
000050 7d 0a 88 bc a1 96 8e be 64 04 93 be d5 c6 9b 3e
       -0.016606564 -0.27849296 -0.28714287 0.30425134
000060 1a 18 8a 3e 92 f0 92 be 94 5d 33 be c6 81 91 3e
       0.26971513 -0.28699166 -0.17516166 0.28419322
000070 92 79 21 3f c2 04 13 be 4e 33 35 3f 40 76 d7 3e
       0.63076127 -0.14357284 0.7078141 0.42082405

inputEmbed.quadjetConv.m f4 [1, 1, 1, 8]
000000 83 73 26 3d a0 75 72 3d 57 56 5d 3e 9e fd f3 3d
       0.040637504 0.059194207 0.21614967 0.11913608
000010 3a c0 bf 3f 33 52 d1 3f 79 56 14 3e 4d 9e 81 bd
       1.4980538 1.635321 0.14486112 -0.063290216

inputEmbed.quadjetConv.s f4 [1, 1, 1, 8]
000000 94 c6 00 3f ed 9a 17 3f af 65 48 3f 3b f9 e9 3e
       0.50303006 0.59220773 0.78280157 0.4569796
000010 ca d0 bf 3f 38 47 ef 3f b6 91 cb 3e 60 78 88 3e
       1.4985592 1.8693609 0.39759606 0.2665434

inputEmbed.quadjetConv.conv.bias f4 [1, 8, 1]
000000 0d d4 10 3f ac 59 97 bd 42 0c 94 3e b6 d7 25 3f
       0.56573564 -0.073901504 0.28915602 0.64782274
000010 5b b2 84 3f 1b db 85 3e f7 f4 15 bf 4d b1 a2 bf
       1.036693 0.26143727 -0.5857691 -1.2710358

inputEmbed.quadjetConv.conv.module.weight f4 [4, 8, 1]
000000 b0 12 07 3e 0e 7a 8a bc 28 57 01 bd ad 13 9b bd
       0.13190722 -0.016903903 -0.03157726 -0.07572112
000010 cd 00 b8 bd 74 ee 50 3e 3d c7 35 be 9b 7e e0 bd
       -0.08984528 0.20403463 -0.17751785 -0.10961648
000020 15 6d 02 3d 2a d3 04 3f b5 b1 ac 3d 9c 71 1b 3d
       0.03184231 0.5188471 0.084323324 0.037950143
000030 92 dc 47 be 39 75 41 3e 2f 1f d1 3d 15 5f e2 3d
       -0.19517735 0.18892373 0.10211026 0.11053292
000040 bf 3c d9 be 1a e8 0c 3f b6 d8 3a be 7e 78 ea be
       -0.42429158 0.5504166 -0.18246731 -0.45795053
000050 cb 8f 69 be f9 23 b5 3d 6e 96 9d bd 8a f8 26 3d
       -0.22808759 0.08844752 -0.07694708 0.04076437
000060 ae f0 8e be ac 5e 0c 3d 34 09 99 bd d5 25 92 bd
       -0.27918 0.034269974 -0.074724585 -0.07136122
000070 a2 dd 01 3b 44 14 0e 3f e4 d3 65 be ce 4f 9b be
       0.0019815941 0.5549967 -0.22444111 -0.30334324

dijetResNetBlock.reinforce.0.conv.m f4 [1, 1, 3, 8]
000000 86 17 2c 3e 50 7f 6f bd 5e 59 8e 3f e1 d4 63 3e
       0.16805848 -0.058471024 1.1121023 0.22249176
000010 f4 4d 71 3e ab 5c 6e 3f 5b 28 18 be d1 5d 0b 3f
       0.23564893 0.9311015 -0.14859144 0.5444003
000020 df 25 d6 3d 6a ca 44 3f b7 a6 2a 3f 33 58 d4 3e
       0.10456442 0.7687136 0.66660637 0.4147354
000030 60 1d 2f 3e 06 f5 42 3e 40 59 71 3e ef 54 20 3f
       0.1710105 0.19038782 0.23569202 0.626296
000040 5f 99 b0 3f fc 7b 2e 3f 68 b5 84 3f a7 7c c4 3e
       1.3796805 0.68157935 1.0367861 0.38376352
000050 99 d0 6d 3f 1c f6 96 3f 24 db 69 3f b2 99 12 3e
       0.9289642 1.1793857 0.9135001 0.14316443

dijetResNetBlock.reinforce.0.conv.s f4 [1, 1, 3, 8]
000000 ea c9 27 3f 56 42 d1 3e 2f 5b 40 3f 9e a0 16 3f
       0.6554247 0.40870923 0.75139135 0.5883883
000010 1b 99 1f 3f 09 bb 63 3f cd b3 38 3e aa 3f 52 3f
       0.62342995 0.8895727 0.18037339 0.82128394
000020 b6 aa 10 3f ca 2e 86 3f 23 a6 60 3f 89 b2 64 3f
       0.56510484 1.0483029 0.87753505 0.89334923
000030 f2 8e 0b 3f bf d1 39 3f 70 b9 22 3f af eb 7b 3f
       0.5451499 0.7258567 0.63564205 0.984065
000040 7b 9b 04 40 a6 21 fd 3f 14 2c c5 3f 84 7b 99 3f
       2.0719898 1.9775894 1.5404077 1.1990819
000050 88 08 d3 3f 51 06 96 3f 62 5f e8 3f ac f8 ad 3e
       1.6486979 1.1720678 1.8154109 0.33978784

dijetResNetBlock.reinforce.0.conv.conv.bias f4 [1, 8, 1]
000000 e3 c0 ed be 34 d7 1a 3f fc 61 97 3e 59 e8 3d 3e
       -0.46436223 0.60484624 0.29566944 0.18545665
000010 62 ba 2c 3f e4 21 99 be 56 48 a9 bf b5 8c cd bf
       0.674719 -0.2990867 -1.32252 -1.6058565

dijetResNetBlock.reinforce.0.conv.conv.module.weight f4 [4, 8, 3]
000000 1d 7d c5 be f1 d5 2f bf 6c d5 47 3e 3c ce 17 bc
       -0.38572016 -0.68685824 0.19515008 -0.009265479
000010 7b a8 eb bd 1f 27 21 bf e2 35 fc bd 0f 26 92 bd
       -0.115067445 -0.6295032 -0.12314965 -0.07136165
000020 c9 06 1e be e4 fd 8e 3d a7 cd 9e 3c 23 80 16 be
       -0.15432276 0.069820195 0.019385172 -0.14697318
000030 05 d6 88 3d 6c cf 0a 3e 55 33 18 bf 60 d7 74 3d
       0.06681446 0.13555688 -0.59453326 0.05977571
000040 b1 57 a1 3e d3 6f bf 3f 6e fc 04 3a d7 ca 83 3e
       0.31512216 1.4956001 0.00050730153 0.25740692
000050 f7 7e 84 3b 33 28 dd be 38 63 47 3c 24 1b 83 3f
       0.0040434557 -0.43194732 0.012169652 1.0242658
000060 a6 28 85 be e3 61 d2 b9 28 e4 75 be 6d 89 23 be
       -0.26007575 -0.00040127253 -0.24012816 -0.15970393
000070 1d 6e 9e be 89 3a e0 be db 6e 98 be bd 29 97 be
       -0.30943385 -0.4379466 -0.29772076 -0.2952403
000080 99 32 54 3f 7a b2 d4 be 32 e5 48 be 15 2d 99 3e
       0.82889706 -0.41542417 -0.19618681 0.29917207
000090 95 84 11 3f f9 05 e6 bd cf 40 6c 3e b4 0d bb 3d
       0.5684293 -0.11231608 0.23071598 0.09133473
0000a0 12 8e 2b 3f 26 3b 9f bf 73 02 98 3e 7f 02 09 bf
       0.6701366 -1.2439926 0.2968937 -0.53519434
0000b0 33 78 4d 3e b2 2d 01 3f d5 e8 54 3e 16 47 0c bf
       0.20065384 0.5046035 0.20791943 -0.5479597
0000c0 3d db d5 bd 3e e0 a9 3c e8 dd a5 be 5e a9 8b 3d
       -0.10442207 0.02073681 -0.32395864 0.068194136
0000d0 27 96 c9 3d 32 0e 70 bf 61 bc 02 be b8 87 c5 be
       0.098430924 -0.9377166 -0.12767173 -0.38580108
0000e0 1d 08 2b 3e b4 55 2c be 3c b2 a1 be 16 1a 9b bf
       0.16702314 -0.16829568 -0.31581295 -1.2117336
0000f0 16 00 29 3e 79 69 37 3e dd 31 58 bf ea da a1 be
       0.16503939 0.17911328 -0.84451085 -0.3161233
000100 ef df 93 bc 0c c0 96 be 31 df 02 3e 13 e4 1a bf
       -0.018051116 -0.29443395 0.12780453 -0.60504264
000110 97 ad ae 3d 9d 71 8b 3e 47 e8 7a 3e 1a e1 59 3e
       0.085292034 0.27235118 0.2450267 0.21277276
000120 86 aa f1 3c d8 f2 0b 3e 73 10 08 bb 35 c4 8a 3e
       0.029500257 0.13666856 -0.0020761758 0.2710282
000130 ad 61 93 3e dc 26 83 bf 99 5f f5 bc d2 c4 07 3e
       0.28785458 -1.0246234 -0.029952811 0.13258675
000140 f7 d9 ae bd a9 1d a8 3c 6d 5d 00 3d 7b c3 04 bf
       -0.08537667 0.020521956 0.031339098 -0.5186078
000150 16 8e c7 3d ac 4e 32 3e 61 6c 83 bf 85 06 c8 bd
       0.097438976 0.17412823 -1.026745 -0.097668685
000160 92 de aa bd f4 3f 84 3e 1d 87 bb 3d c9 f8 d4 bd
       -0.08343233 0.25830042 0.0915663 -0.103990145
000170 96 70 51 be 9a 5b 37 3e 79 84 8f 3d ac 3f 8c 3f
       -0.20453104 0.17906037 0.07007689 1.0956931

dijetResNetBlock.reinforce.1.conv.m f4 [1, 1, 3, 8]
000000 fb 7f 3c 3e 8c bf c0 bc 79 2b 09 40 3c 53 c9 3e
       0.18408196 -0.023528837 2.1432784 0.39321315
000010 41 34 08 be 9c db 8f 3f 7a c5 d0 3c 97 bf 45 3f
       -0.13301183 1.1238894 0.02548479 0.7724547
000020 66 ac 01 3e 5e 16 5a 3f 98 f0 9d 3f 14 bc a0 3e
       0.12663421 0.8519038 1.2339048 0.31393492
000030 bc ee 0c 3f 16 82 c0 3e f2 d8 65 3f 32 13 be 3f
       0.5505178 0.37599248 0.8978416 1.4849608
000040 40 41 2b 40 c9 18 07 40 30 4c e5 3f 23 a3 55 3f
       2.6758575 2.1108878 1.7913876 0.8345205
000050 85 fa 30 40 86 34 0b 40 ab 69 81 3f b7 fe ed 3d
       2.7652905 2.1750808 1.0110372 0.116208486

dijetResNetBlock.reinforce.1.conv.s f4 [1, 1, 3, 8]
000000 b2 86 0a 3f 7f eb 05 3f 7f e4 dc 3f 12 ef 89 3f
       0.5411178 0.52312464 1.7257231 1.0776083
000010 c4 ea 94 3e b5 27 90 3f cf 27 02 3f 6e 40 7e 3f
       0.29085362 1.1262118 0.50841993 0.9931706
000020 ec 09 39 3f dd 46 a0 3f 10 4f c7 3f a6 27 ab 3f
       0.72280765 1.2521626 1.5571003 1.3371475
000030 3b 4f 95 3f dc 97 86 3f fa a6 be 3f 6b 5d 9b 3f
       1.1664804 1.0515094 1.4894707 1.2137884
000040 7d 9e 3e 40 f1 f1 5b 40 ce c3 0a 40 c6 f1 86 3f
       2.9784234 3.436642 2.168201 1.0542533
000050 e2 81 88 40 0f e7 1b 40 db a0 1c 40 d7 3d 38 3f
       4.265855 2.4359777 2.4473178 0.7196936

dijetResNetBlock.reinforce.1.conv.conv.bias f4 [1, 8, 1]
000000 22 d6 18 3f 44 cc ff be a8 06 d5 bd 1e 31 61 3e
       0.5970174 -0.4996053 -0.1040166 0.21991393
000010 45 7c b1 be 97 04 68 3e b0 43 e2 3e 19 71 63 3f
       -0.34665123 0.22658001 0.44192266 0.8884445

dijetResNetBlock.reinforce.1.conv.conv.module.weight f4 [4, 8, 3]
000000 40 4b 39 be ed 20 32 bd 9e 10 3d 3f 56 cd 18 3c
       -0.18095112 -0.04348843 0.7385348 0.0093263
000010 9c 53 2d 3d c2 c4 59 3c dc 47 13 3e c7 5e 9b 3e
       0.042316064 0.01329154 0.14382881 0.30345747
000020 30 e2 e0 3e fb fd 24 3e b8 ae a2 bd e4 a6 a9 3d
       0.43922567 0.16112511 -0.07943481 0.08283785
000030 8e d5 32 3e 6b 06 0d 3e ca a6 17 3e 17 cd 1c 3d
       0.17464277 0.1377198 0.14809719 0.038281526
000040 7c 4a bb bd e3 9c 7a 3e 88 fa 35 3d e6 4e 9f 3e
       -0.09145066 0.2447391 0.04442838 0.31114882
000050 b3 87 4f 3f a7 48 87 bd 99 92 19 3d 3a 4a ae 3d
       0.81066436 -0.06605654 0.037493322 0.08510251
000060 0a 5b 1b be 7a c4 6b be 06 13 51 3e 64 94 95 3d
       -0.15171447 -0.23024169 0.20417413 0.07303694
000070 4c 7a 53 3e 3b 86 94 be ca 68 10 3d d7 3f df 3d
       0.20652121 -0.2900866 0.035256185 0.10900848
000080 55 67 f7 be b0 87 cd bd ed 38 d6 bc fa f5 0a 3f
       -0.48321024 -0.10035646 -0.026150191 0.5428158
000090 29 36 45 bd 6c 74 04 bd b0 82 f1 bc 65 1e 1c be
       -0.048147354 -0.03233759 -0.029481262 -0.1524597
0000a0 3f 1d 59 be b0 b0 02 3e 47 dd 7a 3d 96 d8 c3 3e
       -0.21202563 0.12762713 0.061246183 0.3825118
0000b0 e6 79 49 3f 9c 97 84 be 4c 2a c4 bd 53 8b 2d 3f
       0.7870163 -0.2589692 -0.0957838 0.67790717
0000c0 11 dd 6d bc 6e 63 b4 bd 83 91 10 c0 79 4e de bc
       -0.014518038 -0.08808027 -2.2588813 -0.027137028
0000d0 93 3e 2f be 4b 25 29 be 6c 69 b6 be bd 77 9d be
       -0.17113714 -0.16518132 -0.35627306 -0.30755416
0000e0 5d c6 bd 3d 64 5a 63 3d e3 d8 ef bd cc de e7 be
       0.092663504 0.055506125 -0.1171129 -0.45287168
0000f0 9f c7 9b bd 5d a4 76 bd bc 9b c1 be 66 70 94 3e
       -0.07606434 -0.060215343 -0.37814128 0.28992003
000100 e8 ff a6 3e 88 09 5f bf 40 cc f8 bd 5f c6 a8 3e
       0.32617116 -0.8712392 -0.121483326 0.32963845
000110 9c 29 c4 3e 22 4e 49 be 5a ab c9 bd 00 c5 77 3e
       0.38312995 -0.19658712 -0.09847136 0.24196243
000120 e1 d1 cc bd c8 d0 cf 3d d6 47 5f 3e 5d 49 79 bc
       -0.10000969 0.10147244 0.21804747 -0.015215245
000130 ef 6f c9 bc fc a0 85 3e 29 c7 61 3e 6e e2 82 3e
       -0.024589507 0.26099384 0.2204863 0.25563377
000140 fb fb 06 3e c4 cb 41 3e fb b0 48 3b c1 4e b8 3e
       0.1318206 0.18925387 0.0030623067 0.35997584
000150 75 a4 6e bc 6e 25 a5 3c 6f 21 83 3f 42 f3 dd 3d
       -0.014565577 0.02015945 1.0244578 0.10837413
000160 99 b1 ed 3c 99 38 5b 3f 94 92 fc bc eb 8a 45 be
       0.02901535 0.85633236 -0.030831613 -0.19291274
000170 64 6a a1 be 9f 95 f0 bd 85 74 e2 3c 4c 96 d5 3e
       -0.31526482 -0.11747288 0.027643451 0.4171623

dijetResNetBlock.conv.0.m f4 [1, 1, 1, 8]
000000 3a 95 0b 3e 78 d2 b5 3e b8 ac 63 3f 53 21 a3 3e
       0.13631144 0.35512137 0.8893542 0.31861362
000010 a9 35 50 3e f6 8c 0f 3f ca 61 32 3d 61 d9 15 3f
       0.2033297 0.56074464 0.04355029 0.5853482

dijetResNetBlock.conv.0.s f4 [1, 1, 1, 8]
000000 ba ec 1c 3f 6f 8e 65 3f d1 c4 58 3f 34 39 43 3f
       0.61298716 0.8967046 0.8467532 0.7625916
000010 e8 2b 16 3f 19 76 64 3f be 54 01 3f 86 49 68 3f
       0.58660746 0.892427 0.5051993 0.9073719

dijetResNetBlock.conv.0.conv.bias f4 [1, 8, 1]
000000 80 b5 71 be f7 cd 91 be 38 33 0e 3f ba fe 15 bf
       -0.23604393 -0.2847745 0.55546904 -0.58591807
000010 2c 95 8e be 8d 02 c8 3c bb 68 88 3b 90 88 c7 3e
       -0.27848184 0.024415279 0.0041628755 0.38971376

dijetResNetBlock.conv.0.conv.module.weight f4 [4, 8, 1]
000000 ff e0 61 bf 4c e7 15 bf a8 19 43 3d a5 66 68 3f
       -0.8823394 -0.58556056 0.04763189 0.90781623
000010 50 12 86 3e aa d1 60 3e 7d d3 43 bf f3 6d 5b be
       0.26185846 0.2195498 -0.7649458 -0.21428661
000020 42 75 1f 3f 2e 34 42 3e 93 dd d5 be c9 ad 7e bd
       0.62288296 0.18965217 -0.4177061 -0.062177453
000030 e2 e8 03 be ae 06 52 be 16 89 0c bf b7 d8 81 be
       -0.12881806 -0.2051036 -0.54896677 -0.25360653
000040 dd 85 e9 3e 78 88 16 be de 2c b9 be 3f 09 76 bf
       0.45609942 -0.14700496 -0.36167043 -0.9610786
000050 4f 51 eb 3d 79 d9 f8 3e cd cb 21 be 58 6b 21 3f
       0.11490118 0.48603418 -0.158004 0.6305442
000060 8b d6 ab 3e 34 cf 73 be 32 8a e8 be 32 a7 2c bd
       0.3356212 -0.2380951 -0.45417935 -0.042151637
000070 89 d4 d3 be 10 a9 6e 3f ff 23 ee bd 11 31 01 3f
       -0.4137309 0.9322672 -0.116279595 0.50465494

attention_oo.q_GBN.gamma f4 [8]
000000 35 41 1a 3f 09 cd 11 be 72 2b cc be a3 91 04 3f
       0.6025575 -0.14238371 -0.39876896 0.51784724
000010 6b 45 ac 3f 0d 19 9f 3e 23 86 43 be c0 39 df 3e
       1.3458685 0.310738 -0.19094138 0.43598747

attention_oo.q_GBN.bias f4 [8]
000000 48 be e5 be ef 66 8f bf 80 07 58 bd eb 38 95 3f
       -0.44871736 -1.1203288 -0.052741528 1.1657995
000010 ae e4 15 40 3f 46 5e 40 7b 9e 48 bf 14 5f 56 bf
       2.3420825 3.4730375 -0.7836682 -0.8373883

attention_oo.q_GBN.m f4 [1, 1, 1, 8]
000000 3f cb 38 3f e5 c4 e4 3f 1a 85 52 3e 61 64 d5 3f
       0.7218513 1.7872587 0.20558587 1.6671258
000010 d8 3d 99 3f d0 d7 ca 3f 68 81 01 40 dd 83 54 3f
       1.1971998 1.5847111 2.0235233 0.8301371

attention_oo.q_GBN.s f4 [1, 1, 1, 8]
000000 ee 23 82 3f 90 6f ce 3f d3 57 37 3f b5 ec ef 3f
       1.0167215 1.6127796 0.71618384 1.8744112
000010 5a a4 bf 3f c4 4f df 3f 69 8f 9c 3f b6 69 a8 3f
       1.4972031 1.7446218 1.2231265 1.315726

attention_oo.v_GBN.gamma f4 [8]
000000 1f 95 25 3f f4 2f a6 3f 6a 42 8c 3f 94 62 22 3f
       0.64680666 1.2983384 1.0957768 0.6343167
000010 e5 49 51 3e a6 74 98 3f ab a9 df 3f 9d 0f c0 3f
       0.20438345 1.1910598 1.7473654 1.5004765

attention_oo.v_GBN.bias f4 [8]
000000 b1 1d 32 40 f5 5c 54 3f 90 07 c5 be 1b db 98 bf
       2.7830622 0.8295434 -0.38482332 -1.1941866
000010 a1 e2 62 3f ed f7 27 3f 70 00 9c 3f f5 7c 4d 3e
       0.8862706 0.6561268 1.2187634 0.20067199

attention_oo.v_GBN.m f4 [1, 1, 1, 8]
000000 3f cb 38 3f e5 c4 e4 3f 1a 85 52 3e 61 64 d5 3f
       0.7218513 1.7872587 0.20558587 1.6671258
000010 d8 3d 99 3f d0 d7 ca 3f 68 81 01 40 dd 83 54 3f
       1.1971998 1.5847111 2.0235233 0.8301371

attention_oo.v_GBN.s f4 [1, 1, 1, 8]
000000 ee 23 82 3f 90 6f ce 3f d3 57 37 3f b5 ec ef 3f
       1.0167215 1.6127796 0.71618384 1.8744112
000010 5a a4 bf 3f c4 4f df 3f 69 8f 9c 3f b6 69 a8 3f
       1.4972031 1.7446218 1.2231265 1.315726

attention_oo.qv_GBN.gamma f4 [8]
000000 c6 80 85 3f 7d 18 03 be f1 26 6f 3f a9 9e 17 40
       1.0429924 -0.1280231 0.93418795 2.3690588
000010 d8 5f 17 40 19 dc 73 3f 56 1c d0 3d a2 79 99 3e
       2.3652248 0.9525772 0.10161655 0.2997561

attention_oo.qv_GBN.bias f4 [8]
000000 f1 8e 6a 3f df 31 5d 3f 4e 5e 75 be 0a 02 35 3b
       0.9162436 0.8640422 -0.23961756 0.0027619624
000010 5c 70 22 3f 89 38 45 3f 91 76 71 3f ef d9 e6 3d
       0.63452697 0.7703939 0.9432154 0.11272036

attention_oo.qv_GBN.m f4 [1, 1, 1, 8]
000000 73 10 03 40 3a 9f d6 bd 1d 4c a9 3f 46 7c 43 40
       2.047879 -0.10479589 1.3226353 3.05446
000010 07 a0 e5 3f 9c 42 57 3f 60 85 80 3f dd d7 d2 3e
       1.7939461 0.8408601 1.0040703 0.41180316

attention_oo.qv_GBN.s f4 [1, 1, 1, 8]
000000 5c aa 02 40 12 1e 56 3e 93 42 55 3f cd 71 19 40
       2.041648 0.20909908 0.8330471 2.3975708
000010 08 bb bf 3f a4 bb be 3f 63 34 8c 3f b2 a2 bf 3f
       1.4978952 1.4901013 1.0953487 1.4971526

attention_oo.score_GBN.gamma f4 [2]
000000 b9 9f 4e 3f 7d 6c d5 3e
       0.8071247 0.41684332

attention_oo.score_GBN.bias f4 [2]
000000 8f de 52 3f 71 fe 80 3f
       0.8237085 1.0077649

attention_oo.score_GBN.m f4 [1, 1, 1, 2]
000000 1e 81 08 c0 9e 31 d0 40
       -2.1328807 6.506057

attention_oo.score_GBN.s f4 [1, 1, 1, 2]
000000 1b 26 95 40 a0 85 ca 40
       4.6609015 6.3288116

attention_oo.conv.m f4 [1, 1, 1, 8]
000000 da 05 3e 40 44 d5 68 3f 3c d4 75 bd 74 e7 73 3e
       2.9691072 0.9095042 -0.060016856 0.23818761
000010 dc 6f be 3f 53 19 91 3f 97 15 ad 3f 56 55 a7 3d
       1.4877887 1.1335853 1.3522214 0.081705734

attention_oo.conv.s f4 [1, 1, 1, 8]
000000 94 2a 36 3f f7 f2 fc 3e 4c b7 52 3e 86 78 de 3e
       0.7115872 0.49404117 0.20577735 0.43451327
000010 e7 38 36 3f e6 8a 41 3f c9 42 58 3f b6 bc 88 3e
       0.71180576 0.7560257 0.84476906 0.26706475

attention_oo.conv.conv.bias f4 [1, 8, 1]
000000 81 f1 9a 3f 2c 69 f4 3f 13 4b 0b 40 01 44 05 40
       1.2104951 1.9094596 2.1764572 2.0822756
000010 62 6d fb 3f 4c 9f b2 3f 75 fc b6 3f 51 53 3c bf
       1.9642756 1.3954864 1.4295794 -0.7356463

attention_oo.conv.conv.module.weight f4 [4, 8, 1]
000000 87 3a 31 3e 6a 4b 4b 3e 58 05 03 3e 12 6e 89 be
       0.17307483 0.19852987 0.12795007 -0.2684179
000010 fd 11 81 3f 84 c1 ee 3e 37 4b 35 3c ad f8 03 be
       1.0083615 0.46632016 0.011065296 -0.12887831
000020 20 a2 61 bd d5 f4 0e be f4 46 20 3c e0 5e f3 bd
       -0.055086255 -0.13960584 0.009782542 -0.1188333
000030 69 01 5b 3e 5a bd 0f 3f 6f df 2c 3f 15 4c c7 bd
       0.21387257 0.561483 0.6752843 -0.09731308
000040 60 b4 57 bf eb d2 c0 be ee 41 b5 3f 39 76 26 3f
       -0.84259605 -0.37660918 1.4160745 0.65024143
000050 2b 58 89 be cd dc b5 3e cb 94 01 3e 67 ff 10 be
       -0.2682508 0.3552002 0.12654416 -0.14159928
000060 11 29 35 bf d3 04 de be eb ed 8c bd d7 56 ad 3e
       -0.7076579 -0.43363056 -0.06881317 0.33855316
000070 e4 5f 29 bf 97 7c ee bd eb 36 c1 bd bc 4c bf be
       -0.6616194 -0.116448574 -0.09434303 -0.3736323

attention_do.q_GBN.gamma f4 [8]
000000 6a c6 31 3f 79 a6 19 3e 8d 29 98 3e ed 03 ca 3e
       0.6944338 0.1500491 0.297192 0.3945612
000010 ff 62 a4 3d b5 89 8a bc db c3 8e 3f 60 cc 46 3e
       0.080266945 -0.016911367 1.115352 0.194139

attention_do.q_GBN.bias f4 [8]
000000 0b 8f 82 be c8 82 c4 bf 0a 46 0a bf 0a 0e 99 3f
       -0.25499758 -1.5352411 -0.5401312 1.1957409
000010 30 53 a7 bf af a5 4d 40 99 6c 8b 3f ed 5d d5 be
       -1.3072262 3.2132375 1.0892516 -0.41673222

attention_do.q_GBN.m f4 [1, 1, 1, 8]
000000 bf 14 fd 3f 34 3d fc 3e df 91 00 40 d8 11 5e 3f
       1.9771956 0.49265444 2.0089033 0.8674598
000010 01 12 88 3f 21 6f 9d 3f 1d fc 09 40 91 05 90 3f
       1.0630494 1.2299539 2.1560128 1.1251699

attention_do.q_GBN.s f4 [1, 1, 1, 8]
000000 4d d6 3b 40 50 af 0f 40 b9 26 28 40 68 b0 08 40
       2.934955 2.2450752 2.6273634 2.135767
000010 8c ea ce 3f 57 b2 95 3f 97 32 2f 40 0f 56 89 3f
       1.6165328 1.169505 2.7374628 1.0729388

attention_do.v_GBN.gamma f4 [8]
000000 c0 79 58 3f a1 cf 16 3f c4 5b 32 3f 18 5f 31 3f
       0.84560776 0.58910567 0.69671273 0.69285727
000010 c9 52 83 3f f0 0d 8e 3f ae 00 88 3f 6a 81 2a 3f
       1.0259639 1.1098003 1.0625207 0.6660372

attention_do.v_GBN.bias f4 [8]
000000 7a fd 0e 40 56 50 e0 3f 4c db fe be 4b 65 92 bf
       2.234221 1.7524517 -0.49776685 -1.1437162
000010 78 e3 8b 3e 78 b5 9d 3d 59 58 27 3f 31 9a 83 3f
       0.27321982 0.07700628 0.6536918 1.028143

attention_do.v_GBN.m f4 [1, 1, 1, 8]
000000 2a 8d d9 3f a6 09 5e 40 ce 93 f5 3f d6 c5 5e 40
       1.6996205 3.469339 1.9185731 3.480825
000010 f5 ea 3d 40 4c 39 36 40 c1 82 5f 40 04 40 0d 3f
       2.9674656 2.8472471 3.4923556 0.55175805

attention_do.v_GBN.s f4 [1, 1, 1, 8]
000000 0e 45 ba 3f 34 c3 f4 3f af e7 fa 3f 3b 3d 13 40
       1.4552324 1.9122071 1.9601954 2.3006122
000010 c6 d5 f6 3f e8 eb ea 3f 4b fd 08 40 c6 8d 96 3f
       1.9283988 1.8353243 2.1404598 1.1762016

attention_do.qv_GBN.gamma f4 [8]
000000 21 66 ce 3f 6d f2 aa 3f 61 36 53 3f b8 97 45 3f
       1.6124917 1.3355232 0.8250485 0.7718463
000010 cc 21 84 3e 84 0a 0d 40 44 a2 e8 bd f0 60 e3 3e
       0.25807035 2.2037668 -0.11359075 0.44409895

attention_do.qv_GBN.bias f4 [8]
000000 fa 54 f2 3f cd 53 24 40 61 7c 29 3f 4f f5 4f bf
       1.8932183 2.5676148 0.6620541 -0.81233686
000010 d0 fd 87 bf 49 b9 b5 3e 21 a0 94 3f 88 c2 bc 3f
       -1.0624332 0.35492924 1.1611367 1.4746866

attention_do.qv_GBN.m f4 [1, 1, 1, 8]
000000 9c 50 0c 40 34 5a f1 3f 4c 7e 6b 3e f4 28 b4 ba
       2.19242 1.8855653 0.22997397 -0.0013745115
000010 ad 4f a5 3f ad 1e c3 bd ee f9 10 40 95 9b 50 40
       1.291494 -0.09527335 2.2652545 3.259496

attention_do.qv_GBN.s f4 [1, 1, 1, 8]
000000 a4 d8 8d 3f 62 9a a4 3f dc d4 c7 3e 3f 6c ba 3e
       1.1081738 1.2859614 0.39029586 0.3641071
000010 94 fe 74 3f e5 ec a2 3d e7 25 5c 3f b8 84 49 40
       0.95700955 0.0795534 0.85995334 3.1487255

attention_do.score_GBN.gamma f4 [2]
000000 d2 8a 48 3f cb eb bf 3e
       0.78336823 0.37484583

attention_do.score_GBN.bias f4 [2]
000000 a9 14 f8 3e 54 9d 39 3f
       0.48453262 0.7250569

attention_do.score_GBN.m f4 [1, 1, 1, 2]
000000 01 06 ed 3c 93 98 ab 3f
       0.028933527 1.3405937

attention_do.score_GBN.s f4 [1, 1, 1, 2]
000000 1d 19 01 40 e1 31 b3 40
       2.0171578 5.5998387

attention_do.conv.m f4 [1, 1, 1, 8]
000000 47 68 38 40 0b 51 15 40 94 85 17 3e 28 90 43 be
       2.8813646 2.3330715 0.1479705 -0.1909796
000010 bf 67 0a be a3 d3 42 3f eb 30 89 3f b3 96 c2 3f
       -0.13516138 0.7610418 1.0718054 1.520224

attention_do.conv.s f4 [1, 1, 1, 8]
000000 0d 7e a1 3f c6 c6 05 3f 7f 06 b4 3e 6f db 8e 3e
       1.2616593 0.5225643 0.35161206 0.2790179
000010 f6 da f9 3d e6 39 e4 3e 30 48 1d 3f 51 79 b0 3e
       0.121999666 0.44575423 0.61438274 0.34467557

attention_do.conv.conv.bias f4 [1, 8, 1]
000000 77 41 b5 3e bb ad 48 3e 0f 94 3b be dc 36 36 be
       0.35401508 0.19597523 -0.18318199 -0.17794365
000010 0c c7 13 bf 57 e9 43 3e 89 23 9e 3e 52 4b 53 3f
       -0.57725596 0.19131981 0.30886486 0.82536805

attention_do.conv.conv.module.weight f4 [4, 8, 1]
000000 aa b3 f5 3d bb 2d 93 3e 1e 47 e9 bd e2 6a 1a 3f
       0.11997159 0.28745827 -0.11390518 0.6031934
000010 e1 46 55 3f 1e 27 d9 3c 64 af 14 3f 76 fe ac 3e
       0.8331128 0.02650791 0.58080125 0.33787888
000020 ae 1c 30 3f 4e f6 22 3f c8 ab 8b bf 42 bd 04 3f
       0.6879376 0.6365708 -1.0911798 0.51851285
000030 3f da e5 3d 85 12 ec 3e 78 bd d3 3e 74 34 1d 3f
       0.11223268 0.4610788 0.4135549 0.6140816
000040 06 cb 4f be 97 31 d7 3e 3d 8f 13 bf 42 b0 4d 3f
       -0.20292291 0.42030022 -0.5764044 0.80347073
000050 ca e6 02 3e f5 33 d9 bd 05 23 c9 be 51 a1 b3 be
       0.12783352 -0.10605613 -0.3928453 -0.35084012
000060 6e 02 9f 3e f0 dd d9 bd 1f 35 45 3e 57 32 6c be
       0.3105654 -0.10638034 0.19258545 -0.23066078
000070 8f c5 f9 bd 09 7d b0 bf 88 07 4d 3e 8b a5 92 3e
       -0.121958844 -1.3788158 0.20022404 0.28641924

quadjetResNetBlock.reinforce.0.sym.weight f4 [8, 1, 2]
000000 00 00 00 3f 00 00 00 3f 00 00 00 3f 00 00 00 3f
       0.5 0.5 0.5 0.5
000010 00 00 00 3f 00 00 00 3f 00 00 00 3f 00 00 00 3f
       0.5 0.5 0.5 0.5
000020 00 00 00 3f 00 00 00 3f 00 00 00 3f 00 00 00 3f
       0.5 0.5 0.5 0.5
000030 00 00 00 3f 00 00 00 3f 00 00 00 3f 00 00 00 3f
       0.5 0.5 0.5 0.5

quadjetResNetBlock.reinforce.0.antisym.weight f4 [8, 1, 2]
000000 00 00 00 3f 00 00 00 bf 00 00 00 3f 00 00 00 bf
       0.5 -0.5 0.5 -0.5
000010 00 00 00 3f 00 00 00 bf 00 00 00 3f 00 00 00 bf
       0.5 -0.5 0.5 -0.5
000020 00 00 00 3f 00 00 00 bf 00 00 00 3f 00 00 00 bf
       0.5 -0.5 0.5 -0.5
000030 00 00 00 3f 00 00 00 bf 00 00 00 3f 00 00 00 bf
       0.5 -0.5 0.5 -0.5

quadjetResNetBlock.reinforce.0.conv.m f4 [1, 1, 3, 8]
000000 26 ef 0b 40 06 5d 50 3f 20 4c f3 3f ce 5e 3f 3f
       2.1864715 0.8139194 1.9007607 0.74754035
000010 da 43 4f 3f d6 08 d5 3f ba e7 15 40 73 39 cd 3f
       0.8096291 1.6643322 2.3422685 1.6033157
000020 38 c7 89 3f d9 17 3e 3f 3a b8 2f 3f 8b 78 27 3f
       1.0763922 0.7425514 0.6864048 0.6541831
000030 00 ec f0 3e 1d 09 33 3f 0a 87 6b 3f 3b 0e 50 3f
       0.47055054 0.6993578 0.9200293 0.81271714
000040 d8 19 d4 3e 43 d4 63 3d 0d de 9d 3e 5f 78 1d 3f
       0.41425967 0.05562235 0.30833474 0.61511797
000050 48 e5 31 3f 8a dc 76 3e 56 fe e2 bd aa f1 28 be
       0.6949048 0.24107566 -0.11083667 -0.16498438

quadjetResNetBlock.reinforce.0.conv.s f4 [1, 1, 3, 8]
000000 b6 5a 2c 40 07 71 01 40 99 f3 1e 40 54 81 a8 3f
       2.6930366 2.0225236 2.483618 1.3164468
000010 6d ec 9b 3f 6d c7 cb 3f 32 55 1a 40 99 63 92 3f
       1.2181526 1.5920235 2.41145 1.1436645
000020 71 5f a8 3f ac 2a c8 3f ed 20 62 3f fc 60 70 3f
       1.3154126 1.5638022 0.8833149 0.93897986
000030 8c cd 1a 3f 6d 77 38 3f 2c 33 8c 3f c8 ea 35 3f
       0.6046989 0.7205723 1.0953116 0.7106137
000040 81 42 81 3e dc cb 0b 3f 93 77 13 3f c0 7f 2b 3f
       0.2524605 0.5460794 0.5760433 0.66991806
000050 c0 7b 9f 3e ae 2e 76 3e 11 bd 6a 3e cf 2a 59 3e
       0.311491 0.24041244 0.22923686 0.21207736

quadjetResNetBlock.reinforce.0.conv.conv.bias f4 [1, 8, 1]
000000 a2 e9 1e 3f bb 6e 0a 3e d9 e7 ab 3e d1 18 c1 bf
       0.62075245 0.13518803 0.33575323 -1.5085698
000010 e8 a2 63 be 03 d6 68 3f fc c8 48 bf e3 45 3a c0
       -0.22230113 0.90951556 -0.7843168 -2.9105155

quadjetResNetBlock.reinforce.0.conv.conv.module.weight f4 [4, 8, 3]
000000 af ce 02 bf e5 26 d7 3e 1a 42 0a be 5b fa 68 bf
       -0.51096624 0.42021862 -0.13501778 -0.9100701
000010 d3 fe 84 3e 9e a8 8a be 51 94 a2 bf 45 f6 7d bd
       0.25975665 -0.2708177 -1.2701513 -0.06200244
000020 17 cf 25 bf 88 fa da be c3 e4 b3 be 2f 2b cf 3e
       -0.6476912 -0.42769265 -0.3513547 0.40462634
000030 5a 34 c5 be c2 46 e7 bd 98 96 c1 3e d5 5d 24 3f
       -0.38516504 -0.11292793 0.37810206 0.64205676
000040 ed 54 d0 3e 82 c4 8b be 65 08 fa 3d ed bb 85 3e
       0.40689793 -0.2729836 0.122086324 0.26119938
000050 cf cb 10 3e 70 7a 06 3e 53 68 84 be 38 2d 78 be
       0.14140247 0.13132644 -0.25860843 -0.24236
000060 05 aa 02 bf ca 96 c8 be f9 c5 d4 be 11 6e 1f bf
       -0.5104068 -0.39177543 -0.4155729 -0.62277323
000070 e4 17 ae bc bf 4f 89 bb 20 b9 c3 3f 01 b1 19 3e
       -0.021251626 -0.0041904147 1.5290871 0.15008928
000080 70 8b 21 3d 68 91 38 bf a7 2d a5 be 89 88 22 be
       0.03943962 -0.7209687 -0.32261392 -0.15872397
000090 96 ad 17 3f ee 30 2d bc 36 0a af 3e db 30 88 be
       0.59249246 -0.010570748 0.34187478 -0.26599774
0000a0 0b bd b2 3d 3f e4 d4 3d 11 6b 25 bf 0d ba f8 be
       0.08727463 0.10395097 -0.64616495 -0.48579445
0000b0 26 db c8 bd 70 c2 a7 3e ec 68 94 3c 00 16 ba be
       -0.09807424 0.32765532 0.018116437 -0.3634491
0000c0 5b 63 60 3f 72 90 a8 3e c4 29 64 be 0a 4d 01 bf
       0.87651604 0.32922703 -0.22281557 -0.5050818
0000d0 1c ca 3c 3e bf 93 6d be a3 11 8e 3e a0 88 22 be
       0.18436474 -0.23200892 0.2774783 -0.15872431
0000e0 42 9c 3c bd ea 91 38 bf 80 f0 37 bd f5 3b 42 bf
       -0.046047457 -0.7209765 -0.044907093 -0.7587274
0000f0 73 0f 44 bf ab 49 9a be 75 02 05 3f 8c cd e9 3e
       -0.76586074 -0.3013433 0.51956874 0.45664632
000100 16 06 fc 3e 45 ea a9 be 5f ff 24 3f d2 68 24 3f
       0.49223393 -0.33186546 0.64452165 0.64222443
000110 2c fd e1 3d 7b 23 de 3e 82 70 55 3d f4 6f b6 3e
       0.11034617 0.43386444 0.05210925 0.35632288
000120 86 a9 db be e7 6e 55 3e 92 7c 40 be cb 0b 07 bf
       -0.42902774 0.20843087 -0.1879752 -0.5275237
000130 6e 34 1e 3d a5 40 97 be 9b 21 5d be c2 29 92 bd
       0.03862422 -0.29541507 -0.2159485 -0.07136871
000140 74 04 d3 3e 75 e8 97 bf f4 44 dc 3b 55 7c 32 be
       0.41214335 -1.1867815 0.006722087 -0.17430241
000150 b1 5f af 3e d2 0a a8 3e 50 f0 cb 3e a3 bc 2a 3b
       0.34252694 0.32820755 0.3983178 0.0026052378
000160 c8 28 02 be 21 20 92 be 10 79 c6 3e 33 2d 60 3d
       -0.1271087 -0.28540137 0.38764238 0.054730605
000170 77 b6 6c bc b2 5f 05 3f 33 62 12 3f e7 73 7a 3d
       -0.0144478 0.52099144 0.5718109 0.06114569

quadjetResNetBlock.reinforce.1.sym.weight f4 [8, 1, 2]
000000 00 00 00 3f 00 00 00 3f 00 00 00 3f 00 00 00 3f
       0.5 0.5 0.5 0.5
000010 00 00 00 3f 00 00 00 3f 00 00 00 3f 00 00 00 3f
       0.5 0.5 0.5 0.5
000020 00 00 00 3f 00 00 00 3f 00 00 00 3f 00 00 00 3f
       0.5 0.5 0.5 0.5
000030 00 00 00 3f 00 00 00 3f 00 00 00 3f 00 00 00 3f
       0.5 0.5 0.5 0.5

quadjetResNetBlock.reinforce.1.antisym.weight f4 [8, 1, 2]
000000 00 00 00 3f 00 00 00 bf 00 00 00 3f 00 00 00 bf
       0.5 -0.5 0.5 -0.5
000010 00 00 00 3f 00 00 00 bf 00 00 00 3f 00 00 00 bf
       0.5 -0.5 0.5 -0.5
000020 00 00 00 3f 00 00 00 bf 00 00 00 3f 00 00 00 bf
       0.5 -0.5 0.5 -0.5
000030 00 00 00 3f 00 00 00 bf 00 00 00 3f 00 00 00 bf
       0.5 -0.5 0.5 -0.5

quadjetResNetBlock.reinforce.1.conv.m f4 [1, 1, 3, 8]
000000 89 3b dd 3f 8f 0a 2b 3f 5b 16 11 40 2e 17 5a 3f
       1.7283794 0.66812986 2.2669895 0.8519162
000010 f9 67 cb 3e 7c 96 f5 3f 94 0d 2b 40 d4 6a 41 40
       0.39727762 1.9186549 2.6727037 3.0221453
000020 dc 06 68 3f d3 c8 2c 3f 61 0c 78 3f d6 ec 36 3f
       0.90635467 0.67493933 0.9689389 0.7145513
000030 28 bf bf 3e ec 65 3a 3f 34 fc 69 3f 24 3e 58 3f
       0.37450528 0.7281177 0.91400456 0.8446982
000040 58 bd ec 3f 7b a4 b5 3f 51 9b a0 3f bb fe 25 3e
       1.8495283 1.419082 1.2547399 0.16210453
000050 c3 fd a5 3f 7d 70 fb 3f e8 a0 0a 3f 77 e7 1d 3d
       1.2968067 1.9643704 0.54151773 0.03855082

quadjetResNetBlock.reinforce.1.conv.s f4 [1, 1, 3, 8]
000000 64 57 04 40 19 c5 00 40 2b b6 48 40 fc 7f cd 3f
       2.067834 2.01203 3.1361187 1.6054683
000010 e0 b7 62 3f e9 cb b6 3f 3c e3 1f 40 4d ff b5 3f
       0.8856182 1.4280978 2.4982443 1.4218537
000020 51 31 85 3f 35 59 ce 3f 2f 64 a4 3f 2b d6 8c 3f
       1.0405675 1.6120974 1.2843074 1.1002859
000030 32 e8 18 3f 72 ea 20 3f bb bd 89 3f e1 47 43 3f
       0.597293 0.62857735 1.0761026 0.76281554
000040 56 0b dc 3f d1 08 0d 40 8c 3d b9 3f 1f 10 18 3f
       1.719096 2.203663 1.4471908 0.593996
000050 27 0a 25 40 15 03 19 40 38 1c d6 3f a6 49 3f 3f
       2.5787446 2.390813 1.6727362 0.74721754

quadjetResNetBlock.reinforce.1.conv.conv.bias f4 [1, 8, 1]
000000 c1 18 c1 3d 68 cc 0d bf 7d b4 37 3f 91 f0 be 3f
       0.094285496 -0.55390024 0.7175978 1.4917165
000010 a2 46 c5 3f 6f 4f af 3e 6c 88 9a be 08 7a 9b bf
       1.541218 0.3424029 -0.30182207 -1.2146616

quadjetResNetBlock.reinforce.1.conv.conv.module.weight f4 [4, 8, 3]
000000 ef 66 2a bf c0 68 92 bd ac c1 59 bf 7a f7 d8 3e
       -0.66563314 -0.07148886 -0.85061145 0.4237631
000010 f4 0b 20 3e 72 a1 8f 3f d2 85 12 3f fb 0c 0a 3e
       0.1562956 1.1221144 0.57235444 0.13481514
000020 8e 8d e7 3d 61 8d 48 bf cf e7 9b bf 94 9b 09 be
       0.11306296 -0.7834073 -1.2180117 -0.13438255
000030 b6 7f da 3e 58 5d 88 be 88 f8 3b be 5c 7d 68 be
       0.4267556 -0.26633716 -0.18356526 -0.22704071
000040 a5 37 b0 be f8 8d 65 3d 89 16 b2 bf d8 6c 8f be
       -0.34417453 0.056043595 -1.3913127 -0.2801273
000050 67 92 06 bf e2 c4 c8 be 4a 38 ac be 68 cd 58 bd
       -0.5256714 -0.3921271 -0.33636695 -0.052930266
000060 18 3c 89 3e 3a 48 eb 3e 5b 21 c3 3d 43 5f 2d 3f
       0.2680366 0.45953542 0.095278464 0.6772348
000070 21 e1 3b bd 68 25 35 bf 5e 1c 8f bf 79 40 61 3e
       -0.045868997 -0.707602 -1.1180532 0.2199725
000080 12 95 fd bd 51 a5 30 3f 61 e5 2c bf 7e 47 67 3e
       -0.123819485 0.6900225 -0.67537504 0.22585866
000090 30 a6 55 3f 03 e6 ad be 6d d1 78 bf 17 4b 42 bf
       0.83456707 -0.33964548 -0.9719456 -0.7589583
0000a0 1a 51 88 be 62 db dc 3e bf 61 a0 3d 67 83 9b bc
       -0.26624376 0.43136126 0.078311436 -0.018983556
0000b0 b3 17 d7 3e dd 1e f9 be aa 37 09 bd 14 9e 72 be
       0.4201027 -0.4865636 -0.03350035 -0.23693115
0000c0 6f 1e 4b 3f 5e 4e 8c 3e 96 7a 7e 3f aa 3b 34 bf
       0.7934331 0.2740354 0.994058 -0.7040354
0000d0 a8 7c 0c bd 67 8b ff 3d e2 e8 c9 be 2c 8e 50 be
       -0.03429857 0.12477761 -0.39435488 -0.20366734
0000e0 8b 21 1c 3e 3a 0d 79 3f c0 6e b6 3e a2 d0 a3 bc
       0.1524717 0.9728581 0.3563137 -0.019996945
0000f0 b3 32 59 bf 8c ce 9d be b2 7e 43 be 6b b0 8d 3f
       -0.84842986 -0.30821645 -0.19091299 1.1069463
000100 31 2e e4 3d 9c 1f 81 bf 61 96 0e 3f 17 82 4f 3f
       0.11141623 -1.0087771 0.5569821 0.81057876
000110 ff cd 83 3e bf e6 fe b9 f2 40 de bd 20 e4 8a 3e
       0.257431 -0.00048618575 -0.10852231 0.2712717
000120 9f 6d 60 be e6 5e a7 3d eb 93 fe be 54 09 14 bf
       -0.21916817 0.08172397 -0.49722227 -0.57826734
000130 be 33 8d 3e bd bb a3 3e 5c a8 30 bd c8 d2 08 be
       0.2757854 0.3197917 -0.04312931 -0.13361657
000140 25 df a1 3e 82 2f 36 bf 70 81 21 bf 80 a3 d2 be
       0.31615558 -0.7116624 -0.6308813 -0.41140366
000150 7d 70 0c bf a2 bc 0e 3d 34 06 2a bd 50 a8 ee be
       -0.54859143 0.034847863 -0.041509822 -0.46612787
000160 75 2f 6b be 3a a6 2c be 31 51 d4 be 09 68 bd 3e
       -0.22967322 -0.16860285 -0.41468194 0.36993435
000170 27 53 17 bf 8c 1b c6 3c 62 8a b2 bd 78 3b d1 bf
       -0.59111255 0.024183057 -0.08717801 -1.6346273

quadjetResNetBlock.conv.0.m f4 [1, 1, 1, 8]
000000 26 ef 0b 40 06 5d 50 3f 20 4c f3 3f ce 5e 3f 3f
       2.1864715 0.8139194 1.9007607 0.74754035
000010 da 43 4f 3f d6 08 d5 3f ba e7 15 40 73 39 cd 3f
       0.8096291 1.6643322 2.3422685 1.6033157

quadjetResNetBlock.conv.0.s f4 [1, 1, 1, 8]
000000 63 d0 4b 40 3f 62 2a 40 32 55 2e 40 4a 46 df 3f
       3.184594 2.6622465 2.72395 1.7443326
000010 61 34 b8 3f 9a ed f0 3f f1 71 33 40 d9 4f c9 3f
       1.4390985 1.882251 2.8038294 1.5727493

quadjetResNetBlock.conv.0.conv.bias f4 [1, 8, 1]
000000 cd ec f1 be 76 0b 6d bf 34 65 8f 3d da e4 f2 3d
       -0.47250977 -0.92595613 0.07001725 0.11860056
000010 6c 92 8a bf 6c 70 92 3e 95 97 84 bd f9 be cc 3f
       -1.0825934 0.28601396 -0.064742245 1.599578

quadjetResNetBlock.conv.0.conv.module.weight f4 [4, 8, 1]
000000 9e 11 3f bf 83 a0 2d 3f ee 11 16 be 8b b3 c4 3e
       -0.74636257 0.67823046 -0.14655277 0.3841823
000010 ff 22 9b 3e c4 4f 9c 3e c9 96 d8 3e e0 41 a2 3f
       0.30300137 0.30529606 0.4230254 1.2676353
000020 38 a9 ff be d0 5c 63 3f 77 e0 13 be cd 0e 61 bf
       -0.4993379 0.88813496 -0.14441095 -0.8791321
000030 dd 21 0f 3f fe 25 b6 3e 84 4b 82 be 8f 93 d5 3c
       0.55911046 0.3557586 -0.2544824 0.026071338
000040 9d 6f 64 be f2 5c bc 3c 89 2a 05 3e 6a 4d b3 be
       -0.22308202 0.022993539 0.13004507 -0.3502
000050 3c 96 b1 3f 64 00 52 be 49 9a be 3e 9a cb 80 bf
       1.3873973 -0.20507962 0.37227085 -1.0062134
000060 c1 ef 02 bf fa 19 82 3e ca a1 09 3f b6 ee cb be
       -0.51147085 0.25410444 0.53762496 -0.3983056
000070 b6 08 46 3f b7 0a 7a 3e b7 d9 88 3d 32 9a bf 3d
       0.7735704 0.2441815 0.06682151 0.09355582

select_q.m f4 [1, 1, 1, 8]
000000 e2 ff ce 3f 50 d5 c7 3e 7e 0f e7 3f ca a4 24 40
       1.6171839 0.39029932 1.8051603 2.572558
000010 e7 45 40 40 95 a9 71 3f 4c 2a 40 3f a4 24 ca 3e
       3.0042665 0.94399387 0.7506454 0.3948108

select_q.s f4 [1, 1, 1, 8]
000000 7e fb 26 40 92 81 89 3f 6b ef 07 40 55 43 e2 3f
       2.6090999 1.0742667 2.123988 1.7676798
000010 52 4f 26 40 aa c6 c8 3f 1c e6 cf 3f 3f 19 19 40
       2.5985913 1.5685627 1.6242099 2.392166

select_q.conv.module.weight f4 [1, 8, 1]
000000 fc dd ff 3e 8d 44 02 be 84 67 22 3d 92 33 30 be
       0.49974048 -0.12721463 0.0396495 -0.17207173
000010 bc 4c 4a 3c 8e 29 94 3e 9d 58 0a 3d bb f3 b6 3d
       0.012347396 0.28937954 0.033775914 0.08933207

out.m f4 [1, 1, 1, 8]
000000 c6 0f 4d 40 e0 50 89 3e 77 e8 80 3f a4 cc 09 40
       3.2040877 0.26819515 1.0070943 2.1531153
000010 cd 1e d6 3f 7d 9b e2 3f 9e 60 cd 3f e3 cd e3 3e
       1.672815 1.7703701 1.604511 0.44493017

out.s f4 [1, 1, 1, 8]
000000 af e5 00 40 52 8a 3a 3f 78 8d 86 3f 2b 74 ae 3f
       2.0140188 0.7286731 1.0511923 1.3629202
000010 c2 01 a6 3f 62 f7 c5 3f e4 45 ba 3f 35 f3 cc 3f
       1.2969286 1.546612 1.4552579 1.6011721

out.conv.module.weight f4 [5, 8, 1]
000000 fb a3 fb 3d cf 78 a1 bd 72 5f 3c 3f 35 4b 4c bf
       0.12287136 -0.078843705 0.7358314 -0.79802257
000010 7e 74 84 3e 5a 4f 0b 3e a7 d9 67 bf eb 5e d4 bc
       0.25870126 0.13604489 -0.90566486 -0.025924167
000020 6c a9 3d bf 90 c0 67 3e 8d a4 cd bb 42 db 96 3e
       -0.7408664 0.2263205 -0.0062757195 0.29464155
000030 6d e7 c9 3d 6c c8 b6 be 6a 6e 63 3c c2 0c 66 3e
       0.09858594 -0.35699785 0.013881305 0.22465804
000040 8e 4b 75 3e 51 a2 ad 3e 87 92 b0 3e 0b 6f fd be
       0.23954603 0.339129 0.34486791 -0.49498782
000050 3f 07 91 3d 02 d0 25 bf d1 d4 68 3f 30 94 80 bd
       0.0708146 -0.6477052 0.9094973 -0.062782645
000060 ce 78 b2 3e fd e9 5e be f9 b0 1e bd 46 bf 9a 3e
       0.34857792 -0.21768947 -0.038742993 0.30224055
000070 ab 47 9d 3d 8f b6 4f 3f 71 ea f8 be 12 e5 b7 3c
       0.07679685 0.8113794 -0.48616365 0.022448096
000080 65 33 38 bf 8d 46 b1 be d5 c3 a7 3c 5d 36 ff be
       -0.7195342 -0.34624138 0.020479122 -0.49846163
000090 ae 2a be be d9 37 3c 3f 6d a8 61 3f 34 20 2e 3d
       -0.37141937 0.73522717 0.8814762 0.04251118

out.conv.module.bias f4 [5]
000000 df 38 13 c0 9c e4 d9 3f 4d 78 9c bf 92 1d 10 3e
       -2.3003461 1.7022891 -1.2224213 0.1407378
000010 6e c8 64 bf
       -0.8936833
