metadata/weights/pytorch_models/2024_HHUL_all_kl/model_SvB_ggF_all_kl__kfolds_3__offset_2__34c8e65f-6448-4bb2-b37e-558fe9ed4590.pkl (torch, 114822 bytes, 118 tensors)

inputEmbed.ancillaryEmbed.m f4 [1, 1, 1, 4]
00000000: 047e 8741 db8b 053f f9cc 5140 035a 9b3f
16.936531 0.5216653 3.2781355 1.2136844

inputEmbed.ancillaryEmbed.s f4 [1, 1, 1, 4]
00000000: c215 5b3f 3978 f83e 9a13 3940 3737 6440
0.85580075 0.48529223 2.8918214 3.56587

inputEmbed.ancillaryEmbed.conv.module.weight f4 [4, 4, 1]
00000000: 47a2 67bd e557 80be 87a1 c33c 51ff e9bc
00000010: f8d5 583d 661e babe 2e22 b33c fba4 d73c
00000020: 2e7b 2ebd 680b abbe 5935 27bd c219 14bd
00000030: 65d9 993c 111b 84be 87ac 86bb c8b2 093c
-0.056551244 -0.25067058 0.023880733 -0.028564127 0.05293843 -0.36351317 0.021866884 0.026323786
-0.042597942 -0.3340714 -0.04082236 -0.036157377 0.01878042 -0.258019 -0.0041099223 0.008404441

inputEmbed.jetEmbed.m f4 [1, 1, 1, 4]
00000000: 836d 9140 e9e3 f23e 51ee 6c3f 2db9 2a40
4.544618 0.47439507 0.9255114 2.6675522

inputEmbed.jetEmbed.s f4 [1, 1, 1, 4]
00000000: 2338 ec3e 5212 663f 8690 4a3f 4016 b93e
0.4613658 0.89871705 0.79126775 0.36149788

inputEmbed.jetEmbed.conv.bias f4 [1, 8, 1]
00000000: e622 253f f6fd bc3f e413 893e 2948 873e
00000010: 5d7f b7bc 58c8 5bbf ea2f 20bf 3635 6e3e
0.64506376 1.4765003 0.26772988 0.2642224 -0.022399599 -0.85852575 -0.6257311 0.23262486

inputEmbed.jetEmbed.conv.module.weight f4 [4, 4, 1]
00000000: ab4e 533f 9722 753d a9e4 b33c 347f c3bf
00000010: 86e9 8c3e 20be c8bd dcc8 debf 80dc 13bf
00000020: 112b 273f e9ee 4e3d f267 46bb 7a2b 413e
00000030: 6f56 d4bf eb5c 18bd 23a4 acbe dc7d 153f
0.8254191 0.05984744 0.02195962 -1.5273194 0.27521914 -0.098018885 -1.7405047 -0.5775833
0.6530009 0.05052081 -0.0030274359 0.18864241 -1.6588877 -0.03719799 -0.33718976 0.5839517

inputEmbed.jetConv.m f4 [1, 1, 1, 8]
00000000: bbc7 1a3f 1ee8 d13f 6b3f a63e 7f5d dd3e
00000010: a0a5 673e c938 2f3e 41c1 80bd 976c ce3e
0.60461015 1.6398962 0.3247026 0.43235394 0.22621775 0.17111506 -0.0628686 0.40317222

inputEmbed.jetConv.s f4 [1, 1, 1, 8]
00000000: c9db 353f 05e5 9d3f 981b 1d3f 2e00 2e3f
00000010: 6c70 2a3f 39b8 603f 0bfe 893e 3cfa 513f
0.7103849 1.2335516 0.6137023 0.67969024 0.6657779 0.877811 0.26951632 0.8202245

inputEmbed.jetConv.conv.bias f4 [1, 8, 1]
00000000: 702f 0640 96e8 35be b807 0ebf 8178 21bf
00000010: 4b19 d9be e4fa b83c e7aa 953e fa9f b03e
2.0966454 -0.17764506 -0.5548053 -0.630745 -0.4240211 0.022580571 0.2923195 0.34497052

inputEmbed.jetConv.conv.module.weight f4 [4, 8, 1]
00000000: be56 3ebd dd6b 073f fe15 4bbe 00cd 85be
00000010: 2394 a13e 7dda 18bf 573d 993f 95fe e43d
00000020: e730 763d 6fe6 72bd 4582 8b3f 4397 36be
00000030: 8120 5dbe 1a13 633f 7c54 5ebf 1268 72be
00000040: d1cd 0bbf f5f5 49be ceda 16bd 43b8 2f3f
00000050: 728d 473f 5edf 133e 3670 7cbe f70d 41bf
00000060: cf18 133f 0906 7cbd 020c a7be 6007 6e3f
00000070: 0d6b 58be 47c5 4c3e a266 053d 9f82 6dbf
-0.046469443 0.5289896 -0.19832608 -0.26132965 0.31558332 -0.59708387 1.1971844 0.1118137
0.06010523 -0.05930179 1.089913 -0.1783114 -0.2159443 0.8870102 -0.8684766 -0.23672512
-0.54610926 -0.19722731 -0.036829762 0.68640536 0.77950203 0.14440677 -0.2465218 -0.75411934
0.5745973 -0.061529193 -0.3262635 0.92980003 -0.21134587 0.1999713 0.03256858 -0.92777437

inputEmbed.othJetEmbed.m f4 [1, 1, 1, 4]
00000000: 34a2 8c40 cd77 bf3e c189 2440 51c2 c53f
4.3948 0.37396088 2.5709078 1.5449926

inputEmbed.othJetEmbed.s f4 [1, 1, 1, 4]
00000000: e416 193f 0f36 8f3f 279e e23e 0346 3d3f
0.59800553 1.1188372 0.44261286 0.73934954

inputEmbed.othJetEmbed.conv.bias f4 [1, 8, 1]
00000000: 49ee 4f3a 7322 4cbf e467 08bf ea65 1bc0
00000010: fb56 1ebf 4310 d33e d5a0 d9bf ec42 8b3e
0.00079319306 -0.79740065 -0.53283525 -2.4280953 -0.6185147 0.41223344 -1.7002207 0.27199495

inputEmbed.othJetEmbed.conv.module.weight f4 [4, 4, 1]
00000000: cc8d b43e 6bfc bb3b 7d74 963f e5ae 1c3e
00000010: 5a57 f2bf ad8a c2bc 8118 563e b45e 9e3e
00000020: 905e 923f 644c bf3d 5aaf 49bf 0838 a63f
00000030: 5e5d 4d3e 6adc 873d 3d5b 2fbf 3433 9cbf
0.35264432 0.0057368777 1.1754299 0.15301092 -1.8932908 -0.023747766 0.20907785 0.30931628
1.1435108 0.09340742 -0.7878319 1.2985849 0.20055148 0.066338375 -0.68498594 -1.2203126

inputEmbed.othJetConv.m f4 [1, 1, 1, 8]
00000000: be96 e53e 4617 4d3d 3940 693e f0bf a8bd
00000010: ea8e 583e ce7d 303f 6a97 d03d 1756 0f3f
0.4484157 0.050071023 0.22778405 -0.08239734 0.21148267 0.6894196 0.1018513 0.5599074

inputEmbed.othJetConv.s f4 [1, 1, 1, 8]
00000000: b729 803f 474a 013f 2679 f13e 6058 513e
00000010: 60c3 473f 8a10 943f f96e 2e3f 5bc1 133f
1.001273 0.50503963 0.4716274 0.20443869 0.78032494 1.1567547 0.6813808 0.5771691

inputEmbed.othJetConv.conv.bias f4 [1, 8, 1]
00000000: 1578 cf3f e2b9 d1bd 6310 9d3f d8a1 79be
00000010: a74f 0c40 810f f23f bc20 cebd ee0d b33f
1.6208521 -0.102405325 1.2270626 -0.24378145 2.1923616 1.8910981 -0.10064837 1.3988626

inputEmbed.othJetConv.conv.module.weight f4 [4, 8, 1]
00000000: 01de 983e 030c 4bbf bc0f 433e 6ec3 d23e
00000010: ac7d 7f3e 95c8 b63f d522 953d 6268 293d
00000020: f6b6 c0bc 9557 393e 4ba7 463e 382e 693e
00000030: 0cca 313d 8272 17be 9743 003f 30ed c83e
00000040: b35a a33d 28d2 05bf 16d7 f3bc fb21 debe
00000050: 03b0 efbe 2728 843f b3b2 2e3d 1292 9c3e
00000060: 5729 e03e 4ec4 823e b9da 283e e833 683f
00000070: e3ae f0be 5ae5 b9be d39b f63e b156 e7be
0.29856876 -0.79315203 0.19048971 0.41164726 0.24950284 1.4279963 0.07282034 0.041359313
-0.023524743 0.18099816 0.19399755 0.22771537 0.043405578 -0.14789775 0.50103134 0.3924346
0.07976284 -0.522738 -0.029765647 -0.433853 -0.46813974 1.0324754 0.04265089 0.30580193
0.4378154 0.25540394 0.16489686 0.907042 -0.47008428 -0.36307794 0.4816576 -0.45183328

inputEmbed.MdPhi_embed.m f4 [1, 1, 1, 3]
00000000: 7e25 ab40 dcfd e83f abf4 dd3e
5.3483267 1.8202472 0.4335073

inputEmbed.MdPhi_embed.s f4 [1, 1, 1, 3]
00000000: df37 2f3f 950a 6d3f eab9 fd3e
0.6844463 0.9259427 0.49555904

inputEmbed.MdPhi_embed.conv.bias f4 [1, 8, 1]
00000000: da9a a0bf 0283 823f cd03 1f3f 0610 67bf
00000010: d207 ef3f 75f3 573f e3ea d63c b047 bb3c
-1.2547257 1.019623 0.62115175 -0.90258825 1.8674262 0.8435586 0.02623505 0.022861332

inputEmbed.MdPhi_embed.conv.module.weight f4 [4, 3, 1]
00000000: 4305 2dc0 4679 ecbe df6a 61be 1f16 1f3d
00000010: c5ab 633f b380 acbf 7f42 acbb d0e1 d83f
00000020: 5207 bc3f 3d7f 0abf 78e9 c43e f075 bd3f
-2.7034461 -0.46186274 -0.22013424 0.038839456 0.88933975 -1.3476776 -0.0052569504 1.6943913
1.4689734 -0.541004 0.38459373 1.4801617

inputEmbed.MdPhi_conv.m f4 [1, 1, 1, 8]
00000000: cf2f 023f 0465 8b3f 5633 8b3f 13c6 2b3d
00000010: ac85 0f40 8c65 703f 2269 423f 9577 153f
0.508542 1.0890203 1.0875041 0.041936945 2.2425337 0.9390495 0.7594167 0.5838559

inputEmbed.MdPhi_conv.s f4 [1, 1, 1, 8]
00000000: 86a7 af3f 1a59 983f ce72 c33f 0e61 bf3e
00000010: d49e 1040 8a71 9a3f b6bc ab3f 519b 4d3f
1.3722999 1.1902192 1.5269411 0.37378734 2.259694 1.2065899 1.3416965 0.8031512

inputEmbed.MdPhi_conv.conv.bias f4 [1, 8, 1]
00000000: 5875 a23f c7c6 4340 4d19 ac3f 9ee8 5b40
00000010: da26 4a3f bc83 1f3f 586b 3f3f 309f 143f
1.269206 3.0590074 1.3445221 3.4360728 0.7896553 0.62310386 0.7477317 0.580554

inputEmbed.MdPhi_conv.conv.module.weight f4 [4, 8, 1]
00000000: 2690 dfbf d906 a1bd f9a7 35be 56c9 55bf
00000010: 244a b93c f877 8bbf ecb8 883d 6e6d a2bc
00000020: 8a8e 333e 24b9 373c 2751 5b3f 1291 8cbe
00000030: f750 d33e 844b 0dbf 231e f33e 75e9 973e
00000040: d9bb debf 3eea 32bf ac73 df3d 9a1f c83d
00000050: 88d7 993e a91d f53e 15a2 8fbd 6cf3 6f3e
00000060: f0a0 e73e fb98 003f a0b9 b6bd 889f 813f
00000070: b5e6 debd 4311 6fbf ca99 b3bf bb4b 0dbc
-1.7465866 -0.07862634 -0.17739858 -0.8351034 0.02261836 -1.0895987 0.06675896 -0.01982757
0.17534843 0.011213575 0.85670704 -0.2745443 0.4127271 -0.5519335 0.4748393 0.296703
-1.7401077 -0.69888675 0.109107345 0.097716525 0.3004725 0.4787419 -0.070133366 0.23432702
0.45239973 0.5023343 -0.08922124 1.012681 -0.108838476 -0.93385714 -1.4031308 -0.008624013

inputEmbed.dijetEmbed.m f4 [1, 1, 1, 4]
00000000: 50b2 9240 2c5b 563f 41b5 743f 0fe3 a240
4.5842667 0.8373287 0.9558907 5.090217

inputEmbed.dijetEmbed.s f4 [1, 1, 1, 4]
00000000: 9d68 403f 630b a43f 5849 983f 2698 043f
0.7515963 1.2815975 1.1897383 0.5179466

inputEmbed.dijetEmbed.conv.bias f4 [1, 8, 1]
00000000: 0fc6 96be f93a 8a3b 1292 53bd f1ea 4f3f
00000010: 07b2 50be 35a6 f13f 04ee f43d 3b12 5fbe
-0.29447982 0.004218456 -0.051652975 0.8121787 -0.20380412 1.8878847 0.119594604 -0.21784298

inputEmbed.dijetEmbed.conv.module.weight f4 [4, 4, 1]
00000000: 70c0 c83e bc78 a63e 50e9 9ebd 11dd afbf
00000010: 9f31 2fbc 8196 593d f4c4 92bb 3cc8 2dc0
00000020: fbfd 76be 4315 473e b5ae efbc f56c 0540
00000030: a714 08bf 6480 9b3d e7c2 e8bb fc7b 27bf
0.39209318 0.32513988 -0.077593446 -1.3739339 -0.010692983 0.053122047 -0.004479045 -2.7153463
-0.24120323 0.19441704 -0.029258111 2.0847752 -0.5315651 0.07592848 -0.0071033123 -0.6542356

inputEmbed.quadjetEmbed.m f4 [1, 1, 1, 3]
00000000: 2479 8a40 e7e5 b73f b1e5 c440
4.3272877 1.4367036 6.1530385

inputEmbed.quadjetEmbed.s f4 [1, 1, 1, 3]
00000000: ff91 5f3f 876b e73f a2f5 ab3e
0.8733215 1.807969 0.3358584

inputEmbed.quadjetEmbed.conv.bias f4 [1, 8, 1]
00000000: 8c5d 94bf 71af 83be 3fe3 50bf 1905 f8bf
00000010: c880 03be 9dfe 713f 6d11 103f 45b6 fe3e
-1.1591048 -0.2571979 -0.8159675 -1.9376556 -0.12842095 0.94529134 0.5627659 0.49748436

inputEmbed.quadjetEmbed.conv.module.weight f4 [4, 3, 1]
00000000: 0149 103f a56a 9f3f ed92 2fbe 3453 363f
00000010: 8b2e 1abe 4905 aabe 6408 9f3c eebc 6cbd
00000020: 8106 9bbf 5a29 a33f 4f13 99bc 1311 a2be
0.56361395 1.245442 -0.17145891 0.7122071 -0.15056817 -0.33207157 0.01941318 -0.057797365
-1.211136 1.2746994 -0.018685965 -0.31653652

inputEmbed.dijetConv.m f4 [1, 1, 1, 8]
00000000: f635 a03e 3433 683f 80af 303f 8e6b 243f
00000010: 6796 a93e d58c 0140 2de7 433f eeab 883b
0.3129117 0.9070313 0.6901779 0.64226615 0.3312256 2.0242207 0.7652462 0.0041708862

inputEmbed.dijetConv.s f4 [1, 1, 1, 8]
00000000: b798 3d3f f462 b63f 244d ac3f 4c00 0f3f
00000010: d35a 5e3f 1554 1540 12c1 9b3f f777 ad3e
0.7406115 1.4248948 1.3461041 0.5585983 0.86857337 2.333257 1.2168295 0.33880588

inputEmbed.dijetConv.conv.bias f4 [1, 8, 1]
00000000: cea1 00bf c949 a03c fd91 bb3e 195c ce3e
00000010: 3e89 113e bd3a cc3f 9a92 2ebe e8bc 81bf
-0.50246894 0.019566434 0.36634818 0.4030464 0.1421251 1.5955426 -0.17048112 -1.0135775

inputEmbed.dijetConv.conv.module.weight f4 [4, 8, 1]
00000000: 5b6f d1be 66cd 51bf 5777 223f 2691 283e
00000010: d893 d83e 255a 8a3f c2da 41bf 36c7 423e
00000020: b769 8a3e 35d1 493f c6c8 053f 1f5f 673d
00000030: df6e bd3e 9bc3 cdbb 1444 613f bf59 90be
00000040: 8ddf 003e 608a 95be ecab 093f 6148 17bf
00000050: 5dcb f13e 7710 5e3f 0fa6 a2be 9b1d 233f
00000060: 596e fcbc 468a 7fbf bd41 3d3e 66d7 09be
00000070: 0f55 c6bc 714e b03f a7bf 8abf c808 1dbf
-0.4090527 -0.8195404 0.6346335 0.1646162 0.42300296 1.080876 -0.7572442 0.19021305
0.2703378 0.7883485 0.5225948 0.0564872 0.3699865 -0.0062794215 0.87994504 -0.2819347
0.12585278 -0.29207134 0.53777957 -0.59094816 0.47225466 0.86743873 -0.31767318 0.6371705
-0.030814337 -0.99820364 0.18482108 -0.13461074 -0.024210481 1.3773938 -1.0839738 -0.61341524

inputEmbed.quadjetConv.m f4 [1, 1, 1, 8]
00000000: a093 22be 1349 663e 9af2 84bb 6d55 18be
00000010: 54fb 643e 2b2a 563f 0c6e 143f aec6 273f
-0.15876627 0.22488813 -0.0040572407 -0.14876337 0.22361499 0.83658093 0.5798042 0.65537536

inputEmbed.quadjetConv.s f4 [1, 1, 1, 8]
00000000: 127f ec3d 67f3 0d3f d0c9 d03e 6d19 3c3e
00000010: fe32 713f cbc4 6b3f f46a 6e3f 5b86 813f
0.11547674 0.5544953 0.4077897 0.18369074 0.9421843 0.9209716 0.9313195 1.0119127

inputEmbed.quadjetConv.conv.bias f4 [1, 8, 1]
00000000: f7f7 4340 1e39 bd3f 5ca0 db3e bb28 61bf
00000010: ed17 163e 4b1f 28be 7cc2 983d 8f84 463f
3.0620096 1.4783056 0.42895782 -0.87952775 0.14657564 -0.16418187 0.0745897 0.7754602

inputEmbed.quadjetConv.conv.module.weight f4 [4, 8, 1]
00000000: 1e21 c9bd a1b1 813d a5c5 7e3e 498a 383e
00000010: 8bd4 193d 5861 bdbd 7f2d 3f3f 4abb bcbd
00000020: 0386 2cbe 1634 c8bd 95da 2ebf daf1 e6bd
00000030: 1097 c73d f27a d33b e497 ae3d dcfd 9abd
00000040: 3568 abbd 9766 1c3d 4bad 20bd 41d6 85be
00000050: 53db f03c fde2 17be 0572 a7be c2f5 0d3c
00000060: e020 f23d bcdb b23d 796f 0ebe 9516 80be
00000070: 7dc6 cbbc baca d5bd 7711 a03e bc66 173e
-0.0982077 0.06332708 0.24880083 0.18021502 0.037556212 -0.092470825 0.74678797 -0.0921541
-0.16847996 -0.097755596 -0.6830228 -0.11276598 0.0974561 0.006453865 0.085250646 -0.07567951
-0.08369485 0.038183775 -0.039227765 -0.26140025 0.029401457 -0.14832683 -0.32704177 0.00866455
0.11822677 0.08733317 -0.13909711 -0.2501723 -0.02487492 -0.10439058 0.31263325 0.14785284

dijetResNetBlock.reinforce.0.conv.m f4 [1, 1, 3, 8]
00000000: e94f 0b40 632c d73e ce42 223e 4d94 3a3d
00000010: b1f3 efbd 4c8f 963e 5a0f 603f 709c ca3f
00000020: 0f5b fc3f b04f da3e 78d7 863e f695 4e3f
00000030: fb98 a83e 33b5 7a3f d94c b73e c20e 703e
00000040: cc5d 8b3f 8606 e63e f928 963f 86f6 ad3f
00000050: e075 b03f 8d39 cc3f 928d 673f 07ba 373f
2.1767523 0.42026052 0.15845796 0.045551587 -0.11716402 0.29406202 0.87523425 1.5828991
1.9715289 0.42638922 0.26336265 0.8069757 0.32929215 0.9793274 0.35800818 0.2344313
1.0888 0.44926852 1.1731254 1.3590858 1.3785973 1.5955063 0.90450394 0.7176823

dijetResNetBlock.reinforce.0.conv.s f4 [1, 1, 3, 8]
00000000: 48b8 343f 6f7d 353f 049d 353f 4f0e 033f
00000010: 6be8 1a3e 1c71 563f b446 9f3f 6c5c e23f
00000020: e736 c63f e235 8e3f 6334 353f 8419 843f
00000030: 407c 4c3f d41c ad3f 522a 5f3f a356 713f
00000040: 606d ef3f f777 ad3f b125 1240 711f d13f
00000050: bb5c 0340 5c2d 933f 0dd6 9d3f 557f ca3f
0.7059369 0.7089452 0.7094271 0.5119371 0.15127723 0.8376634 1.2443452 1.7684455
1.5485505 1.1110194 0.7078306 1.0320287 0.7987709 1.3524423 0.8717395 0.9427282
1.8705254 1.3552235 2.2835505 1.633772 2.0525348 1.1498218 1.2330948 1.5820109

dijetResNetBlock.reinforce.0.conv.conv.bias f4 [1, 8, 1]
00000000: 6a90 d6bf ed4f 643d a674 d03e 4f44 56bf
00000010: 773e b1bf 7358 373f 3aab 953d eb7b d0bf
-1.6762822 0.055740286 0.40713996 -0.8369798 -1.3847188 0.7161934 0.073080495 -1.6287817

dijetResNetBlock.reinforce.0.conv.conv.module.weight f4 [4, 8, 3]
00000000: ba3a acbb 0e78 9fbd 1c3e 2abf 1e27 363d
00000010: da80 91be 4e85 79be 82c6 96be c40c 97be
00000020: e498 d6be 5c3f a53e a4e8 a23d a3e3 563d
00000030: 5b56 553e 4589 363d a8b7 ebbf 4c97 65be
00000040: 5b0c e83d 581f 673f 34d7 453e 2928 483e
00000050: e08c d3be bf92 643e 87f1 263e f474 cbbf
00000060: 0bec 5a3e 6aae 6ebc 1a53 22be 5bbd 053e
00000070: df7e 18bd 692a a1bf 505d 64be 83d7 19bf
00000080: c29e 21be b6ea 10bf 344a c6be 865a f13e
00000090: bdf6 a63e 1d86 1e3e 1bf1 9cbf a86f 243e
000000a0: b13c e5bd c72e 0d3f 7b06 553e 2cfd 463e
000000b0: 66d5 0e3a 14db 583e ad95 573e 839f c7be
000000c0: bb70 8cbd 59ea 923d dce3 9f3e 3b31 95be
000000d0: 7eec 873e 598f 35be 0b7e 1b3f 7e35 4c3f
000000e0: 70ef 75bc b55d 063f 632e 2e3f f6bd f93e
000000f0: 1da0 66bd 34c1 2f3f 057b 9abe 48b5 60bd
00000100: 6db1 abbc 460d a03f c721 4abc f543 8dbd
00000110: af6a 7abe 3cc4 00be 71ce 93bd 9b2f 863d
00000120: 80d8 9bbd bbf5 b0bd 4d57 27bf 7bae b5be
00000130: 3bd2 b2be 6611 b03d 6a32 11bd 6d63 333e
00000140: 406e 1bbf 0b66 0b3b 90e3 9e3e a31c 76be
00000150: 6c62 303e 2d18 2ebf 7b37 e7be a959 b83e
00000160: cefe 8f3c 603b 28bf 5245 aa3c bccc 223e
00000170: e1da f83e ac24 e4bb c14a 64be 20e8 89be
-0.005256024 -0.077865705 -0.6650102 0.0444709 -0.28418618 -0.24367258 -0.29448324 -0.29501927
-0.4191352 0.32274902 0.07954529 0.052463185 0.20833723 0.044564504 -1.8415422 -0.22420996
0.113304816 0.902822 0.19320375 0.1954657 -0.41318417 0.22321604 0.16303073 -1.5895066
0.21379106 -0.014567951 -0.15852013 0.13060515 -0.03723037 -1.2591068 -0.22301221 -0.6009447
-0.15783218 -0.5660814 -0.38728487 0.47139376 0.3261012 0.15480848 -1.226108 0.16058218
-0.111932166 0.551495 0.20803253 0.19432515 0.0005448669 0.21177322 0.2105319 -0.38988885
-0.06857439 0.071736045 0.3122853 -0.29139122 0.26547617 -0.17730464 0.607392 0.7976912
-0.0150107 0.52486736 0.6803953 0.4877774 -0.05630504 0.6865418 -0.3017198 -0.054860383
-0.020958627 1.2504051 -0.012337155 -0.068977274 -0.24454759 -0.12574857 -0.0721711 0.06552049
-0.076096535 -0.08640619 -0.65367585 -0.3548468 -0.34926018 0.085970685 -0.03544847 0.17518397
-0.60715103 0.002127054 0.3103299 -0.24034362 0.17225045 -0.6800564 -0.45159516 0.36005905
0.017577555 -0.657156 0.020785008 0.15898412 0.4860449 -0.0069623794 -0.22294141 -0.2693491

dijetResNetBlock.reinforce.1.conv.m f4 [1, 1, 3, 8]
00000000: 5677 9240 985e 9a3e 3a94 233f 1745 363e
00000010: 3a0a 48be 33c2 f13f 8bf5 da3f 723c dc3f
00000020: 14e7 4240 0f07 e83f 5125 af3f d6db 943f
00000030: 0d02 0e3f d449 2540 19b8 463f 0986 163f
00000040: fe8e d93f 1606 613f cef2 2840 2699 043f
00000050: 912e 2240 f0a1 1b40 ebe7 0840 cafc 623d
4.5770674 0.30150294 0.6389805 0.17799793 -0.19535151 1.888739 1.7106184 1.7205946
3.045354 1.8127154 1.3683263 1.1629589 0.5547188 2.582631 0.7762466 0.5879827
1.6996763 0.8789991 2.6398196 0.51796186 2.5340922 2.4317589 2.1391551 0.05541686

dijetResNetBlock.reinforce.1.conv.s f4 [1, 1, 3, 8]
00000000: f28f 5a3f e656 5a3f 39d7 bb3f 279e 443f
00000010: cf63 5c3e ad7a cd3f dc00 1040 fe12 f73f
00000020: 8f63 dc3f 3e15 7340 108a e93f d1d8 bb3f
00000030: 0e2f 8d3f 688b 0940 201d e33f c4b3 be3f
00000040: 0206 ef3f 3eb1 a73f 5f37 5940 12c5 673f
00000050: 4bed 9f40 c5af 1e40 dd32 4140 4d5a 343f
0.85375893 0.85288846 1.4675056 0.7680382 0.21522449 1.6053063 2.2500525 1.9302671
1.7217883 3.7981715 1.8245258 1.4675542 1.1029985 2.1491337 1.7743263 1.489861
1.8673708 1.3100965 3.3940046 0.9053508 4.9977164 2.4794781 3.0187294 0.7045029

dijetResNetBlock.reinforce.1.conv.conv.bias f4 [1, 8, 1]
00000000: 3433 a93f 459a d63c ba62 cd3e 71a5 843f
00000010: 3b60 2b3f a93c 823f 8e21 e1be c8ba 30bf
1.3218751 0.026196608 0.40114385 1.0362989 0.6694371 1.0174762 -0.43970913 -0.69035006

dijetResNetBlock.reinforce.1.conv.conv.module.weight f4 [4, 8, 3]
00000000: 348d c8be a83e 97be 76cb 67bd be88 56bd
00000010: de8a b23e dbf2 9cbe 3b6a 28bd b6fd 13be
00000020: 98bb 8b3b 6ef6 8ebe 5c27 b9bd b8d7 36be
00000030: 41b3 04be 0a54 78be 0911 c0be 67c5 983d
00000040: 72ea 843e 6b1c 38bd 6859 b3bc 54ab 363e
00000050: f979 6bbe 1e09 94be 38b0 91be b740 84be
00000060: 8fdc 253c e305 c7bd be9e 2cbd 696f 16be
00000070: 9b2a 0e3f 434f e2be 3c0e a73d 103a 393d
00000080: b6fd 073f ae9a bebd ffd3 b4bd 353e af3d
00000090: 9f80 393e ff18 ae3d 167e 2e3f 9b7a 0e3e
000000a0: c6ad c13c 1735 d23d 490b dcbd b605 56bd
000000b0: 6e86 933e 5557 70bc a5ff 2ebd e9b7 c43e
000000c0: d3cf a73e 5bdf 003e 6299 0ec0 8105 8b3e
000000d0: c2aa 163f 8dd4 553e 78de 60be aec9 dbbe
000000e0: a6ba f3be 7508 ccbe 8aa0 09bf 6954 ffbe
000000f0: d0bf cdbe cd03 a6be 2560 79bf e040 863d
00000100: 2d1f 113d d671 fc3d 93aa 2c3f 9920 253f
00000110: 42fb 183e 690f 773f 50b6 0e3f 0844 d0be
00000120: 9220 903d 1c55 1c3e 5745 993f 4f6b cebd
00000130: d6ac 633e 9bdb 543f bc76 a43d 1b0b aabd
00000140: 433b 24be cd83 263c ea16 303e c753 413e
00000150: 3c5e 383e be1e 823e 054c 0bbf c6be 4f3e
00000160: c859 503d 3b3a 1d3e 50c5 f1bd 14d8 85be
00000170: 8fa5 4dbf 2871 bfbd f541 34be 18a3 15be
-0.3917023 -0.2953999 -0.05659052 -0.0523765 0.34871572 -0.30654034 -0.041116934 -0.14452252
0.0042643063 -0.27922386 -0.0904071 -0.17855728 -0.12959005 -0.24250808 -0.37512997 0.074595265
0.25960118 -0.044948976 -0.021893218 0.17838794 -0.22995748 -0.28913206 -0.28454757 -0.25830624
0.010123386 -0.0971792 -0.042143576 -0.14690937 0.5553376 -0.44201097 0.08157012 0.04522139
0.5312151 -0.093068466 -0.088294975 0.08556787 0.18115471 0.085008614 0.6816114 0.13913958
0.023642432 0.10264032 -0.1074434 -0.05225154 0.288135 -0.014669259 -0.04272427 0.38421562
0.32775745 0.12585203 -2.2281117 0.27152637 0.58854306 0.20881863 -0.21959865 -0.42927307
-0.4760334 -0.39850202 -0.5376059 -0.49869087 -0.40185404 -0.32424775 -0.9741233 0.06555343
0.035430122 0.123264 0.67447776 0.64502865 0.14939597 0.9650789 0.55746937 -0.40676904
0.07037462 0.15266842 1.1974286 -0.10079061 0.222339 0.8314759 0.08030459 -0.083028995
-0.16038232 0.01016326 0.17196241 0.18879615 0.18004698 0.2541408 -0.5441287 0.20287618
0.050866872 0.15354244 -0.118052125 -0.26141417 -0.8033075 -0.09347755 -0.17603286 -0.14612997

dijetResNetBlock.conv.0.m f4 [1, 1, 1, 8]
00000000: b9be 0440 0bbe d83e e0f8 573e 3d3f da3e
00000010: 1b38 d93d 6cfe 223f e5da 1d3f 489e 683f
2.0741408 0.4233249 0.21091032 0.42626372 0.106064044 0.63669467 0.6166213 0.9086652

dijetResNetBlock.conv.0.s f4 [1, 1, 1, 8]
00000000: da99 9a3f 0496 6e3f 7de9 353f 9831 663f
00000010: 76df 1d3f bb84 963f 8671 8d3f bede c83f
1.2078202 0.93197656 0.710594 0.89919424 0.616691 1.1759256 1.105027 1.5692976

dijetResNetBlock.conv.0.conv.bias f4 [1, 8, 1]
00000000: 2d45 c13f 1e8f 713d a088 4d3e 5d2e 073d
00000010: 4f9c b3be f343 943f 185c 37be c2b6 dc3c
1.5099236 0.058974378 0.2007165 0.0330032 -0.35080191 1.1583236 -0.17906225 0.026942614

dijetResNetBlock.conv.0.conv.module.weight f4 [4, 8, 1]
00000000: 0e33 84be 5033 27be 7560 893d 1a3f 7bbf
00000010: 130b b1be 5425 e43d 1cea f63b f6cd 983e
00000020: c5e5 63bd de8f 2a3f f3c6 3d3f 490c f0be
00000030: 0d98 d13f fb1d 4a3f a6e5 423e 24d2 17bd
00000040: 30bd 5c3e 7db5 6abe 096e 043f 9195 cb3e
00000050: 03a7 babe 48d9 513d d56d c5be f348 47bf
00000060: 080a a23d 522c f3bd 9a73 003f 236f 753e
00000070: 512f d3be 6626 9fbd 9460 cd3c 3f5e 03be
-0.25820202 -0.16328168 0.06707851 -0.9814316 -0.3457876 0.11139932 0.007535232 0.29844636
-0.055639047 0.66625774 0.741317 -0.46884373 1.6374527 0.78951997 0.19032916 -0.03706564
0.21556544 -0.22920795 0.517304 0.39762548 -0.36455545 0.051232606 -0.38560358 -0.77845687
0.079120696 -0.11873688 0.50176394 0.23968177 -0.41247037 -0.07770996 0.025070466 -0.12828921

attention_oo.q_GBN.gamma f4 [8]
00000000: e9ea 913d a264 853e fcd1 d7bd ad5b 7fbf
00000010: cc52 10bf 1388 5c3e ee66 84be 5978 c9be
0.07124884 0.2605334 -0.10538098 -0.9974926 -0.5637634 0.21536283 -0.2585978 -0.3934963

attention_oo.q_GBN.bias f4 [8]
00000000: e94c 2c40 2335 a1bf dd54 2340 d96e 60bf
00000010: 28ec 07c0 d4c0 f13e d86d cbbf d61a 0f40
2.6921942 -1.2594341 2.5520546 -0.8766914 -2.1237888 0.4721743 -1.5892897 2.236013

attention_oo.q_GBN.m f4 [1, 1, 1, 8]
00000000: 80e5 c53f 2eac a53d 3404 b33f 93e6 4f3e
00000010: 3619 0840 4a6d d43f d67f f53e bc65 b63f
1.5460663 0.08089481 1.3985658 0.20302801 2.1265388 1.6595852 0.47949094 1.4249797

attention_oo.q_GBN.s f4 [1, 1, 1, 8]
00000000: 9f3f e73f 33fe ef3e b1c6 ad3f be28 883f
00000010: 88f4 c13f 3cdb 2f3f edbc ac3f bae0 483f
1.8066291 0.46873626 1.3576261 1.0637434 1.515275 0.686939 1.3495156 0.78467906

attention_oo.v_GBN.gamma f4 [8]
00000000: 1f47 063f 75f4 e83f 3b13 0240 9cdd b33e
00000010: 4f68 d73e 9c41 de3f 2828 a33f 785a b53f
0.5245227 1.8199602 2.0324237 0.35130012 0.4207177 1.7363772 1.274663 1.4168234

attention_oo.v_GBN.bias f4 [8]
00000000: 4d99 04be d84c ca3e f095 563d 0e84 833f
00000010: 1381 ed3e 669d b63d f884 b13f ab46 2a3f
-0.12949105 0.39511752 0.052389085 1.0274675 0.46387538 0.0891674 1.3868704 0.6651408

attention_oo.v_GBN.m f4 [1, 1, 1, 8]
00000000: 80e5 c53f 2eac a53d 3404 b33f 93e6 4f3e
00000010: 3619 0840 4a6d d43f d67f f53e bc65 b63f
1.5460663 0.08089481 1.3985658 0.20302801 2.1265388 1.6595852 0.47949094 1.4249797

attention_oo.v_GBN.s f4 [1, 1, 1, 8]
00000000: 9f3f e73f 33fe ef3e b1c6 ad3f be28 883f
00000010: 88f4 c13f 3cdb 2f3f edbc ac3f bae0 483f
1.8066291 0.46873626 1.3576261 1.0637434 1.515275 0.686939 1.3495156 0.78467906

attention_oo.qv_GBN.gamma f4 [8]
00000000: e7a2 b03f 522b d63e 3413 a0be dee4 2840
00000010: 132c ee3f e446 3d3f 0baf 0940 76e5 ce3e
1.3799714 0.41829926 -0.3126465 2.638969 1.86072 0.73936296 2.1513088 0.4040944

attention_oo.qv_GBN.bias f4 [8]
00000000: 5803 633e 9c26 7c3e df02 c93e 4987 c13f
00000010: 210b 293e a936 a83e 40a6 d83f 9739 2f3f
0.22169244 0.24624103 0.39260003 1.5119411 0.16508152 0.32854202 1.6925735 0.6844725

attention_oo.qv_GBN.m f4 [1, 1, 1, 8]
00000000: a6d6 1440 75e3 5140 7a86 ea3e 9120 5440
00000010: ae28 293f 123c 5f3e 9471 0340 27ef 5d3f
2.325601 3.2795079 0.45805722 3.3144877 0.660777 0.21800259 2.0538073 0.8669304

attention_oo.qv_GBN.s f4 [1, 1, 1, 8]
00000000: 2551 c13f 239f ea3e 3ab9 243f d4be de3f
00000010: 0a43 e73f 44e1 7d3e 6bbf fd3f a2ef b33f
1.5102888 0.45824537 0.64345133 1.7401986 1.8067334 0.24792963 1.9824041 1.4057505

attention_oo.score_GBN.gamma f4 [2]
00000000: 4b88 093f 8510 0d40
0.5372359 2.2041333

attention_oo.score_GBN.bias f4 [2]
00000000: 7c01 d83f 282e 88bf
1.6875453 -1.0639086

attention_oo.score_GBN.m f4 [1, 1, 1, 2]
00000000: 52c6 163f d747 d13f
0.5889636 1.6350049

attention_oo.score_GBN.s f4 [1, 1, 1, 2]
00000000: 5c07 1141 7a44 d040
9.064297 6.508359

attention_oo.conv.m f4 [1, 1, 1, 8]
00000000: 440b 003f 6c77 5c3e 1096 7b3f 123b 2440
00000010: 2166 a33f 70d2 c73e 6ea1 0540 e6a2 8f3f
0.5001719 0.21529931 0.9827585 2.5661054 1.2765542 0.3902774 2.087978 1.1221588

attention_oo.conv.s f4 [1, 1, 1, 8]
00000000: bede de3e 6af9 a53e 400a 943f 89ca 023f
00000010: d8af fe3f 90ba 1a3f 88e7 1240 b63d 633f
0.43529314 0.3241685 1.1565628 0.51090294 1.9897413 0.6044092 2.2953815 0.8876604

attention_oo.conv.conv.bias f4 [1, 8, 1]
00000000: d889 7c3f b3a9 7bbf c37d b6bf bb57 64bf
00000010: 3a50 ce3f 1dd8 3a40 7a55 1e3f 5c5a 1e3f
0.9864783 -0.98305815 -1.425713 -0.89196366 1.6118233 2.9194405 0.61849177 0.6185663

attention_oo.conv.conv.module.weight f4 [4, 8, 1]
00000000: b998 91bf 160b cc3d 2436 36be f8aa 7fbf
00000010: f969 04bf b6ec c2bc 492d 503e 7f12 4c3e
00000020: cfcb 42bf e257 7abf cb6e 96be 62e2 adbe
00000030: 69de 4a3e 2c2e ab3f f15b 8bbf 243a 09bf
00000040: 8db3 933f a72c 89be cf80 3ebf 3f99 b83d
00000050: f9df 4a3f bd34 2e3d 2de9 bebe 4be9 e5be
00000060: b27f 02be 024d 8b3e ea08 80be 4219 80bf
00000070: 3736 e03e 9d2f 54bf d24b ba3d 220d f33d
-1.1374732 0.09963052 -0.1779409 -0.9987025 -0.517242 -0.023794513 0.20329775 0.1992893
-0.7609224 -0.9779035 -0.29381403 -0.3396178 0.19811405 1.3373466 -1.0887433 -0.5360434
1.153917 -0.2679188 -0.74415296 0.090136044 0.79248005 0.042530764 -0.37287274 -0.4490455
-0.12744024 0.2720719 -0.250068 -1.0007708 0.43791363 -0.8288515 0.09096493 0.11867739

attention_do.q_GBN.gamma f4 [8]
00000000: 0337 89be 0d70 093f d6f9 19be 74b4 883f
00000010: e8f7 27bf a1ef 7f3e 3464 a0be 881a a9bd
-0.26799783 0.536866 -0.15036711 1.068007 -0.6561265 0.24993755 -0.3132645 -0.082570136

attention_do.q_GBN.bias f4 [8]
00000000: 5a5a e13f 6768 6fbe aa96 c63f 04fa 2bc0
00000010: 2c2b 94c0 182e 8d3f f92c b9bf 2639 243f
1.7605698 -0.2337967 1.5514729 -2.6871347 -4.63027 1.1029692 -1.446685 0.641497

attention_do.q_GBN.m f4 [1, 1, 1, 8]
00000000: 6ec2 f23f b8f7 673f 23c5 0a40 4d63 4440
00000010: 2a0e ee3f 55e2 3340 9b7f b83f d161 c33f
1.8965585 0.90612364 2.1682823 3.0685608 1.8598073 2.8106892 1.4413942 1.5264226

attention_do.q_GBN.s f4 [1, 1, 1, 8]
00000000: 1785 1840 90c2 1840 d868 5d40 e301 4640
00000010: 4b88 3240 fba9 f83f 80c2 2540 0e0b 3440
2.3831232 2.3868752 3.4595242 3.0938652 2.7895687 1.9426874 2.5899963 2.8131747

attention_do.v_GBN.gamma f4 [8]
00000000: 2330 d13f 1063 88bc ef56 cd3f 629d 883f
00000010: 3b52 b13e 86f2 8e3f 9822 583f c887 653f
1.6342815 -0.0166488 1.6042155 1.067303 0.3463305 1.1167762 0.84427786 0.8966031

attention_do.v_GBN.bias f4 [8]
00000000: 2a23 e93e 6f02 313f b125 943f 6ae5 4d3f
00000010: c7cb 663d 36b7 013f d54a 983f 86d5 ce3f
0.4553464 0.6914434 1.1574003 0.80428183 0.05634668 0.5067018 1.1897837 1.6158912

attention_do.v_GBN.m f4 [1, 1, 1, 8]
00000000: 2034 1c40 2e36 963e 9cee 323f e7c7 a13e
00000010: ac01 6140 e1c2 9640 6d82 853f 776e 0d40
2.4406815 0.2933821 0.6989534 0.31597826 3.515727 4.711289 1.0430428 2.2098672

attention_do.v_GBN.s f4 [1, 1, 1, 8]
00000000: 8d67 c03f 14f0 753f af14 9d3f 7995 ad3f
00000010: 2a0c c83f c788 1640 cb63 f33f eb3b be3f
1.5031601 0.96069455 1.2271937 1.356124 1.5628712 2.3520982 1.9014829 1.4862036

attention_do.qv_GBN.gamma f4 [8]
00000000: d61d a2bc fffe 173f c9b7 8e3f 4772 8e3f
00000010: a17b 1740 222b 8e3f 53e2 ecbf c344 873e
-0.019789618 0.5937347 1.1149837 1.1128625 2.3669207 1.1106913 -1.8506569 0.2641965

attention_do.qv_GBN.bias f4 [8]
00000000: 922a 1e3f 9e5b 933f b9fb d43f e522 cd3f
00000010: b50f f1be d7a3 643f 7427 803f a4cf 0a3f
0.6178371 1.1512334 1.663932 1.6026274 -0.47082296 0.893125 1.001204 0.54223084

attention_do.qv_GBN.m f4 [1, 1, 1, 8]
00000000: 960e 593e fc57 1d40 7595 4b40 2d64 5440
00000010: 42e7 ca3f 8c71 813f 8148 87be 3318 403f
0.2119697 2.4584951 3.1809971 3.3186142 1.5851824 1.0112777 -0.26422504 0.75036925

attention_do.qv_GBN.s f4 [1, 1, 1, 8]
00000000: c0ba 9c3e 3b3c aa3f 5152 9b3e 87b1 be3f
00000010: cc79 273f bea0 893f 226e c93d 2d10 973f
0.3061123 1.3299631 0.3033624 1.4897927 0.6542022 1.075218 0.09835459 1.1801811

attention_do.score_GBN.gamma f4 [2]
00000000: cf07 ce3e 5d0c f13e
0.40240332 0.47079745

attention_do.score_GBN.bias f4 [2]
00000000: 494a 923e d5fe 223f
0.285723 0.6367009

attention_do.score_GBN.m f4 [1, 1, 1, 2]
00000000: fd7d a740 5ab0 de3f
5.2341294 1.7397568

attention_do.score_GBN.s f4 [1, 1, 1, 2]
00000000: 5126 db40 8a2b 4240
6.8484273 3.0339074

attention_do.conv.m f4 [1, 1, 1, 8]
00000000: 5e6e 283f 5f38 613f 7c6a ee3f c0e7 8c3f
00000010: 79e7 163e cd75 873f 43c0 923f ef1f 9f3f
0.65793407 0.8797664 1.8626246 1.1008224 0.14736737 1.0582825 1.1464924 1.243162

attention_do.conv.s f4 [1, 1, 1, 8]
00000000: bb36 133f 7411 4e3e 589c 893f 2cbc c13e
00000010: 6aed 563f 8f18 503f 725c c03e b03e f33e
0.5750539 0.20123845 1.0750837 0.37838876 0.83956015 0.81287473 0.3757053 0.47508764

attention_do.conv.conv.bias f4 [1, 8, 1]
00000000: 32bc aa3f d4ae a23d 7531 c33e 7b47 8b3f
00000010: cc1a 0b3f 40b8 833f 5f69 04bf f9af 63bf
1.3338683 0.07943502 0.3812367 1.0881189 0.54337764 1.0290604 -0.51723284 -0.8894039

attention_do.conv.conv.module.weight f4 [4, 8, 1]
00000000: 01db 1ebf e186 673f c0dd 783e 8ace a73e
00000010: 5279 06bf cf7a fabe be2a 493e e8a7 033f
00000020: 1798 a1bf 7d57 343e 40e3 473e bd56 b0be
00000030: 7447 fdbd f8ff e53d c76c 4cbe a4da c3be
00000040: 7850 933d c42a 1a3d f5a0 ac3e 2838 313f
00000050: 0df5 2a3f c88a 3fbf ef51 dfbe 5364 e83b
00000060: cce2 473f 3418 093f 7e57 cdbd 7926 023e
00000070: 85c5 713e 34e8 113e 2af3 83be 1c4a 71bf
-0.62052923 0.90440184 0.24303341 0.32774764 -0.5252887 -0.4892182 0.19645211 0.5142808
-1.2624539 0.17611499 0.19520283 -0.34441176 -0.12367144 0.11230463 -0.1996337 -0.38252747
0.071930826 0.03763844 0.3371655 0.6922631 0.6678017 -0.7482114 -0.43617198 0.0070920377
0.7808044 0.53552556 -0.100264534 0.12709989 0.23610504 0.14248735 -0.25771457 -0.94253707

quadjetResNetBlock.reinforce.0.sym.weight f4 [8, 1, 2]
00000000: 0000 003f 0000 003f 0000 003f 0000 003f
00000010: 0000 003f 0000 003f 0000 003f 0000 003f
00000020: 0000 003f 0000 003f 0000 003f 0000 003f
00000030: 0000 003f 0000 003f 0000 003f 0000 003f
0.5 0.5 0.5 0.5 0.5 0.5 0.5 0.5
0.5 0.5 0.5 0.5 0.5 0.5 0.5 0.5

quadjetResNetBlock.reinforce.0.antisym.weight f4 [8, 1, 2]
00000000: 0000 003f 0000 00bf 0000 003f 0000 00bf
00000010: 0000 003f 0000 00bf 0000 003f 0000 00bf
00000020: 0000 003f 0000 00bf 0000 003f 0000 00bf
00000030: 0000 003f 0000 00bf 0000 003f 0000 00bf
0.5 -0.5 0.5 -0.5 0.5 -0.5 0.5 -0.5
0.5 -0.5 0.5 -0.5 0.5 -0.5 0.5 -0.5

quadjetResNetBlock.reinforce.0.conv.m f4 [1, 1, 3, 8]
00000000: e735 3940 a0b8 813f 1ad8 1140 05a2 6340
00000010: 6f9f 1340 f99b 6a40 5a0b 8f3f 269b 833f
00000020: ba69 843f 0c40 5a3f 5042 c33f b53f 9a3f
00000030: 037b 913f 8a10 963f 710e 623f 924d 413f
00000040: 5ef6 3c40 7438 a53f 9af7 a73e c5c1 5abe
00000050: 9723 2b3e 178e 1e3d 6eff fd3d ecc7 253f
2.893915 1.0134468 2.2788148 3.556764 2.306606 3.6657698 1.1175339 1.0281723
1.0344765 0.8525398 1.5254612 1.2050692 1.1365665 1.1723797 0.88303286 0.7550899
2.952537 1.2907853 0.32806093 -0.2136298 0.16712795 0.038709726 0.12402235 0.6475818

quadjetResNetBlock.reinforce.0.conv.s f4 [1, 1, 3, 8]
00000000: 2e37 2540 a67e df3f 22d7 1e40 34d9 3840
00000010: 4a52 2f40 6fb1 f23f 185c d43f a0a5 e03f
00000020: 2156 7f3f 6f48 a03f 491f d63f d823 a23f
00000030: 2848 bc3f 6a58 763f b4fa 923f 2671 a13f
00000040: 0088 333f 5541 1a3f 7513 903e 2134 c33d
00000050: 6257 8c3e d7a5 073f 64cc 9e3e aa12 e13e
2.581493 1.7460525 2.4818807 2.888257 2.7393975 1.8960398 1.6590605 1.7550545
0.997408 1.2522105 1.6728297 1.2667189 1.470952 0.9622866 1.1482759 1.2612655
0.70129395 0.6025594 0.28139845 0.09531427 0.27410418 0.52987427 0.31015313 0.43959552

quadjetResNetBlock.reinforce.0.conv.conv.bias f4 [1, 8, 1]
00000000: 3c74 6abf 3ccb 25bf 58a0 ee3e 26ca e6bf
00000010: e0ea 90be 55f6 a4be 5e7a 233e 9175 6fbf
-0.9158361 -0.64763236 0.46606708 -1.8030441 -0.28304195 -0.32219186 0.15964648 -0.9353877

quadjetResNetBlock.reinforce.0.conv.conv.module.weight f4 [4, 8, 3]
00000000: 42c5 ec3d 244a 443e 5c1a 363c 6968 123f
00000010: 55a9 ed3e 176f 75bf 4e1a 0dbf cff3 a63e
00000020: 8577 583e 2da9 06bd 5c9b 27bc c5e0 cc3d
00000030: ff65 d63e c387 b7be abe5 ebbd 90fd 983f
00000040: 1872 11be cd5a a9bd d3e9 4bbb 1a08 033f
00000050: 65ab b3be c61f 123e 2504 9c3f fe0c 053e
00000060: dd86 c2be b4ad 98be 15b5 17be 2b1b 123f
00000070: e5d2 8fbe 512d 6e3e 294e 45bf 990a 113e
00000080: 5d5f 10be 5b08 1bbf af9c b1be 52e0 473e
00000090: 2095 c2be 9971 13bf 8ccc 73be 2a14 4e3f
000000a0: 1907 ebbd 98b2 4bbf e7d6 683e 269c 9a3e
000000b0: c731 333e 32be 503f d5d2 71bd 2dc0 04bf
000000c0: e1c3 4dbf 8e2a 0cbf 7fef 3c3e e231 40be
000000d0: a1f1 e43e 8512 0fbe da89 76be c5f2 483e
000000e0: 0298 0bbe 9013 88be 2884 42bf 4c35 a0bd
000000f0: 5e8c 29be 677c 7abe 8bc8 ba3d a971 733c
00000100: e323 bebe 58a1 a8be 99bd 0e3d e7c9 463d
00000110: 19b1 793e d7c6 663e 230c 84bf dd5f 213f
00000120: e2b2 4c3f 3a17 04bc e4c8 99bd 3b8e 433f
00000130: b81e 133f 7499 d83e de39 26be f7b1 ab3d
00000140: 8b60 1dbe 9ddb e23e 3645 99bd 5e9e c1be
00000150: bc8e b63f ba1c 663f 372b 933e ca5f 293f
00000160: 32ae a03e 9d83 a4be 4876 993e 4247 03bf
00000170: 3024 8e3e b96b efbe 8d34 413f 9c27 5f3e
0.115610614 0.19168907 0.011114683 0.5719057 0.46418253 -0.95872635 -0.5511826 0.32607886
0.21139343 -0.032876182 -0.010229912 0.10003809 0.41874692 -0.35845765 -0.11518415 1.1952381
-0.1420368 -0.08269272 -0.0031114712 0.51184237 -0.350917 0.14269933 1.2188765 0.12993237
-0.37993518 -0.29820025 -0.14815171 0.57072705 -0.28090587 0.23259474 -0.7707239 0.14164199
-0.14098878 -0.60559624 -0.34689853 0.19519165 -0.38004398 -0.5759521 -0.23808497 0.8049952
-0.11475963 -0.7956939 0.22738229 0.30197257 0.17499457 0.81540215 -0.059038956 -0.51855737
-0.8037701 -0.54752433 0.18450736 -0.18769029 0.44715598 -0.13971908 -0.24076024 0.19623859
-0.13632205 -0.26577425 -0.75982904 -0.078226656 -0.16557452 -0.24461518 0.09120282 0.014858642
-0.37136754 -0.32935596 0.034848783 0.048532393 0.24383964 0.22536789 -1.0316204 0.630369
0.79960454 -0.008062178 -0.0750902 0.763889 0.5746875 0.42304575 -0.16233012 0.083835535
-0.1536886 0.44308177 -0.07483904 -0.37816137 1.4262309 0.89887583 0.28743908 0.6616179
0.313829 -0.32131663 0.29973054 -0.51280606 0.27761984 -0.46761873 0.7547081 0.21792454

quadjetResNetBlock.reinforce.1.sym.weight f4 [8, 1, 2]
00000000: 0000 003f 0000 003f 0000 003f 0000 003f
00000010: 0000 003f 0000 003f 0000 003f 0000 003f
00000020: 0000 003f 0000 003f 0000 003f 0000 003f
00000030: 0000 003f 0000 003f 0000 003f 0000 003f
0.5 0.5 0.5 0.5 0.5 0.5 0.5 0.5
0.5 0.5 0.5 0.5 0.5 0.5 0.5 0.5

quadjetResNetBlock.reinforce.1.antisym.weight f4 [8, 1, 2]
00000000: 0000 003f 0000 00bf 0000 003f 0000 00bf
00000010: 0000 003f 0000 00bf 0000 003f 0000 00bf
00000020: 0000 003f 0000 00bf 0000 003f 0000 00bf
00000030: 0000 003f 0000 00bf 0000 003f 0000 00bf
0.5 -0.5 0.5 -0.5 0.5 -0.5 0.5 -0.5
0.5 -0.5 0.5 -0.5 0.5 -0.5 0.5 -0.5

quadjetResNetBlock.reinforce.1.conv.m f4 [1, 1, 3, 8]
00000000: 3ca4 2940 6a82 c23f 9870 0c40 9c9d 7c40
00000010: ff03 3540 7aae 9040 89e0 4a3f d9b7 5a3f
00000020: a8a7 923f 995c 993f 6e7d 9c3f 426e b73f
00000030: 962d 673f 47b4 873f e990 313f 8078 2c3f
00000040: 524d 0640 08cc 923f db92 b03f 66c5 563e
00000050: bec6 1f3f 35c2 d33e ecf5 5c3f a9b7 303f
2.650649 1.5196049 2.1943722 3.9471197 2.828369 4.5212984 0.79248863 0.8543678
1.1457415 1.1981384 1.2225778 1.4330523 0.90303934 1.0601891 0.6936174 0.6737137
2.0984693 1.1468515 1.3794817 0.20973739 0.6241263 0.41359106 0.86312747 0.69030243

quadjetResNetBlock.reinforce.1.conv.s f4 [1, 1, 3, 8]
00000000: 73ec 2140 023d 4240 c72a 1040 dcbb 5840
00000010: 6138 0140 b93d 0840 3673 c73f 3515 c83f
00000020: 2458 9a3f f31a 0e40 889b 983f 0e06 b73f
00000030: 23e2 4d3f 624d 883f abb3 8e3f 7191 953f
00000040: 4887 2740 0230 c43f 8292 c73f 35c1 b63f
00000050: 87d9 723f 4882 a43f 38ca ba3f afc6 7b3f
2.5300567 3.0349736 2.252611 3.386466 2.019066 2.1287673 1.5582035 1.5631472
1.2058148 2.2203948 1.1922464 1.4298723 0.8042318 1.0648615 1.114858 1.168501
2.617632 1.5327151 1.5591586 1.4277712 0.9486317 1.2852259 1.4592962 0.9835004

quadjetResNetBlock.reinforce.1.conv.conv.bias f4 [1, 8, 1]
00000000: e6a2 5b40 0ba8 db3f 2fcc 8a3e 9690 18bf
00000010: 94e1 c33e 91cb d63e 5a14 39bf 71fa 783f
3.4318175 1.7160658 0.27108905 -0.5959562 0.3825804 0.41952184 -0.7229668 0.97257143

quadjetResNetBlock.reinforce.1.conv.conv.module.weight f4 [4, 8, 3]
00000000: f6da f43d 9c86 d7bd 3d45 2dbe 421b 973e
00000010: 4aec 9f3e 8eac 183f f83b b2bf 09b7 0abd
00000020: b38c 2fbd 8a03 993d 7acd 183f 735c 1f3e
00000030: 5fd4 353f ef8d 22bc 25bb e43d 8ecd 133f
00000040: 3d76 94be 3bd5 c2bd c552 7f3f 5e93 cbbd
00000050: 7517 093f e874 10bd 65a6 b1bd 3052 10be
00000060: 31ea bebd 140c a33c 389d 0ebc 5c27 973e
00000070: 870e 953d 8c60 55bf 6a4b c93d 4ad8 9d3d
00000080: 08a9 9f3d 85f6 dc3e 6468 13be e4e7 b63d
00000090: 95d8 5fbf 0c54 37be 326a da3d be8b 01be
000000a0: d7f2 57be 3ec7 033f 13f4 4d3e c85f 05be
000000b0: dbf9 dbbe 2b19 40bf f033 203e 0932 243e
000000c0: bb74 83bf 2e37 fcbe 820e ffbe 8c6c 70bf
000000d0: 11cc 013f fe20 86be 7b1a 283f d04e 273e
000000e0: 4a4c febd 4740 aabf f807 0fbe b1f9 133f
000000f0: d2d7 f43e a2cc 67bb f6b5 f03e 77b3 913f
00000100: 77d9 cdbe 0a63 8d3e 389e 81be 1ab7 47bd
00000110: dddc 76be 9d41 fdbc 503c 50be e144 b13e
00000120: 49de 313e 186a d6be a750 e73e 5ba5 4ebf
00000130: 3ff4 b4be aabb 04be 8529 e63c d4fc 083d
00000140: d786 533e 704e b5bf b47e 8cbe c7dc 293f
00000150: 02d7 52bf 6208 823e 3d48 8f3e a78d cbbf
00000160: 560b 99bc a8a6 883e 943c 7b3d 62b0 bc3d
00000170: 9a52 dfbe faa3 c13e 93aa e9be 540d 253e
0.11955826 -0.105237216 -0.16920944 0.29512984 0.31234962 0.596383 -1.3924551 -0.033865962
-0.04285879 0.07471378 0.5968853 0.1556261 0.7102718 -0.009921535 0.111685075 0.57735527
-0.2899646 -0.09513327 0.9973567 -0.099402174 0.5355142 -0.03526774 -0.08674315 -0.14093852
-0.09322012 0.01990322 -0.008704476 0.29522216 0.072781615 -0.83350444 0.09828837 0.077072695
0.07795912 0.4315683 -0.1439529 0.089309484 -0.8743985 -0.17903155 0.106647864 -0.12650964
-0.2108873 0.51475894 0.20112638 -0.13024819 -0.42964062 -0.75038403 0.15644813 0.16034712
-1.0269998 -0.4926085 -0.49815756 -0.9391563 0.50702006 -0.26197046 0.65665406 0.16338658
-0.12416895 -1.3300866 -0.13967884 0.57802874 0.47820908 -0.0035369773 0.47013825 1.1382893
-0.40204975 0.27614623 -0.25316024 -0.048758604 -0.2410769 -0.030915076 -0.20335507 0.34622863
0.17369951 -0.41877818 0.4517872 -0.8072106 -0.35342595 -0.12962213 0.02809597 0.03344424
0.20656906 -1.4164562 -0.27440417 0.66352504 -0.82359326 0.2539702 0.279848 -1.5902604
-0.018682163 0.2668965 0.06133707 0.0921333 -0.43617707 0.37820417 -0.4563795 0.16118366

quadjetResNetBlock.conv.0.m f4 [1, 1, 1, 8]
00000000: e735 3940 a0b8 813f 1ad8 1140 03a2 6340
00000010: 6f9f 1340 f99b 6a40 5a0b 8f3f 269b 833f
2.893915 1.0134468 2.2788148 3.5567634 2.306606 3.6657698 1.1175339 1.0281723

quadjetResNetBlock.conv.0.s f4 [1, 1, 1, 8]
00000000: a116 3d40 cff1 1340 7800 5740 e013 5840
00000010: 5be0 5340 a465 1b40 61f5 0c40 1a85 1240
2.9545062 2.3116338 3.3594036 3.376213 3.3105686 2.4280787 2.2024767 2.2893739

quadjetResNetBlock.conv.0.conv.bias f4 [1, 8, 1]
00000000: 05c7 b03e 68f3 bc3e eebd 883d 7c74 9f3e
00000010: 2bd5 6b3f 9118 ef3e 1196 14bf 6040 93bf
0.3452684 0.36904454 0.06676851 0.31143558 0.92122144 0.4669843 -0.58041483 -1.1504021

quadjetResNetBlock.conv.0.conv.module.weight f4 [4, 8, 1]
00000000: 20c4 0dbf 85e6 e83e 66a6 7b3e 5e88 1c3f
00000010: a1f9 673f 9c2b a5bf d622 673d b98d c13e
00000020: dffa c5be 73b3 9a3e 7338 e2be 6423 543e
00000030: 87d5 ca3f 0887 c03f 049b 283e 6cb7 863f
00000040: c810 21bf 2f80 07bf 3f8e b8be a23b b6bf
00000050: 24b3 56be 20d6 31bb 2ce4 1cbe 6934 8f3e
00000060: 0dd3 9a3f ba52 cf3e 7cd4 c13e db40 3cbf
00000070: a97c 01bf a5ca 3ebd 118c 7a3d 2c12 803d
-0.5537739 0.45488372 0.24575195 0.6114558 0.9061528 -1.2903934 0.056429707 0.37803438
-0.38667962 0.30215034 -0.44183692 0.20716625 1.5846413 1.5041208 0.16465384 1.0524726
-0.6291623 -0.5292997 -0.36046025 -1.4236948 -0.20966774 -0.0027135685 -0.15321416 0.27969673
1.2095658 0.40492803 0.37857425 -0.7353646 -0.5058084 -0.046579976 0.061168734 0.06253466

select_q.m f4 [1, 1, 1, 8]
00000000: a88a d040 8376 4740 10fe a23f d8d3 723e
00000010: 8a07 743f 2f63 313f f6ee 203f da2b 0940
6.516926 3.1166084 1.2733784 0.23713624 0.95324004 0.6929197 0.62864625 2.1433015

select_q.s f4 [1, 1, 1, 8]
00000000: 29fd 1340 8d33 f53f 517d f53f a9df 733f
00000010: e376 b53f e20c 913f abcd c13f c670 e23f
2.3123267 1.9156357 1.9178869 0.95263153 1.4176906 1.1332057 1.514089 1.7690666

select_q.conv.module.weight f4 [1, 8, 1]
00000000: 3d6a 993c 6953 e2be 69c8 833e 9b2f 993d
00000010: 62d8 e33e eace 9b3d 617a bdbd 2404 14bf
0.018727416 -0.44204262 0.25738838 0.07479783 0.44501024 0.07607825 -0.092518575 -0.5781882

out.m f4 [1, 1, 1, 8]
00000000: 0cb8 ab40 8b21 0140 47a5 0f40 8293 3c3f
00000010: 1c52 ee3f ee6c 9c3f d2ef 843e d1a2 3b3f
5.3662167 2.0176723 2.2444627 0.7366258 1.8618808 1.2220743 0.25964218 0.73295313

out.s f4 [1, 1, 1, 8]
00000000: c915 0740 21d8 833f c647 0740 bb18 963f
00000010: 378b c73f c32c 723f c710 353f b5d7 4d3f
2.1107047 1.0300332 2.1137557 1.1726297 1.558936 0.9459955 0.70728725 0.8040727

out.conv.module.weight f4 [5, 8, 1]
00000000: 7f95 213f 6e72 173b 6baf 263f b1d6 24be
00000010: 9d92 4bbe b2e5 ae3f 49db 10bf 2266 123f
00000020: 400e 2a3f 51c3 ea3e 5651 66be 82c8 aa3c
00000030: 3a8c 98be f43b b83e 87b4 b13d 91fc f43d
00000040: 8495 27be 9a0b 363e b773 863f 6cc9 23be
00000050: ebbd 873d 28ee e43b 2037 a5bd e6db cf3c
00000060: 4220 15bf 27e0 0bbf 58ed 49bf 6c70 8d3f
00000070: 2670 4ebe b53e 71bd 3a99 553e 7ac0 b43e
00000080: 16fb 70bf 1f7a 44bc b142 6ebf 988e bfbe
00000090: c677 d33e a35f 2d3e 1e50 533b 20c7 803d
0.6311874 0.0023108977 0.65111417 -0.16097523 -0.19880147 1.3663847 -0.565846 0.5718709
0.66427994 0.4585214 -0.22491965 0.020847563 -0.29794484 0.3598324 0.08677011 0.11962236
-0.1636563 0.17777863 1.0504063 -0.15994805 0.06628021 0.0069863982 -0.08067155 0.02537341
-0.58252347 -0.54638904 -0.7887778 1.1049933 -0.20159969 -0.058897693 0.20859233 0.35303098
-0.94133127 -0.011992007 -0.93070513 -0.37413478 0.41302317 0.16931014 0.0032243798 0.0628798

out.conv.module.bias f4 [5]
00000000: 25bc 0ac0 fc55 0240 d290 d53e 8517 6abf
00000010: 75e8 19bf
-2.1677334 2.036498 0.41712052 -0.9144214 -0.60120326
