metadata/weights/pytorch_models/2024_HHUL_all_kl/model_SvB_ggF_all_kl__kfolds_3__offset_0__decf9bb3-3d4e-4fa0-8531-23d3d310baf7.pkl (torch, 114822 bytes, 118 tensors)

inputEmbed.ancillaryEmbed.m f4 [1, 1, 1, 4]
00000000: 9f7b 8741 a65b 053f ced0 5140 0fd5 9b3f
16.935362 0.5209297 3.2783694 1.2174395

inputEmbed.ancillaryEmbed.s f4 [1, 1, 1, 4]
00000000: 1d08 5b3f c25f f83e 9614 3940 2b2e 6440
0.85559255 0.48510557 2.8918815 3.5653179

inputEmbed.ancillaryEmbed.conv.module.weight f4 [4, 4, 1]
00000000: b2f9 1a3c 78d6 3fbe 4b88 543c 9f8b 35ba
00000010: 6523 f73d f63e 15be 9745 293d 70fc dd3d
00000020: 4268 a4bd 8ec3 d8be 0d65 cd3d 1599 1b3d
00000030: 28bd b1bc 1f32 91be e1a1 5e3b 79e6 5b3c
0.009458946 -0.18734157 0.012971948 -0.0006925407 0.12067298 -0.14574799 0.04132613 0.10839164
-0.08027698 -0.42336696 0.100290395 0.037987787 -0.021696642 -0.28358552 0.0033971 0.013421648

inputEmbed.jetEmbed.m f4 [1, 1, 1, 4]
00000000: 896e 9140 6090 f23e c3e4 6c3f 33b9 2a40
4.544743 0.47375774 0.9253656 2.6675537

inputEmbed.jetEmbed.s f4 [1, 1, 1, 4]
00000000: 044b ec3e 380e 663f 8192 4a3f a91c b93e
0.46150982 0.89865446 0.791298 0.36154678

inputEmbed.jetEmbed.conv.bias f4 [1, 8, 1]
00000000: 86b0 a13f d795 f33e 0da8 5cbe 20e8 933d
00000010: d838 e6be 0303 45bf 33ef 83be a599 ad3e
1.2631996 0.47575256 -0.21548481 0.07222009 -0.44965243 -0.7695772 -0.25768432 0.33906284

inputEmbed.jetEmbed.conv.module.weight f4 [4, 4, 1]
00000000: a2f1 9d3f 86c8 963d 3292 a73d ee73 e5bf
00000010: a553 fc3e 946d 103b d2c6 30bf e884 0cbf
00000020: 6569 aa3f 93a4 193d bcf6 d93d 1c96 42bd
00000030: cb7d c5bf 62b7 0e3c efa5 89be c75c b73e
1.2339365 0.073624656 0.081821814 -1.7926004 0.49282566 0.002203797 -0.69053376 -0.548903
1.3313414 0.037510466 0.10642764 -0.047506437 -1.5429014 0.008710714 -0.2688441 0.3581297

inputEmbed.jetConv.m f4 [1, 1, 1, 8]
00000000: bad3 8e3f 837c f63e eb68 863e ef18 a13e
00000010: 1129 213d a7d5 94bd 6ef6 813e 2d26 ef3e
1.1158364 0.4814187 0.2625192 0.31464335 0.039345805 -0.072673135 0.25383323 0.46708813

inputEmbed.jetConv.s f4 [1, 1, 1, 8]
00000000: b108 6a3f b888 0f3f 643d 493f fbee 1c3f
00000010: dd11 043f e639 bd3e 1a77 253f 5597 5d3f
0.9141951 0.5606799 0.786093 0.61302155 0.5158976 0.36958236 0.6463486 0.8655904

inputEmbed.jetConv.conv.bias f4 [1, 8, 1]
00000000: e48b bbbd 09d6 23bf 5d03 80bd 79a2 1dbf
00000010: 5d19 2ebf a114 593f 840c 6a3e 6c96 4a3e
-0.091575414 -0.63998467 -0.062506415 -0.6157604 -0.6800745 0.847971 0.22856337 0.19783944

inputEmbed.jetConv.conv.module.weight f4 [4, 8, 1]
00000000: 03fc 8abe a352 84bd bc16 07bf 3647 bcbe
00000010: ed17 8ebe 4729 13bf b633 8b3f 66fe 873e
00000020: 4967 75be 6d42 0abf b7e6 ba3e 6137 c8bd
00000030: 61b4 38bf e8a2 00be 7ea6 98be 0297 8f3d
00000040: 423f 8dbe 30d6 e8bd d674 12bd 5e6b 153f
00000050: 4f40 503f f90b 153e 7df7 393e 8355 66bf
00000060: 7b96 a43e 375b b8be c47b 3ebf 95e2 1f3f
00000070: a9d5 95be e3a1 583e 18e9 db3b 95e3 c4be
-0.27145395 -0.06461074 -0.52769065 -0.3677308 -0.2775263 -0.5748486 1.0875156 0.26561278
-0.23965181 -0.5400761 0.36504146 -0.09776188 -0.72150236 -0.12562144 -0.29814523 0.07011224
-0.27587324 -0.11368978 -0.035755955 0.58366954 0.8134813 0.14555348 0.18160816 -0.8997423
0.32146057 -0.3600709 -0.744076 0.6245511 -0.29264572 0.21155505 0.0067111365 -0.3845488

inputEmbed.othJetEmbed.m f4 [1, 1, 1, 4]
00000000: 07a5 8c40 6551 bf3e b48c 2440 6ecd c53f
4.395145 0.37366787 2.5710878 1.5453317

inputEmbed.othJetEmbed.s f4 [1, 1, 1, 4]
00000000: 8c1b 193f 3c36 8f3f ea9f e23e 743e 3d3f
0.5980766 1.1188426 0.4426263 0.7392342

inputEmbed.othJetEmbed.conv.bias f4 [1, 8, 1]
00000000: a1cc 8f3d 973f 463d 7d65 bf3f f220 41be
00000010: 9c0d 19bf b6c5 febe 4491 65be b324 e0be
0.07021452 0.048400488 1.4952847 -0.18860224 -0.5978639 -0.49760216 -0.22418696 -0.43778

inputEmbed.othJetEmbed.conv.module.weight f4 [4, 4, 1]
00000000: d20f 2fbf 41d9 543c 2e22 88be 2cd3 853f
00000010: f39c cebf abbb a3bc f87d 9abe 3b0e 8ebe
00000020: 06d3 933b 6b92 5e3d 9c8a a33f db91 9e3f
00000030: 0677 9a3f 4ce6 4ebc e74b 0ebf 3c49 413f
-0.68383515 0.0129912505 -0.26588577 1.045507 -1.6141647 -0.019986948 -0.30174232 -0.27745232
0.00451124 0.054338854 1.2776675 1.2388262 1.2067573 -0.012628149 -0.5558457 0.7550237

inputEmbed.othJetConv.m f4 [1, 1, 1, 8]
00000000: f219 6d3e 95a8 253f 755b cb3f 3eff 483e
00000010: 8070 10bc a2bb a53e 8abc 2b3f 0bee 0a3e
0.23154429 0.6471036 1.5887285 0.19628617 -0.008815885 0.32369715 0.6708456 0.13567369

inputEmbed.othJetConv.s f4 [1, 1, 1, 8]
00000000: 28bb ea3e 601e a53f 5920 b33f 009c ff3e
00000010: f24e f13e 021c 623f d585 d13f 49f9 343f
0.45845914 1.2899895 1.3994247 0.49923706 0.47130543 0.88323987 1.6368967 0.7069288

inputEmbed.othJetConv.conv.bias f4 [1, 8, 1]
00000000: aa2a 0140 1163 813f 5e66 1040 ae7a 1540
00000010: 08bc 1040 4bca b63f 388e 8abf b153 5740
2.018229 1.0108358 2.256248 2.3356128 2.2614765 1.4280485 -1.0824652 3.364483

inputEmbed.othJetConv.conv.module.weight f4 [4, 8, 1]
00000000: 01f8 f83e abbd 383f 8ac3 4ebd d515 b4be
00000010: 6512 8ebe 0cf1 2bbf 687d 75bc 6bf0 4d3e
00000020: 005d 86be cf43 32be 1486 263e 29f5 c6bd
00000030: bb7e 533e 2f33 d23d d60e 9ebe 3651 9a3f
00000040: fb5f 983e d03d 12bf 0ced 773e e544 9a3e
00000050: c0af 103f 296f 613f e56e 3ebf 278a c13e
00000060: 5eec 1fbf bfc3 69bf 753c 97be a7c9 6e3e
00000070: 6add 9b3e b6e1 4f3f af5a 783f 6619 1abf
0.48626712 0.7216441 -0.05047945 -0.35172907 -0.2774841 -0.67164683 -0.014983512 0.20111243
-0.26242828 -0.1740868 0.16262084 -0.09714729 0.20653813 0.10263669 -0.30870694 1.2056034
0.29760727 -0.5712557 0.2421152 0.30130687 0.56518173 0.8806024 -0.7438796 0.37800714
-0.6247004 -0.9131431 -0.29538313 0.23319112 0.30442363 0.8120378 0.9701337 -0.60195005

inputEmbed.MdPhi_embed.m f4 [1, 1, 1, 3]
00000000: e627 ab40 24fd e83f 33fe dd3e
5.3486204 1.8202252 0.43358

inputEmbed.MdPhi_embed.s f4 [1, 1, 1, 3]
00000000: c33d 2f3f d510 6d3f 30bb fd3e
0.68453616 0.9260381 0.49556875

inputEmbed.MdPhi_embed.conv.bias f4 [1, 8, 1]
00000000: 73d0 da3e b276 0b3d 017a 5d3f bba1 f43f
00000010: c530 5840 1ca9 0cbf bcde 933d fb18 4e3f
0.4273716 0.034048744 0.8651429 1.9111856 3.3779767 -0.5494554 0.072202176 0.8050687

inputEmbed.MdPhi_embed.conv.module.weight f4 [4, 3, 1]
00000000: d960 48c0 e234 89be c7cc 433f 1e9a 4dbf
00000010: 0d1e 1cbd e2ea 26c0 11b5 1b3d 454b f43d
00000020: 8c2f 763f d2e5 81bd 7f8c ed3f e712 c43e
-3.130911 -0.2679816 0.7648434 -0.8031329 -0.038114596 -2.608086 0.038014475 0.11928419
0.961663 -0.06342663 1.8558501 0.3829567

inputEmbed.MdPhi_conv.m f4 [1, 1, 1, 8]
00000000: 0908 ae3f d0cf 903f 1ce3 673f 1ccc dc3f
00000010: b226 5640 87d1 813f ce95 ce3e bb70 7c3f
1.3596202 1.1313419 0.90580916 1.7249789 3.3461118 1.0142068 0.40348667 0.98609513

inputEmbed.MdPhi_conv.s f4 [1, 1, 1, 8]
00000000: 7efd 0240 8e3c 973f 6088 8a3f 23cb c63f
00000010: 2201 2540 f27d ae3f f6eb 183f 4c63 b53f
2.046722 1.1815355 1.0822868 1.5530742 2.5781941 1.3632185 0.5973505 1.4170928

inputEmbed.MdPhi_conv.conv.bias f4 [1, 8, 1]
00000000: 275e 3b3f a429 5840 3006 0740 fb7a c33f
00000010: d928 38bf a461 d53f 3c63 bb3f 9966 113e
0.7319054 3.3775415 2.1097527 1.5271906 -0.7193733 1.6670423 1.4639659 0.14199294

inputEmbed.MdPhi_conv.conv.module.weight f4 [4, 8, 1]
00000000: 1658 de3d dab4 aabe d6d4 c83d 5049 5c3e
00000010: 81b9 2240 e02b 883e e7d6 10bf 8c1a f83d
00000020: ec31 533e 653c 89bd d5dc 7b3e 79bf 153f
00000030: 7057 043e 8cb1 253e bf20 6bbe e628 b0bf
00000040: 9849 b8bd 000a bb3f 525f cdbd 7016 4f3f
00000050: e4cd 163f f0cd d43e a355 633e 5af4 703e
00000060: dd41 2d3d 090e 1dbf d0ee 56be 2296 3a3e
00000070: abbf b2be f351 9abf f3bb a03d 5744 a3bf
0.10856645 -0.33341104 0.0980622 0.21512341 2.5425723 0.26595974 -0.56577915 0.121144384
0.20624512 -0.067009725 0.2459596 0.5849529 0.1292398 0.1618101 -0.2296171 -1.3762481
-0.08998412 1.4612427 -0.100279465 0.8089361 0.58907914 0.41563368 0.22200637 0.23530713
0.04229914 -0.6134954 -0.20989537 0.18221334 -0.34911856 -1.2056259 0.078483485 -1.2755231

inputEmbed.dijetEmbed.m f4 [1, 1, 1, 4]
00000000: 0ab5 9240 4211 563f abb0 743f c9e2 a240
4.5845995 0.83620083 0.95582074 5.0901837

inputEmbed.dijetEmbed.s f4 [1, 1, 1, 4]
00000000: 7860 403f 8c07 a43f 503b 983f 5897 043f
0.751472 1.2814803 1.1893101 0.5179343

inputEmbed.dijetEmbed.conv.bias f4 [1, 8, 1]
00000000: ecf5 48bd bfcc a83e 94c7 0940 181d f8be
00000010: 37ca d2bd 2671 df3f 97c8 c03e 6366 8cbe
-0.049062654 0.3296871 2.1528063 -0.48459697 -0.10292476 1.7456405 0.37653038 -0.27421865

inputEmbed.dijetEmbed.conv.module.weight f4 [4, 4, 1]
00000000: ac62 8d3f b628 663d 055f 783c 271e 7dbf
00000010: a6a2 433d a885 a83c 71cd 0bbd 091c 16c0
00000020: 7af4 7cbd 9005 233d ab94 82bc 37fe 2940
00000030: 4400 0ebf ce9c 2e3d aaf0 403c 72db 22bf
1.1045737 0.05619117 0.015159373 -0.98874134 0.047762536 0.020571545 -0.03413147 -2.3454611
-0.06175659 0.039800227 -0.015940031 2.656141 -0.55469155 0.04263001 0.011776129 -0.63616097

inputEmbed.quadjetEmbed.m f4 [1, 1, 1, 3]
00000000: 5a77 8a40 a9c8 b73f ade5 c440
4.3270693 1.4358112 6.1530366

inputEmbed.quadjetEmbed.s f4 [1, 1, 1, 3]
00000000: feb4 5f3f f97b e73f 4bfc ab3e
0.8738555 1.8084708 0.33590922

inputEmbed.quadjetEmbed.conv.bias f4 [1, 8, 1]
00000000: 9e50 9cbf 44a2 73bd 179b 95bf 900d b6bf
00000010: b0ad 4a3c ed51 3f3f 46b5 973f 6e56 633f
-1.2212102 -0.05948092 -1.1687955 -1.4222889 0.012370512 0.74734384 1.1852195 0.88803756

inputEmbed.quadjetEmbed.conv.module.weight f4 [4, 3, 1]
00000000: e8fa 1a3f 8d7f b33f 55fe 29be b2ce 403e
00000010: 788d 86bd be62 41bf 1097 423e 2c40 8c3c
00000020: be87 abbf b964 9e3f b474 b9bb 0dfe bcbd
0.605391 1.40233 -0.16600926 0.18828848 -0.06569952 -0.75541294 0.19002938 0.017120443
-1.34008 1.2374488 -0.005659664 -0.09228144

inputEmbed.dijetConv.m f4 [1, 1, 1, 8]
00000000: 8244 003f c733 753f d846 0d40 20cb cdbd
00000010: c9a7 e83e ee83 e53f cdef 8f3f add0 633b
0.50104535 0.9578213 2.207449 -0.10048509 0.4544051 1.7930887 1.1245056 0.0034761832

inputEmbed.dijetConv.s f4 [1, 1, 1, 8]
00000000: e28d 6b3f 2910 b03f 862b 1840 a667 7a3e
00000010: 8b83 773f 3619 0340 36d0 c83f ff63 ab3e
0.9201337 1.3754932 2.3776565 0.24453601 0.96685094 2.0484138 1.5688541 0.33474728

inputEmbed.dijetConv.conv.bias f4 [1, 8, 1]
00000000: 3b65 503f 6eca 35bf 4451 013e e7c4 5e3e
00000010: d99c bebd a218 153e a7c1 a13e 5ce1 8abf
0.81404465 -0.7101201 0.12628657 0.217548 -0.0930726 0.14560178 0.31593058 -1.0850024

inputEmbed.dijetConv.conv.module.weight f4 [4, 8, 1]
00000000: c0b6 94be 9e95 60bf 4efb 033f 13e3 123e
00000010: cbc3 31be 435b 083f d541 8fbf eea4 f23e
00000020: fb61 bf3b e8dd 693e 6cb6 c8bf 95e0 7a3e
00000030: 0f89 ffbe abfd c1bf e4ce 3e3f f80f 373e
00000040: 0610 32bf f52c bcbe 9778 663f a30d d5be
00000050: 294d 7a3e 86b3 6a3f 9485 c8be 6db5 2a3a
00000060: 524e 24bf fa31 21be 7693 55be f3a5 d33e
00000070: 920c dbbe 06a5 b33e 376d 8bbe 5dd4 01bf
-0.29045677 -0.877283 0.51555336 0.14344434 -0.17359845 0.53264254 -1.1191965 0.47391456
0.0058405376 0.22838557 -1.5680671 0.24499734 -0.49909255 -1.5155538 0.7453444 0.17877185
-0.695557 -0.3675305 0.90027755 -0.41611966 0.24443497 0.9168018 -0.39164412 0.000651202
-0.6418201 -0.15741721 -0.20857033 0.41337547 -0.42783028 0.3508684 -0.27231762 -0.50714666

inputEmbed.quadjetConv.m f4 [1, 1, 1, 8]
00000000: 13ab 11be 3699 1f3e 08c4 37bd b671 f6bd
00000010: 674a ac3e 9f5f 2b3f 2d8d 8d3f c046 4f3f
-0.14225416 0.15585789 -0.044864684 -0.120334074 0.33650514 0.6694278 1.1058708 0.8096733

inputEmbed.quadjetConv.s f4 [1, 1, 1, 8]
00000000: 6b05 0d3e e256 ec3e b12e c13e 6858 7d3e
00000010: 08b5 8f3f 4c08 3e3f a87e 963f a5b4 893f
0.13771598 0.46160036 0.37730935 0.24740756 1.1227121 0.7423141 1.1757402 1.0758253

inputEmbed.quadjetConv.conv.bias f4 [1, 8, 1]
00000000: 4f77 ed3f 9c7f 27be a612 773f e218 703e
00000010: 178c 9d3f 0d1a 073e fd8c 0940 1d1c ca3f
1.8552035 -0.16357273 0.9651283 0.23446992 1.2308377 0.13193531 2.1492302 1.578983

inputEmbed.quadjetConv.conv.module.weight f4 [4, 8, 1]
00000000: 8a3d 44be c6e2 febc f07b ba3d 2ee2 d33d
00000010: a8fb ab3d ff3e 113e ca04 303f beb1 21be
00000020: da99 7ebc 3fba f4be 733e 8cbe d1ed b1be
00000030: 2eda 6ebc 3c98 a3bd c209 853d f39b 8ebe
00000040: 8043 14be 4162 ec3c 15b8 703e 0993 dbbd
00000050: ce28 873d 76e8 c5bd 91a9 61be ac20 5f3d
00000060: 2c01 04bd 2a60 babb 4905 95be 8e09 8c3c
00000070: 5b3f 84bb 90dd 85be 4d04 1abe 095f 583d
-0.191641 -0.031113993 0.091056705 0.10345875 0.08397609 0.14184187 0.6875731 -0.1579046
-0.015539611 -0.47798344 -0.27391395 -0.34751752 -0.014578385 -0.07988021 0.06496002 -0.27853355
-0.14478874 0.028855445 0.23507722 -0.10721404 0.0659958 -0.09663479 -0.2203734 0.054474518
-0.03222768 -0.005687733 -0.29105595 0.0170944 -0.004035873 -0.261456 -0.15040703 0.052825008

dijetResNetBlock.reinforce.0.conv.m f4 [1, 1, 3, 8]
00000000: c124 f23d f0d3 e7bd 56b5 913e 4048 20bd
00000010: 0216 00bd a216 353f e0e9 7f3f 09f2 a33f
00000020: 0d3f 003f 8871 b2bd c87f 3a3f 6c90 153f
00000030: 61d2 123d eefa 353f 18c6 8c3e d368 d73c
00000040: e1ee cd3f 5b05 a43f 3aad ae3f 4699 a83e
00000050: 2ac0 8a3f 3ec3 dc3f 98c4 c03f 5329 f1bd
0.118234165 -0.11319721 0.2845866 -0.039131403 -0.03127099 0.7073766 0.9996624 1.2808238
0.5009621 -0.087130606 0.7285123 0.58423495 0.035845164 0.71086013 0.27494884 0.026295101
1.6088525 1.2814134 1.3646615 0.32929438 1.0839894 1.7247083 1.5059996 -0.1177546

dijetResNetBlock.reinforce.0.conv.s f4 [1, 1, 3, 8]
00000000: 12ed 1a3f aa4a 663e 6549 623f 5fc6 ac3e
00000010: 0565 8d3e 9f31 313f 57a3 a53f 53c0 d03f
00000020: bea5 7c3f a442 a03e b05d 823f e31e 3c3f
00000030: 5b96 f43e d2c3 253f 8f23 5c3f e01e 2b3f
00000040: fde7 f53f e80e e53f 7e65 0240 7d62 033f
00000050: 878a f63f 4f23 2c40 8f29 0340 6fe6 903e
0.6051799 0.2248942 0.8839324 0.33745095 0.27616134 0.6921634 1.2940472 1.6308693
0.986904 0.31300843 1.0184841 0.7348463 0.47770962 0.64751923 0.8599176 0.66843987
1.9211422 1.7895174 2.0374446 0.51322156 1.9261025 2.689655 2.0494115 0.28300807

dijetResNetBlock.reinforce.0.conv.conv.bias f4 [1, 8, 1]
00000000: 3433 3fc0 439c b13e 09c7 93bf 88c7 a0bf
00000010: 14ce 90bf bd01 d4bf dd38 373f b5d0 f1bf
-2.9875002 0.3468953 -1.1545116 -1.2560892 -1.131289 -1.656303 0.7157114 -1.8891817

dijetResNetBlock.reinforce.0.conv.conv.module.weight f4 [4, 8, 3]
00000000: fdf1 5fbd 45c2 2ebc 8fce 5bbe 8558 0f3e
00000010: a757 2dbe 253a c4bf 5b36 23be 1c3d 19bf
00000020: 7e53 93be 9ef6 663e 9446 a93e 375f 2ebc
00000030: 55a1 f83d 3b98 59be 0f1b b3bf a1e6 11be
00000040: 2049 783e e932 29bf 691c 9a3e ad6e 8b3e
00000050: 382e 03bf a76f a7bd 678b b4bc 8a49 92be
00000060: ca76 fdbd 5cc1 83be 6b3a 75bf a2f3 8b3c
00000070: a385 3cbe 696f 2d3f e281 383e fe40 0dbf
00000080: a644 19bf cf95 aabc 1bb9 f43d 78a8 b93e
00000090: 4aba 833d 53b2 e23d 981c c33e 5e88 e0be
000000a0: 1001 52bf 3939 9ebe a021 833c 4d56 2fbe
000000b0: 7226 063f ff70 9dbe b97f 19be 7508 543e
000000c0: 5f83 e73d d0fe c23e debc c93f d372 783e
000000d0: 1cb8 4e3f b87a 58be d692 073e b055 26be
000000e0: 3603 a33f 5fee bfbd f9f5 cb3e babd 80be
000000f0: 5cd2 773e 8996 c73e 5ce0 65be af06 fe3d
00000100: 4211 3ebe bf1d a13f e8d2 0d3d d4d7 433e
00000110: 0e4e 8bbe ec50 97bd 4fa1 5f3e 614f a4be
00000120: 06d9 e9bc 0c35 93bd 4a7b 52bc 9fb4 1ebe
00000130: 0f44 333d 0af5 3fbf 3ef2 c53e 60d3 9a3e
00000140: 9394 3abe faa5 4bbd 6b54 b63d 045b 22bf
00000150: 674c fabd 063c c8bd f375 8bbf 976d 8fbd
00000160: 4dd3 f43d 1368 7abe 58f1 963d 3328 993a
00000170: 23ba 11be 1cee e83d 411a 3ebe 742e 28bd
-0.054674137 -0.010666435 -0.21465515 0.13998611 -0.16927968 -1.5330244 -0.15938704 -0.5985887
-0.28774637 0.22555014 0.3306166 -0.010642818 0.12140147 -0.21249478 -1.3992633 -0.14248134
0.24246645 -0.6609331 0.300998 0.27232876 -0.512424 -0.08175593 -0.022039128 -0.2857173
-0.12376173 -0.2573346 -0.95792264 0.017083947 -0.18410353 0.67748123 0.18018296 -0.55177295
-0.59870374 -0.020823387 0.119493686 0.36261344 0.06432016 0.11069169 0.38107753 -0.4385404
-0.8203287 -0.30903032 0.016007245 -0.17122765 0.5240241 -0.30750272 -0.14990129 0.20706351
0.11304354 0.38085032 1.5760763 0.24262552 0.8074968 -0.21140563 0.13239607 -0.16243625
1.2735355 -0.093716376 0.398361 -0.2514475 0.2420134 0.38982037 -0.22448868 0.124036185
-0.18561271 1.2587203 0.034624964 0.191253 -0.27207989 -0.073884815 0.21838878 -0.3209181
-0.028545868 -0.07187852 -0.012846777 -0.15498589 0.043766078 -0.74983275 0.3866138 0.3023939
-0.18220739 -0.049718834 0.0890282 -0.6342013 -0.12221604 -0.097770736 -1.089537 -0.070033245
0.11954365 -0.24453764 0.073702514 0.0011684954 -0.14231162 0.11373541 -0.18564703 -0.041059926

dijetResNetBlock.reinforce.1.conv.m f4 [1, 1, 3, 8]
00000000: 1099 003f 664c ab3e ebcd 583f 74dd 6f3d
00000010: d5b2 43be 642b 8a3f ad93 dd3f 3867 b73f
00000020: f818 053f 167d 323e d696 a53f 337c 4e3f
00000030: f82e 2c3e 7be3 1440 93d0 4f3f cf5f d23e
00000040: d2ad 813f 3eec 4240 c653 5f40 c855 4f3e
00000050: f494 f53f 80ee 2540 70d3 9140 8b84 c83c
0.50233555 0.33456725 0.84689206 0.058560804 -0.19111188 1.0794492 1.7310692 1.4328375
0.51991224 0.17430529 1.2936656 0.8065826 0.16814792 2.3263843 0.81177634 0.4108872
1.0131171 3.045669 3.4894881 0.20247567 1.9186082 2.592682 4.5570602 0.024477264

dijetResNetBlock.reinforce.1.conv.s f4 [1, 1, 3, 8]
00000000: 7363 343f f68e 873f 1069 dc3f 6943 123f
00000010: 4c55 6e3e ae74 933f abe4 1740 944d f73f
00000020: 5344 873f 812a 8c3f 8a73 d73f 7e71 9a3f
00000030: 4e51 393f b34b c83f 9b63 f73f 3e93 b13f
00000040: f92c 9f3f 277b 7340 9cb5 b940 e4a6 093f
00000050: 1a14 7a40 3724 8b40 82e2 9740 b0bc 123f
0.7046425 1.0590503 1.7219563 0.5713411 0.23274726 1.1519983 2.3733318 1.932055
1.0567726 1.0950471 1.6832135 1.2065885 0.72389686 1.5648102 1.9327272 1.387306
1.24356 3.8043916 5.803419 0.5377028 3.907477 4.3481708 4.7464 0.57319164

dijetResNetBlock.reinforce.1.conv.conv.bias f4 [1, 8, 1]
00000000: 3936 dd3f 6beb 72bf 0ca4 1f3e 3a6c 923e
00000010: f6a1 ed3e 1686 dc3e 932b 6ebd aed6 233f
1.7282172 -0.9489047 0.15589923 0.28598195 0.4641263 0.4307105 -0.058147024 0.6399945

dijetResNetBlock.reinforce.1.conv.conv.module.weight f4 [4, 8, 3]
00000000: fa60 0cbd 4799 40bd a440 aebe a8f4 9b3c
00000010: c373 b53d 39ff 1abe 76b4 0fbe a699 41be
00000020: 48d6 22bf b1de 893d 2846 113d e101 efbe
00000030: 7f83 86bd b487 9dbb a005 0ebf d47e 0e3d
00000040: 5661 9ebc c479 69bf 0f1a 343d 12be 7a3d
00000050: fa62 24bf fe89 623d 28f5 c3bd 7422 e6be
00000060: 992d 1b3e 923a 17bd 5104 9bbe 0dcd a039
00000070: 39de 513e 7b1e d13e a429 18be bb95 8abe
00000080: dcb9 783d 3145 f8bd edfa f0bc 9b0d 663d
00000090: 34dc 64be b182 4dbd 206a ca3e 39ee bfbd
000000a0: 598d dcbd 2dfe f53e e2c6 8f3d 3642 073e
000000b0: 3e1c ca3e 3040 683e 889f fd3c 45c1 08be
000000c0: 96ef 083e c216 6dbc af0f 76bf bcda 4d3e
000000d0: 89b2 243f bd1a 48bc 4161 e3be cfcd 10bf
000000e0: 8e84 933e 7512 08be ba6a 0cbe 393a c3be
000000f0: 23e7 63bf 8988 abbd d0ff 44bf 409b 71be
00000100: 4f35 5bbe e7a9 a33d 918e 8b3e faa8 ca3e
00000110: a683 5abe 73d1 1a3e 9824 943d 1ffb 02bf
00000120: f22c e53d be48 cebd ad99 ad3f 7d3e adbd
00000130: 46ec 7dbe cc65 f43d 37d7 7c3e 821e cd3e
00000140: 25b7 4bbf 6c0c b83e 77e1 583e 8794 083e
00000150: 518b 313e 31fe 953c e799 813d 9de6 923d
00000160: 6f6f 683d 0a0b 62bf ba14 d3be d28c cbbe
00000170: a707 2cbf aee1 e5be 635d c6bd ac37 e9be
-0.03427217 -0.047021177 -0.34033692 0.01903756 0.088599704 -0.15136422 -0.14033684 -0.18906268
-0.6360822 0.06731928 0.035467297 -0.4668112 -0.0656805 -0.004807437 -0.55477333 0.03478892
-0.019333523 -0.91201425 0.043970164 0.06121642 -0.64213526 0.05530738 -0.09568244 -0.4494816
0.15154113 -0.03692109 -0.3027673 0.00030670353 0.20494927 0.40843567 -0.14859635 -0.2706736
0.060724124 -0.12122572 -0.029416526 0.05616532 -0.22349626 -0.050173465 0.39534092 -0.09371609
-0.107691474 0.48045483 0.07020356 0.13208851 0.39474672 0.22680736 0.03095986 -0.13354976
0.13372645 -0.014470758 -0.9611768 0.20102972 0.64334923 -0.012213406 -0.44410136 -0.5656404
0.2881207 -0.13288291 -0.13712588 -0.38130358 -0.8902456 -0.083756514 -0.7695284 -0.2359438
-0.21407054 0.07991391 0.27257207 0.39582044 -0.21339282 0.15118961 0.07233542 -0.5116443
0.11190213 -0.10072468 1.3562523 -0.08459184 -0.24797162 0.11933479 0.24691473 0.40062338
-0.7957633 0.35946977 0.21179758 0.13337909 0.17338301 0.018309684 0.06328183 0.07172892
0.056746896 -0.88298094 -0.4122675 -0.39755875 -0.67199177 -0.44898742 -0.09685781 -0.45550287

dijetResNetBlock.conv.0.m f4 [1, 1, 1, 8]
00000000: a383 9e3e ba22 cdbd 39ad 013f e78b 8b3e
00000010: f7e2 153b c788 353f 7526 233f ac4f 273f
0.30959806 -0.10016389 0.5065494 0.27255175 0.0022870877 0.7091183 0.63730556 0.65355945

dijetResNetBlock.conv.0.s f4 [1, 1, 1, 8]
00000000: d836 573f dcb4 8b3e 95a7 7a3f dab6 263f
00000010: 8e87 c83e 4297 2b3f 1c14 943f e297 b23f
0.8406806 0.27286422 0.9791196 0.6512276 0.3916592 0.67027676 1.1568637 1.3952601

dijetResNetBlock.conv.0.conv.bias f4 [1, 8, 1]
00000000: 5545 303e f611 99be 5841 2bbe 6fda c7be
00000010: d921 cabe 98c7 423f 5753 a03d 6f3c 9ebd
0.17213948 -0.29896516 -0.16724145 -0.3903384 -0.3947895 0.76085806 0.07828396 -0.077263705

dijetResNetBlock.conv.0.conv.module.weight f4 [4, 8, 1]
00000000: 7960 2f3e 4fea 013f 03ee 2dbd b5db 6cbf
00000010: ee30 3a3f 0dbe 1c3d 9db1 5abd baf8 913e
00000020: a218 64bd 734d bdbd ffbf 953e 9bff 53bf
00000030: 3ca3 623f 9ec7 543f 6f0c 033f bf1c c73e
00000040: c233 d2bd ed1c cdbe fc1b ab3e fe9a abbe
00000050: 6d7f 21be d7a3 e83e 8cc3 71bf ff01 073e
00000060: 2c7a 5f3d dbbb bcbe ab5a 263f 1f40 7c3c
00000070: debb eabe f90c 3a3e dbdd 473d 0164 ab3d
0.17126645 0.5074815 -0.042463314 -0.92522746 0.7273091 0.038267184 -0.05339204 0.28510076
-0.055687554 -0.09243288 0.29248044 -0.828119 0.88530326 0.8311709 0.5119085 0.3888912
-0.10263778 -0.4006113 0.33419788 -0.33516687 -0.15771265 0.454375 -0.94439006 0.13184355
0.05455987 -0.36862072 0.649821 0.015396147 -0.45846456 0.18169011 0.048795562 0.083686836

attention_oo.q_GBN.gamma f4 [8]
00000000: f6c7 c23d 63a6 a43e d1d2 083e 6037 3e3e
00000010: c8d9 95be 99cc 61bf 77f1 b7bb 0fdc 8f3f
0.09510796 0.32158193 0.1336167 0.18575811 -0.29267716 -0.88202816 -0.0056135016 1.1239032

attention_oo.q_GBN.bias f4 [8]
00000000: 6193 f4bf 9b6a c8bf 1105 f23f 3ce7 b13f
00000010: d839 ad40 1e60 db3f 2a10 75c0 ce22 4bc0
-1.9107476 -1.5657533 1.8907796 1.3898692 5.413311 1.7138708 -3.8291116 -3.1739993

attention_oo.q_GBN.m f4 [1, 1, 1, 8]
00000000: d89b 0040 92e3 543f 6e23 0540 2161 0b40
00000010: d0c5 0740 bb68 ae3f 6469 793e a926 4f40
2.009512 0.83159745 2.0802875 2.1778033 2.1214485 1.3625711 0.2435661 3.2367346

attention_oo.q_GBN.s f4 [1, 1, 1, 8]
00000000: a013 c63f 8665 543f d8f5 0140 bdc1 d23f
00000010: 2335 de3f c273 433f 1a2d 673f 3baf cf3f
1.5474739 0.8296741 2.03063 1.6465374 1.7359966 0.7634851 0.90303195 1.6225351

attention_oo.v_GBN.gamma f4 [8]
00000000: 7dc3 8b3f 1c38 a03f da02 9f3f 6e89 193f
00000010: 0fef 6a40 47e7 6bba 7a72 5c3f c003 863e
1.0919033 1.2517123 1.2422745 0.59975326 3.670841 -0.00089990016 0.8611218 0.26174736

attention_oo.v_GBN.bias f4 [8]
00000000: b98b 083f d774 653f 562b aa3e 1e53 013f
00000010: e3cd 9d3e 5db2 063f 053b a4be 9018 a4be
0.533382 0.8963141 0.33236188 0.5051745 0.30821142 0.5261591 -0.32076278 -0.3204999

attention_oo.v_GBN.m f4 [1, 1, 1, 8]
00000000: d89b 0040 92e3 543f 6e23 0540 2161 0b40
00000010: d0c5 0740 bb68 ae3f 6469 793e a926 4f40
2.009512 0.83159745 2.0802875 2.1778033 2.1214485 1.3625711 0.2435661 3.2367346

attention_oo.v_GBN.s f4 [1, 1, 1, 8]
00000000: a013 c63f 8665 543f d8f5 0140 bdc1 d23f
00000010: 2335 de3f c273 433f 1a2d 673f 3baf cf3f
1.5474739 0.8296741 2.03063 1.6465374 1.7359966 0.7634851 0.90303195 1.6225351

attention_oo.qv_GBN.gamma f4 [8]
00000000: c8f1 513f d968 603f 27c6 5d3f 901a cf3f
00000010: 7d64 0140 2922 c83f ebea e53f baa6 713f
0.82009554 0.87659985 0.8663048 1.6179981 2.0217583 1.5635425 1.7962316 0.9439503

attention_oo.qv_GBN.bias f4 [8]
00000000: ef15 583f 59d8 053f ff33 ff3e 6623 023f
00000010: 5271 e43d cdfa 983e 9c9f 35bf 5b98 5fbe
0.8440847 0.52283245 0.49844357 0.50835264 0.11154427 0.29878846 -0.7094667 -0.21835463

attention_oo.qv_GBN.m f4 [1, 1, 1, 8]
00000000: c911 133f 049b 1b40 0aeb 0040 0ef6 f23f
00000010: ad9d d83f 8186 1340 7cad a13f 8086 783e
0.57449013 2.4313364 2.0143456 1.898134 1.6923119 2.3050845 1.2631068 0.24270058

attention_oo.qv_GBN.s f4 [1, 1, 1, 8]
00000000: c1ce bd3f 5598 cf3f 4aa4 863f dba3 983f
00000010: 0de5 d83f 5cb3 db3f b07c 6f3f d856 393f
1.4828721 1.6218363 1.0518887 1.1925005 1.6944901 1.7164111 0.93549633 0.7239814

attention_oo.score_GBN.gamma f4 [2]
00000000: 463b db3e 3318 003f
0.4281866 0.50036925

attention_oo.score_GBN.bias f4 [2]
00000000: 0915 993f e6ff 0240
1.1959544 2.0468688

attention_oo.score_GBN.m f4 [1, 1, 1, 2]
00000000: de60 743f e0cf 4440
0.9546031 3.0751877

attention_oo.score_GBN.s f4 [1, 1, 1, 2]
00000000: 8f2b ee40 8db2 9d41
7.442817 19.712183

attention_oo.conv.m f4 [1, 1, 1, 8]
00000000: 304f 4c3f fd91 6d3f 2968 813f d80e 863f
00000010: d938 dd3f 35f9 263f 649e 1bbe d35d 17be
0.7980833 0.92800885 1.0109912 1.047328 1.7282974 0.6522401 -0.1519714 -0.14781885

attention_oo.conv.s f4 [1, 1, 1, 8]
00000000: 8d76 073f e9d6 db3e d46e 4a3f f1af cf3e
00000010: 34e2 fc3f 1174 863e 0834 f33d 9e1a 023e
0.5291527 0.429374 0.7907536 0.4056392 1.9756532 0.26260427 0.118751585 0.12705466

attention_oo.conv.conv.bias f4 [1, 8, 1]
00000000: 1854 2440 3c6b 1a3f 0f4d 1e3f 6d9f d43f
00000010: c7cd da3f 63df b53f 7e0c 4ebd 4ff0 1240
2.5676327 0.60319877 0.6183633 1.6611153 1.7094048 1.4208797 -0.050304882 2.2959173

attention_oo.conv.conv.module.weight f4 [4, 8, 1]
00000000: 1b1f a43e 6c02 18bf 97c5 153f fd67 a53e
00000010: 7d05 08be d492 e2be de4f 783e dc23 903e
00000020: e60f 213f d0d8 283d 335d 0fbf 6663 87bf
00000030: 3759 243f af10 653f c49e a73d 59cc 65be
00000040: 83a1 173d 1ee9 60bf 5e6a 00be 8e78 1abf
00000050: b124 c6bd fc43 b63e e0f0 8539 5d4b adbd
00000060: fd05 f2ba d307 cbbe 05eb 8abe d0e5 64be
00000070: 3047 d03e 8a17 9a3e 01d1 d43d fac4 37be
0.32054982 -0.59378695 0.58504623 0.323059 -0.13283344 -0.44252646 0.24249217 0.2815236
0.62914884 0.041222394 -0.56001586 -1.0577209 0.6419863 0.8947858 0.08184579 -0.22441234
0.037019264 -0.8785571 -0.12540576 -0.603402 -0.09674967 0.35598743 0.00025547203 -0.0846164
-0.0018464919 -0.39654407 -0.2713243 -0.22353292 0.40679312 0.30096084 0.10391427 -0.17946234

attention_do.q_GBN.gamma f4 [8]
00000000: 9a67 353f 1e6e a03e 8e55 3a3f 6588 d1bd
00000010: 4464 2a3f de79 163f 1fda 05bf 0bae a03e
0.7086121 0.31334013 0.72786796 -0.10231093 0.66559243 0.58779705 -0.5228595 0.31382784

attention_do.q_GBN.bias f4 [8]
00000000: dc2f 1ec0 787f 35c0 2a96 a93f 3d13 263f
00000010: c021 2240 2047 103f 1d23 953f 13d3 1ec0
-2.471671 -2.835905 1.3248951 0.64873105 2.53331 0.5635853 1.1651341 -2.481633

attention_do.q_GBN.m f4 [1, 1, 1, 8]
00000000: 06b2 4140 5963 933f ae76 0c40 551f c93f
00000010: 9d48 a43f 5534 0940 6480 1340 b8b9 8e3f
3.0264907 1.1514693 2.1947436 1.5712687 1.283466 2.143819 2.3047113 1.1150427

attention_do.q_GBN.s f4 [1, 1, 1, 8]
00000000: 9709 0940 14e8 0040 28b4 7540 8460 f73f
00000010: 6e6f 3640 c28b 1e40 da98 5a40 5f0e 1f40
2.1412103 2.014165 3.8391209 1.9326329 2.8505511 2.4772801 3.4155793 2.4852521

attention_do.v_GBN.gamma f4 [8]
00000000: 4945 b63f b991 933f ebc9 0f3f c6c9 9a3f
00000010: a75e 2b3f f457 473f 8508 083f 8be1 6f3f
1.4239894 1.1528846 0.5616748 1.2092826 0.66941303 0.7786858 0.53138 0.93703526

attention_do.v_GBN.bias f4 [8]
00000000: d92b d6bd 4003 943f 2768 843f de44 d93e
00000010: c1c6 83bf 4620 de3e 03a4 d43f d75a 853f
-0.10457582 1.1563492 1.0344285 0.42435354 -1.029503 0.43383998 1.6612552 1.0418347

attention_do.v_GBN.m f4 [1, 1, 1, 8]
00000000: 092f 9140 3cb6 d43f f496 2240 d114 7840
00000010: a05d 5f40 17a8 4540 f02f 173e de5e af40
4.5369916 1.6618114 2.5404634 3.8762705 3.4900894 3.0883844 0.1476438 5.4803305

attention_do.v_GBN.s f4 [1, 1, 1, 8]
00000000: b1e7 c43f abb3 eb3f b8de e13f 4c52 bb3f
00000010: c44f c63f 71c7 ee3f 4460 4e3f 0fe6 b63f
1.5383207 1.8414205 1.7646093 1.463449 1.5493093 1.8654615 0.8061564 1.4288958

attention_do.qv_GBN.gamma f4 [8]
00000000: 344d 743e 0aeb 773f eae8 003f 16c5 bf3f
00000010: ee84 ab3f 650e 063f 158e 1240 c838 253e
0.23857576 0.96843016 0.503554 1.4982021 1.3399942 0.52365714 2.289922 0.16134942

attention_do.qv_GBN.bias f4 [8]
00000000: 68a7 0dbf f103 973f cb10 993f 2a4a 4b3f
00000010: 6911 e6bf 5e67 023f 9d92 0d40 e09d 473f
-0.55333567 1.1798078 1.195825 0.7941004 -1.7974063 0.50938976 2.2120736 0.77975273

attention_do.qv_GBN.m f4 [1, 1, 1, 8]
00000000: 23b4 4940 a3cc 8a40 5e10 cc3f 9ddf 3e3f
00000010: 6812 a2bd 1a0b 333f 776d e43f 4669 863f
3.1516197 4.33748 1.5942495 0.74559957 -0.07913667 0.69938815 1.7845906 1.0500877

attention_do.qv_GBN.s f4 [1, 1, 1, 8]
00000000: 8415 0e40 c4dc c83f eae6 a03f d46c 443f
00000010: af5f 5b3e 00a5 a33f e256 aa3f 0be7 933f
2.2200632 1.5692372 1.2570469 0.7672856 0.21423219 1.2784729 1.3307765 1.1554884

attention_do.score_GBN.gamma f4 [2]
00000000: ebb3 cf3e 5535 253f
0.40566954 0.64534503

attention_do.score_GBN.bias f4 [2]
00000000: 7e61 9e3e 2cfd 7ebd
0.30933756 -0.062253162

attention_do.score_GBN.m f4 [1, 1, 1, 2]
00000000: 077e 4bbd 3225 cbbd
-0.049680736 -0.09919204

attention_do.score_GBN.s f4 [1, 1, 1, 2]
00000000: a34f e040 a927 8f40
7.0097213 4.4735913

attention_do.conv.m f4 [1, 1, 1, 8]
00000000: 4ba4 a7bd 3b25 913f f062 913f 5153 423f
00000010: d742 22be 3250 eb3e 2e50 0e40 d606 1e3f
-0.08185633 1.1339487 1.1358318 0.7590838 -0.1584581 0.45959622 2.2236438 0.6172918

attention_do.conv.s f4 [1, 1, 1, 8]
00000000: eac0 553e a732 ba3e 2dd2 ac3e 3ac6 083f
00000010: 477a e13e 0c20 c93e 3445 a13f 6ea5 9f3e
0.20874372 0.3636677 0.337541 0.5342747 0.44038603 0.39282262 1.2599244 0.311809

attention_do.conv.conv.bias f4 [1, 8, 1]
00000000: cd2c c43f bdde 7bbf 3a72 c93d da8f 7e3e
00000010: 9d37 dd3c 7182 d83e 8059 3c3d 392b 8d3e
1.5326172 -0.98386747 0.0983624 0.24859563 0.027004058 0.4228702 0.04598379 0.2757204

attention_do.conv.conv.module.weight f4 [4, 8, 1]
00000000: c0b4 eb3d 81b2 863e 60f3 583f 98d3 113e
00000010: 1e45 7e3e d8d2 233e b08b 0bbf 79f0 223e
00000020: c182 963d 5725 3cbf 6bba 5abe a957 06bb
00000030: ba52 f7be a413 e93e fc92 85be 9cfb 7b3d
00000040: 5f07 48be c495 c73e b462 8cbe c9e2 913f
00000050: 2825 6ebe 4ecd 7a3e df9a 093f 8e24 3bbf
00000060: 455c 863e 4237 c73e ebb1 793e b60c cabe
00000070: c45c 44bf 9dfd 723e a028 6e3f 1cb9 b0be
0.11509085 0.26308063 0.8474636 0.14240873 0.24831054 0.159984 -0.5451002 0.15912046
0.07349158 -0.73494476 -0.21360175 -0.0020499027 -0.48305303 0.45522797 -0.26088703 0.06151925
-0.19534062 0.3898145 -0.27419055 1.1397334 -0.23256361 0.2449238 0.5375194 -0.73102653
0.2624227 0.38909346 0.24384277 -0.39462823 -0.7670405 0.23729558 0.9303074 -0.34516227

quadjetResNetBlock.reinforce.0.sym.weight f4 [8, 1, 2]
00000000: 0000 003f 0000 003f 0000 003f 0000 003f
00000010: 0000 003f 0000 003f 0000 003f 0000 003f
00000020: 0000 003f 0000 003f 0000 003f 0000 003f
00000030: 0000 003f 0000 003f 0000 003f 0000 003f
0.5 0.5 0.5 0.5 0.5 0.5 0.5 0.5
0.5 0.5 0.5 0.5 0.5 0.5 0.5 0.5

quadjetResNetBlock.reinforce.0.antisym.weight f4 [8, 1, 2]
00000000: 0000 003f 0000 00bf 0000 003f 0000 00bf
00000010: 0000 003f 0000 00bf 0000 003f 0000 00bf
00000020: 0000 003f 0000 00bf 0000 003f 0000 00bf
00000030: 0000 003f 0000 00bf 0000 003f 0000 00bf
0.5 -0.5 0.5 -0.5 0.5 -0.5 0.5 -0.5
0.5 -0.5 0.5 -0.5 0.5 -0.5 0.5 -0.5

quadjetResNetBlock.reinforce.0.conv.m f4 [1, 1, 3, 8]
00000000: d947 8740 7f70 0d3f b0fc f53f 7bc2 e13f
00000010: fd97 a73f 9b06 0440 cc5d 0240 2851 a23f
00000020: 9795 8a3f bfc7 e13e aa9a 953f d00a 803f
00000030: 630d 733f 7135 673f 2595 953f 59ab 7e3f
00000040: 2192 d03f f4fe b33d 66d6 353f 8a88 3f3e
00000050: 1514 7e3f fa95 7a3e 1802 f93f 36be a93f
4.2275205 0.5524978 1.9217739 1.7637476 1.3093258 2.0629032 2.036975 1.2681017
1.0826901 0.44097707 1.1687825 1.00033 0.949423 0.9031592 1.168614 0.99480206
1.6294595 0.08788863 0.7103027 0.1870443 0.9924939 0.24471274 1.9453764 1.3261173

quadjetResNetBlock.reinforce.0.conv.s f4 [1, 1, 3, 8]
00000000: 76c1 0b40 b8e0 843f 73c2 2940 cf98 ca3f
00000010: 0d5a 0a40 d968 0440 015b 2440 d608 f43f
00000020: ffee 733f cb0a 323f 0d3a c03f 3bbc 663f
00000030: 8629 b93f d4e0 783f 1063 c03f 877d b93f
00000040: b49c 3c3f a10b 8d3e 3724 e33e c22a 3e3e
00000050: 55c9 0f3f f592 3d3f 63d6 083f e34e c13e
2.183683 1.0381079 2.6524932 1.5827883 2.1617463 2.0688994 2.5680544 1.9065197
0.95286554 0.6954772 1.5017716 0.90130967 1.4465797 0.9721806 1.5030231 1.4491433
0.7367661 0.27547935 0.44363567 0.18570998 0.56166583 0.74052364 0.5345213 0.37755498

quadjetResNetBlock.reinforce.0.conv.conv.bias f4 [1, 8, 1]
00000000: a10f 86bf ef64 18bf 6325 513d 1847 98bf
00000010: a07f c33f aa88 b9be c5d5 02bf cd3e 77be
-1.047352 -0.5952901 0.051061045 -1.1896696 1.5273323 -0.3623708 -0.51107436 -0.2414505

quadjetResNetBlock.reinforce.0.conv.conv.module.weight f4 [4, 8, 3]
00000000: 494d 973e 0be3 003d 405b 4fbf 5672 aabd
00000010: 6b55 993e a8c6 8dbe 6078 6f3e 7865 8e3e
00000020: 3b37 d43e 863f 82bf c538 c03e 71d0 95bd
00000030: 84e9 473f 8340 96be bae8 40bd 1724 b13f
00000040: 2d2c 8c3f 6a9e 1a3f 9187 b83e 8058 123f
00000050: 259e aebe dac3 873f 03ce 053d e4e9 ae3e
00000060: aa7a 8b3d c888 813c 021a 233e da79 323f
00000070: a999 1b3e 952b 51bd b366 97bd 52f1 023e
00000080: c45c 13be 67a5 143e b3f7 66bd 8d39 b43e
00000090: 4451 8b3f 1610 0abe 01a7 90be 9b65 4a3d
000000a0: 11a9 ebbe 1133 dcbe 9f66 803b 8df7 cfbd
000000b0: 6800 1d3e fb5d babe 2335 d33d b781 b1bd
000000c0: a126 b53e 8c2f 983f c3bd 5b3d 6899 17bf
000000d0: b085 893f 4bba ae3e 3a08 ca3e 2d7e 2abe
000000e0: 75f3 c6be 6d7d 5d3c 9c78 d9bd f851 803e
000000f0: d23f 1b3f 0592 4dbf 993b 31be 5d79 e13e
00000100: e60d f0bd 499d 06bf c697 03bf da00 bbbe
00000110: e72a 0e3f 553d bebe b64b 8cbe 918d 853e
00000120: 3b42 08bf 5935 163f e184 f93d f380 7d3f
00000130: 6e1f 193f aca7 f6be 6fc9 fa3d 7295 9dbd
00000140: cbf5 523e 6ad7 033f 9175 023f 978b 3fbe
00000150: 07e0 b83d db31 87bf 6228 ee3d 2ade d3be
00000160: 373b 0b3f 5114 a53e 07dd cc3e cca0 993e
00000170: 8c84 cd3c db9c 69bf f95a 203e 221c 783f
0.2955115 0.031466525 -0.8099861 -0.08322589 0.2994798 -0.27690625 0.23385763 0.2781179
0.41448388 -1.0175636 0.37543312 -0.07315148 0.7809069 -0.29346094 -0.047096945 1.3839139
1.0950981 0.6039797 0.3604093 0.5716629 -0.3410503 1.0606644 0.03266717 0.3416282
0.06810506 0.015812293 0.1592789 0.6971718 0.15195335 -0.051066954 -0.07392635 0.12787369
-0.14390856 0.14516221 -0.056388568 0.35200158 1.0884175 -0.13482699 -0.28252414 0.049413305
-0.46027425 -0.4300771 0.0039184834 -0.101546384 0.15332186 -0.36399826 0.103128694 -0.08667319
0.35381034 1.188951 0.053647768 -0.59218454 1.0743923 0.34126505 0.394594 -0.16649695
-0.38857618 0.013518673 -0.106187075 0.25062537 0.6064426 -0.80300933 -0.17307891 0.44037905
-0.11721401 -0.5258375 -0.5140346 -0.36524087 0.55534214 -0.37156168 -0.27401513 0.2608457
-0.5322606 0.5867515 0.12183548 0.99024886 0.5981358 -0.48174798 0.12245452 -0.0769452
0.20601575 0.5150057 0.5096064 -0.18705593 0.09027105 -1.056209 0.11628796 -0.41380435
0.5438723 0.32242063 0.4001238 0.3000549 0.025087617 -0.9125497 0.15659703 0.9691793

quadjetResNetBlock.reinforce.1.sym.weight f4 [8, 1, 2]
00000000: 0000 003f 0000 003f 0000 003f 0000 003f
00000010: 0000 003f 0000 003f 0000 003f 0000 003f
00000020: 0000 003f 0000 003f 0000 003f 0000 003f
00000030: 0000 003f 0000 003f 0000 003f 0000 003f
0.5 0.5 0.5 0.5 0.5 0.5 0.5 0.5
0.5 0.5 0.5 0.5 0.5 0.5 0.5 0.5

quadjetResNetBlock.reinforce.1.antisym.weight f4 [8, 1, 2]
00000000: 0000 003f 0000 00bf 0000 003f 0000 00bf
00000010: 0000 003f 0000 00bf 0000 003f 0000 00bf
00000020: 0000 003f 0000 00bf 0000 003f 0000 00bf
00000030: 0000 003f 0000 00bf 0000 003f 0000 00bf
0.5 -0.5 0.5 -0.5 0.5 -0.5 0.5 -0.5
0.5 -0.5 0.5 -0.5 0.5 -0.5 0.5 -0.5

quadjetResNetBlock.reinforce.1.conv.m f4 [1, 1, 3, 8]
00000000: 691e 7840 8d9f b53f c624 7b3f 2e71 eb3f
00000010: 2a87 cc3f 2942 4940 c11c 903f 7767 af3f
00000020: 7dc8 843f 5b3f 7d3f 1210 3d3f 4e81 573f
00000030: 1535 4d3f 3f65 993f e406 333f bb16 7f3f
00000040: 7926 b93f b800 893e e06a a63f 7d2d 143f
00000050: 1ba7 4840 f030 f53e d0c2 d03f c083 e83f
3.876856 1.4189316 0.98102987 1.8393915 1.5978749 3.144663 1.1258775 1.370345
1.0373684 0.989248 0.73852646 0.8418168 0.8015912 1.1984023 0.6993239 0.9964406
1.4464866 0.2675836 1.3001366 0.5788191 3.1351993 0.478889 1.6309452 1.8165207

quadjetResNetBlock.reinforce.1.conv.s f4 [1, 1, 3, 8]
00000000: 58ad fb3f 22dd 1140 412d e03f 179e bc3f
00000010: d9b8 d13f 57c8 3640 7ab1 db3f ee74 0a40
00000020: 32b4 553f 9ec8 c43f 6ab7 8f3f 04cc 423f
00000030: deac 653f a7da a43f 6244 893f 0c18 b13f
00000040: a237 2140 fa18 863f d6e3 ad3f 4516 c43f
00000050: 288f 1840 ae6e 863f e96a ff3f ecb8 f23f
1.9662275 2.2791219 1.751381 1.4735745 1.6384536 2.8559778 1.7163537 2.1633868
0.8347808 1.5373724 1.1227849 0.76092553 0.897169 1.2879227 1.0723994 1.3835464
2.5190206 1.0476372 1.3585155 1.5319296 2.3837376 1.0502527 1.9954501 1.8962684

quadjetResNetBlock.reinforce.1.conv.conv.bias f4 [1, 8, 1]
00000000: 535e 4a40 faab a5be 836f 893f 0de3 433f
00000010: f56e 603f ba57 9c3e 2035 3340 9b44 0f40
3.162007 -0.3235777 1.0737156 0.76518327 0.87669307 0.3053568 2.8001175 2.2385623

quadjetResNetBlock.reinforce.1.conv.conv.module.weight f4 [4, 8, 3]
00000000: 2cee 32bf fc7f 26be 1a2e c33e fd81 7d3e
00000010: 1d02 87be 5d4a a73e 2748 89bf 4ee2 1b3e
00000020: 7cde 923d d465 e03e 9caa 383e 2c1a 96bc
00000030: 8f35 733e d47a 223e f858 023f 70ff 613f
00000040: 4e14 e63e f729 2cbd 465b ac3f 1a29 053e
00000050: bd6d 6f3e e095 61bf a8f3 863c 9751 20be
00000060: 8577 853e aebb 50be 18cf 21bf 0b51 983e
00000070: 58c7 74bf 0c64 e9be a9b6 123e f8b9 eebd
00000080: 0d54 93be 004e 32bf 2fcc f9bc 8f8d 183f
00000090: 574f 64bf 7a02 323e dbff 473e 1513 b9bf
000000a0: 76af 303e 4178 f33e 9f05 3abf ee35 5abd
000000b0: 1484 2b3f d023 8d3e 87e0 43be c825 babd
000000c0: a321 623f 0236 ad3e 16ac 2ebf a355 a4bf
000000d0: b82f 613c d5de 89be e988 3cbf 7347 a4be
000000e0: 9665 eabe 0d7b 3cbf c2f5 8a3e ea02 a0be
000000f0: 8956 083d f5bd 70bd b875 46be 98a5 e0be
00000100: 7160 9ebe ab56 c83e 9f27 b93e 3b45 7e3e
00000110: 058e c5be 624e d13d cb53 cbbd 3ca0 5a3f
00000120: 104b 6dbd b9c9 513d a9bb f0bd 7054 643f
00000130: f8d6 043e c0d5 62be 614a 7abf 4157 c93d
00000140: 567c 3c3e 2272 b3bc 87ae 2cbe 5759 f33c
00000150: f1b8 edbe 386c 0abe 6e34 e23d 22bd 26bf
00000160: f287 413d 719b c23d 18d0 363f bbb9 f0bd
00000170: d8f5 43bd 5b15 bd3e 3924 d53d dfaf e5be
-0.6989467 -0.1625976 0.3812111 0.24756618 -0.263688 0.32673922 -1.0725144 0.15223047
0.07171342 0.4382769 0.18033832 -0.018323027 0.237509 0.15867168 0.50917006 0.8828039
0.44937366 -0.04203221 1.3465354 0.1300396 0.23381706 -0.88119316 0.016473606 -0.15656124
0.2606775 -0.20384094 -0.63206625 0.2974933 -0.95616674 -0.45584142 0.14327492 -0.116565645
-0.28775063 -0.6965027 -0.03049287 0.59591 -0.89183563 0.17383757 0.19531195 -1.4458948
0.17254433 0.47552684 -0.7266483 -0.053274088 0.6699841 0.27566385 -0.19128619 -0.090892375
0.88332576 0.33830267 -0.6823133 -1.2838634 0.013744287 -0.2692782 -0.7364641 -0.3208576
-0.4578063 -0.7362526 0.27140623 -0.31252223 0.03328565 -0.058774907 -0.19380844 -0.43876338
-0.30932954 0.39128622 0.3616304 0.24831097 -0.38584915 0.102200285 -0.099280916 0.8540075
-0.057932913 0.05121777 -0.11754543 0.8919134 0.12972629 -0.22151852 -0.97769743 0.098310955
0.18406805 -0.021905009 -0.16863452 0.029705686 -0.46430162 -0.13517845 0.110451564 -0.65132344
0.04724879 0.09502304 0.71411276 -0.11754175 -0.047841877 0.36930355 0.104072995 -0.44860741

quadjetResNetBlock.conv.0.m f4 [1, 1, 1, 8]
00000000: d947 8740 7f70 0d3f b0fc f53f 7bc2 e13f
00000010: fd97 a73f 9b06 0440 cc5d 0240 2851 a23f
4.2275205 0.5524978 1.9217739 1.7637476 1.3093258 2.0629032 2.036975 1.2681017

quadjetResNetBlock.conv.0.s f4 [1, 1, 1, 8]
00000000: d37c 2740 5c9c a93f 37ee 5040 bdfe 0440
00000010: cb36 3140 294e 1d40 a799 4c40 90f6 2540
2.6169937 1.3250842 3.2645395 2.078048 2.7689693 2.4578955 3.1968782 2.593174

quadjetResNetBlock.conv.0.conv.bias f4 [1, 8, 1]
00000000: 7f41 a0bd d9e8 f3be a4f0 d9be b75c 9a3d
00000010: 9d60 5f3f 9823 db3d 84b2 b7be f732 4c3e
-0.078249924 -0.47638586 -0.42566407 0.07537215 0.87256795 0.10700148 -0.35878384 0.19941317

quadjetResNetBlock.conv.0.conv.module.weight f4 [4, 8, 1]
00000000: ab23 4fbf 8c08 4b3e 9eaa 393f 2cba 07bf
00000010: 284f 91bb 9dc8 04bf 200f b13e 1670 413f
00000020: 2d90 f7bf 9acc 39be 57d8 9dbf a6f0 cbbe
00000030: 1c79 a03e fe6c 5d3f 3738 423f 8cc5 ad3e
00000040: 7127 cabf 1e53 b2be 6791 02bf 2d72 843c
00000050: 0ea0 c0be ad02 4fbd 3c50 4f3f 80cf 66be
00000060: 6bae 533f 874d 95bf 975f 073f 43f0 50bf
00000070: b096 643d d2e9 e93e c914 d8be f0c3 3b3f
-0.809138 0.19827479 0.72525966 -0.5301845 -0.004434485 -0.5186861 0.34581852 0.75561655
-1.9340874 -0.18144456 -1.2331647 -0.39832038 0.313424 0.86494434 0.7586703 0.3393978
-1.5793287 -0.34829038 -0.51003116 0.016167725 -0.37622112 -0.05053966 0.809818 -0.22540092
0.82688016 -1.1664284 0.52880234 -0.8161661 0.05580777 0.45686203 -0.42203358 0.7334585

select_q.m f4 [1, 1, 1, 8]
00000000: 2310 9f40 4103 003f 94ef 0140 3837 c13f
00000010: ee8b 0440 1b7b 7e3f 927f 9940 a3da 7040
4.97072 0.50004965 2.0302477 1.5094976 2.0710406 0.99406594 4.7968225 3.7633445

select_q.s f4 [1, 1, 1, 8]
00000000: c66e 1140 8d42 983f 651f cf3f 1fc7 f33f
00000010: 38b3 ee3f a75f e03f 8962 fe3f 4061 2740
2.272386 1.189531 1.6181456 1.9045142 1.8648443 1.7529191 1.987382 2.6153107

select_q.conv.module.weight f4 [1, 8, 1]
00000000: 2b5c 4d3e 99f7 9d3e 8a56 083e 9c90 fd3e
00000010: 65c4 f23e 4c74 eebd 6689 8bbe ef76 3abf
0.2005469 0.30852965 0.13314262 0.4952439 0.47415462 -0.116432756 -0.27253264 -0.7283773

out.m f4 [1, 1, 1, 8]
00000000: 010c 9640 cf71 a33f 0dce 1840 93b6 3540
00000010: df0a 1440 27cc ec3e 7feb 8e40 5d61 f73f
4.6889653 1.2769107 2.3875763 2.8392684 2.3131635 0.46249506 4.466247 1.9326588

out.s f4 [1, 1, 1, 8]
00000000: 7682 f93f 55c5 ae3f 66f6 dd3f fcbe c23f
00000010: e513 cb3f 9db4 673f 6958 fe3f de65 aa3f
1.9492939 1.3653971 1.734082 1.5214534 1.5865446 0.9050997 1.9870731 1.3312337

out.conv.module.weight f4 [5, 8, 1]
00000000: 5733 a13b 433c 92be 17c7 b1be fa67 83bf
00000010: f6e8 93bc f7e5 033f 213e 293f 45c8 503f
00000020: 5d2e 4c3f ce6e 01be cf38 42bd 51e6 203f
00000030: a438 17be f4f9 953e c701 8cbe c397 163f
00000040: 3d98 b5be 1345 5e3e 290e 673f bc35 c2be
00000050: e878 543b fb2b bc3e 6dd7 1dbe 6d97 73bd
00000060: e321 aebe baab 183f 6399 47bf 8068 2e3e
00000070: 1d9c 78be a455 78be 67f5 283f 173c a9be
00000080: d39b 43bf b905 2ebf 1a6a 9dbe e9fa 4d3f
00000090: feb1 a53e bec3 2c3d ebf7 00bf 7e87 ef3d
0.0049194503 -0.285616 -0.34722206 -1.0266106 -0.01805542 0.51522774 0.66110426 0.8155559
0.79758245 -0.12639925 -0.04741746 0.62851435 -0.147677 0.29292262 -0.27345106 0.5882532
-0.3546771 0.21706037 0.9025598 -0.3793162 0.0032420699 0.36752304 -0.1541421 -0.059470583
-0.3401023 0.59637034 -0.77968425 0.17032051 -0.24278302 -0.2425142 0.65999454 -0.33053657
-0.76409644 -0.6797748 -0.30745012 0.80460984 0.3236236 0.04217886 -0.5037829 0.11695765

out.conv.module.bias f4 [5]
00000000: 6ddd 03c0 3b29 0140 f525 bf3e ffd3 7ebf
00000010: 4482 18bf
-2.0603898 2.0181415 0.37333646 -0.9954223 -0.5957377
