metadata/weights/pytorch_models/2024_HHUL_all_kl/model_SvB_ggF_all_kl__kfolds_3__offset_1__28ca971a-dd39-41a1-9777-099e8111b004.pkl (torch, 114438 bytes, 118 tensors)

inputEmbed.ancillaryEmbed.m f4 [1, 1, 1, 4]
0	0x41877ca4	16.93586
1	0x3f0594c0	0.521801
2	0x40519b29	3.2750952
3	0x3f9ba4ef	1.2159709

inputEmbed.ancillaryEmbed.s f4 [1, 1, 1, 4]
0	0x3f5b0b38	0.85563993
1	0x3ef884e6	0.48538893
2	0x40393322	2.893746
3	0x4064296b	3.565028

inputEmbed.ancillaryEmbed.conv.module.weight f4 [4, 4, 1]
0	0x3d850b09	0.064962454
1	0x3cb3caa1	0.021947207
2	0x3bd39192	0.0064565623
3	0x3d2e6dbe	0.042585127
4	0xbcaaf3bb	-0.020868173
5	0x3ef6f4b2	0.48233563
6	0xbe41a0db	-0.18909018
7	0xbe26c802	-0.16287234
8	0xbdb58ca9	-0.088647194
9	0x3e6338ba	0.22189608
10	0x3cf2fcb1	0.029661508
11	0xbc5cda2c	-0.013479751
12	0xbc560cf5	-0.013064613
13	0x3d1076de	0.03526961
14	0x3cc8bd72	0.024504397
15	0xbd17c97f	-0.037057396

inputEmbed.jetEmbed.m f4 [1, 1, 1, 4]
0	0x40916e49	4.5447125
1	0x3ef29bd0	0.473845
2	0x3f6cde6f	0.92526907
3	0x402abc00	2.6677246

inputEmbed.jetEmbed.s f4 [1, 1, 1, 4]
0	0x3eec42f9	0.46144846
1	0x3f661aaa	0.89884436
2	0x3f4a8c22	0.79120076
3	0x3eb9172c	0.3615049

inputEmbed.jetEmbed.conv.bias f4 [1, 8, 1]
0	0x3f000e78	0.5002208
1	0x3f30d0f1	0.6906882
2	0xbe1460ec	-0.14490098
3	0x3e0cf72a	0.1376616
4	0x3e9c704f	0.30554435
5	0xbf29e751	-0.66368586
6	0x3eb8135d	0.35952273
7	0xbeda24d8	-0.42606235

inputEmbed.jetEmbed.conv.module.weight f4 [4, 4, 1]
0	0xbf9d0781	-1.2267915
1	0xbe128e92	-0.14312199
2	0xbf5a58d6	-0.852918
3	0x3f096273	0.53665847
4	0x3f96c94f	1.1780185
5	0xbd896ad4	-0.06709829
6	0xbea1b816	-0.3158576
7	0x3f105d66	0.56392515
8	0xbfa76b57	-1.3079633
9	0x3e25e47f	0.16200446
10	0x3e0891d8	0.13336885
11	0x3f1f65a3	0.6226446
12	0x3f4e3243	0.80545443
13	0x3de3c35f	0.111212485
14	0xbea8a5a8	-0.32938886
15	0xbfc4af21	-1.5365945

inputEmbed.jetConv.m f4 [1, 1, 1, 8]
0	0x3f09050e	0.5352334
1	0x3f78b5f4	0.9715264
2	0x3e119eed	0.14220782
3	0x3e9b0dfe	0.30284113
4	0x3eb69a20	0.35664463
5	0x3e553478	0.20820796
6	0x3ed10afa	0.40828687
7	0x3d210ce8	0.03931895

inputEmbed.jetConv.s f4 [1, 1, 1, 8]
0	0x3f2c0026	0.67187726
1	0x3fbccbb7	1.4749669
2	0x3ee8faf6	0.45503968
3	0x3f161e35	0.5863984
4	0x3f369275	0.71317226
5	0x3f295ba2	0.66155446
6	0x3f33b9a9	0.7020517
7	0x3f05c49f	0.52253145

inputEmbed.jetConv.conv.bias f4 [1, 8, 1]
0	0x3f4696b8	0.7757373
1	0xbf84533e	-1.0337903
2	0x3e72dda8	0.23717368
3	0x3f41184d	0.75427705
4	0x3d314c20	0.04328549
5	0x3fc83ca5	1.5643507
6	0xbe5e3d86	-0.21703157
7	0xbee940cd	-0.45557252

inputEmbed.jetConv.conv.module.weight f4 [4, 8, 1]
0	0x3df92f13	0.12167182
1	0x3f09a1c9	0.5376249
2	0x3c67e4e8	0.014153697
3	0x3d9f3c7f	0.077752106
4	0xbee1366d	-0.43986836
5	0xbe8bd872	-0.27313572
6	0x3ebde666	0.37089843
7	0x3ef1835a	0.47170526
8	0x3ee80a86	0.4532053
9	0xbd6d4766	-0.05792942
10	0x3e5eec8c	0.21769923
11	0xbef7456b	-0.4829515
12	0xbe823fb1	-0.25439218
13	0xbda49c9c	-0.08037683
14	0xbf115058	-0.5676322
15	0x3f9592b5	1.1685396
16	0xbf60e355	-0.8784688
17	0x3eae8dc1	0.34092525
18	0x3e579860	0.2105422
19	0xbe9a1e3d	-0.30101195
20	0x3f1fd96a	0.6244112
21	0xbf5d8188	-0.86525774
22	0x3d4026ed	0.046912123
23	0xbf0d8e93	-0.55295676
24	0x3c74dfa2	0.014945896
25	0x3ddd4dca	0.10805853
26	0x3f45a9d3	0.77212256
27	0x3eb47aac	0.3524984
28	0xbed88264	-0.4228698
29	0x3e072ff8	0.13201892
30	0xbf0406fe	-0.5157317
31	0xbe0379bf	-0.12839411

inputEmbed.othJetEmbed.m f4 [1, 1, 1, 4]
0	0x408ca53c	4.39517
1	0x3ebf3f32	0.37352902
2	0x40248fa9	2.5712683
3	0x3fc5c41f	1.5450476

inputEmbed.othJetEmbed.s f4 [1, 1, 1, 4]
0	0x3f192413	0.5982067
1	0x3f8f37bf	1.1188887
2	0x3ee2b75a	0.4428051
3	0x3f3d40a0	0.73926735

inputEmbed.othJetEmbed.conv.bias f4 [1, 8, 1]
0	0xbe0f5a6a	-0.13999334
1	0xbdd69e93	-0.104794644
2	0x3f3df30b	0.7419898
3	0x3f6c2c70	0.92255306
4	0xbe5277d7	-0.20553528
5	0xbe63d1e8	-0.22248042
6	0x3f04cb3a	0.518726
7	0xbf967dab	-1.1757101

inputEmbed.othJetEmbed.conv.module.weight f4 [4, 4, 1]
0	0x3ff9dc20	1.9520302
1	0x3b76ad87	0.0037640051
2	0xbeb56fd1	-0.35436872
3	0x3e1a4439	0.15065087
4	0x3ec81932	0.39081722
5	0xbdc3905c	-0.09549019
6	0xbfc61c9a	-1.5477479
7	0xbf560a83	-0.8360979
8	0x3f0492c4	0.51786447
9	0x3c9707cc	0.018436335
10	0x3ea2979d	0.31756297
11	0xc00f496c	-2.2388563
12	0x3eba5ee4	0.3640052
13	0x3c276e00	0.010219097
14	0x3f4fac78	0.8112254
15	0x3f8a0135	1.0781618

inputEmbed.othJetConv.m f4 [1, 1, 1, 8]
0	0x3edd446f	0.43216273
1	0x3f07297b	0.5279767
2	0x3f7eccde	0.9953135
3	0x3f9aeeb6	1.2104099
4	0x3eb80808	0.35943627
5	0x3ed0f794	0.40813887
6	0x3f62f72f	0.8865842
7	0x3e67ed08	0.22649014

inputEmbed.othJetConv.s f4 [1, 1, 1, 8]
0	0x3f716b0c	0.94303966
1	0x3f9e63c4	1.2374196
2	0x3fdda648	1.731637
3	0x3f91be52	1.1386206
4	0x3f781251	0.9690295
5	0x3f613e4d	0.8798569
6	0x3f602156	0.87550867
7	0x3f84de62	1.0380366

inputEmbed.othJetConv.conv.bias f4 [1, 8, 1]
0	0x4010098f	2.2505834
1	0x3e4e85b0	0.20168185
2	0x3f806e2c	1.0033622
3	0xbea912c5	-0.33022133
4	0x3f6f3941	0.9344674
5	0x3f823b5a	1.0174363
6	0x3ecaad58	0.39585376
7	0x3f9070dc	1.1284442

inputEmbed.othJetConv.conv.module.weight f4 [4, 8, 1]
0	0xbefd83ad	-0.49514523
1	0xbf0b0ac6	-0.54313314
2	0x3e805058	0.25061297
3	0x3e1e3cce	0.15452883
4	0x3f3f8323	0.74809474
5	0x3b5ce8c7	0.0033708082
6	0x3ec453b4	0.3834511
7	0xbf880e40	-1.0629349
8	0xbdf618dd	-0.12016461
9	0xbed41c96	-0.4142806
10	0xbeb8c663	-0.36088857
11	0xbf3ddd55	-0.7416585
12	0x3f89dca5	1.077046
13	0x3ee6c319	0.45070723
14	0xbf7d9186	-0.99050176
15	0x3ef3dd12	0.476296
16	0x3f965237	1.174384
17	0xbe77ae5c	-0.24187607
18	0x3ea094a6	0.3136341
19	0x3e7e5c5f	0.24839924
20	0xbf25aad7	-0.64713806
21	0x3d5dcd4e	0.054150872
22	0xbf08a623	-0.53378505
23	0xbed88e97	-0.42296287
24	0xbf6242df	-0.8838329
25	0xbefa04a6	-0.4883167
26	0xbeef3d63	-0.46726522
27	0xbeaea86a	-0.34112865
28	0x3f68c863	0.90930766
29	0xbdea38b9	-0.114366
30	0x3f149f20	0.58055305
31	0x3eccc151	0.3999124

inputEmbed.MdPhi_embed.m f4 [1, 1, 1, 3]
0	0x40ab27a2	5.348588
1	0x3fe8f8ba	1.8200905
2	0x3eddf22b	0.43348822

inputEmbed.MdPhi_embed.s f4 [1, 1, 1, 3]
0	0x3f2f48f1	0.68470675
1	0x3f6d1213	0.92605704
2	0x3efdb994	0.49555647

inputEmbed.MdPhi_embed.conv.bias f4 [1, 8, 1]
0	0x3fa148b8	1.2600317
1	0x40013f13	2.0194747
2	0x3ec0f7e5	0.3768913
3	0x3f7b294e	0.981099
4	0x3f9ee31d	1.241306
5	0xbdc105f8	-0.094249666
6	0x3f80ec6f	1.0072154
7	0xbfacdf69	-1.3505679

inputEmbed.MdPhi_embed.conv.module.weight f4 [4, 3, 1]
0	0x3dc62d80	0.09676647
1	0x3fbbddb7	1.4677037
2	0x3e4a86be	0.19777963
3	0x3ffa7898	1.9568052
4	0x3ee54eec	0.44786775
5	0xbef6b66f	-0.4818606
6	0x3e9f84ee	0.31156105
7	0xbfc31713	-1.5241417
8	0xbeb7d14e	-0.35901874
9	0x3f2df007	0.6794438
10	0xbf5deae4	-0.8668654
11	0x3fb5e0d3	1.4209236

inputEmbed.MdPhi_conv.m f4 [1, 1, 1, 8]
0	0x3fa81ca7	1.3133744
1	0x3ffa6b69	1.9564029
2	0x3f1ee657	0.6207022
3	0x3f9e3a2d	1.2361504
4	0x3f9b1d3f	1.21183
5	0x3f06339a	0.5242249
6	0x3f8e1d90	1.1102772
7	0x3dcf2759	0.10114927

inputEmbed.MdPhi_conv.s f4 [1, 1, 1, 8]
0	0x3fa23ca2	1.2674754
1	0x3fd41fa6	1.6572158
2	0x3f885619	1.0651275
3	0x3fd11b4c	1.6336455
4	0x3fb3951f	1.4029883
5	0x3f93cb37	1.1546391
6	0x3f94e479	1.1632224
7	0x3ec95bb4	0.39327776

inputEmbed.MdPhi_conv.conv.bias f4 [1, 8, 1]
0	0x3fad25de	1.3527181
1	0xbfa7010a	-1.3047192
2	0x403518d1	2.8296397
3	0x3f90c22b	1.1309255
4	0x3e8c6ca2	0.2742663
5	0xbf1b06dc	-0.6055734
6	0x3fc48dc4	1.5355763
7	0x3e97cabf	0.2964687

inputEmbed.MdPhi_conv.conv.module.weight f4 [4, 8, 1]
0	0xbe8a43ce	-0.27004856
1	0x3f3ae1ae	0.7300061
2	0x3f9a694b	1.2063383
3	0x3e1e70a3	0.15472655
4	0x3f3c304a	0.73511183
5	0xbee150c5	-0.44006935
6	0xbf14282a	-0.57873785
7	0x3c46194c	0.012090992
8	0x3f763c25	0.96185523
9	0xbe272635	-0.16323169
10	0x3f5b13b5	0.85576946
11	0x3e910ae9	0.28328636
12	0xbe621f83	-0.22082333
13	0xc023de31	-2.5604365
14	0x3f1188c2	0.568493
15	0xbf196fe0	-0.5993633
16	0x3d976c70	0.0739373
17	0xbc54f5cf	-0.012998058
18	0xbf4c7d60	-0.7987881
19	0xbea34ce3	-0.31894597
20	0xbf747851	-0.9549609
21	0xbdd11522	-0.10209109
22	0xbce9dde6	-0.028548192
23	0xbe23f84e	-0.1601269
24	0x3f56276e	0.83653915
25	0x3f55a398	0.8345275
26	0xbd3ba6c5	-0.04581334
27	0x3e25867f	0.16164587
28	0x3e056206	0.13025674
29	0x3e9e1bbe	0.3088054
30	0xbe81d013	-0.2535406
31	0x3f9725c6	1.1808403

inputEmbed.dijetEmbed.m f4 [1, 1, 1, 4]
0	0x4092b711	4.584847
1	0x3f561ee4	0.83640885
2	0x3f749eab	0.9555461
3	0x40a2e3fb	5.0903296

inputEmbed.dijetEmbed.s f4 [1, 1, 1, 4]
0	0x3f405172	0.75124276
1	0x3fa3f6ed	1.2809731
2	0x3f9833cb	1.1890806
3	0x3f049564	0.5179045

inputEmbed.dijetEmbed.conv.bias f4 [1, 8, 1]
0	0x3f18921a	0.59597933
1	0xbe068613	-0.13137083
2	0xbc9eec83	-0.019399887
3	0xbd22c6eb	-0.039740484
4	0x3e02a8e2	0.12759736
5	0x3fbc7035	1.4721743
6	0xbf98b58b	-1.1930403
7	0x3f9900da	1.1953385

inputEmbed.dijetEmbed.conv.module.weight f4 [4, 4, 1]
0	0x3fd8baad	1.6931969
1	0x3df16e03	0.11788561
2	0x3ce1dcbb	0.027571073
3	0x3d04d2ba	0.032427527
4	0xbd9ac402	-0.07556917
5	0x3d00daad	0.031458545
6	0x3ce57595	0.028010169
7	0xc0171b8c	-2.3610563
8	0xbf32b0fa	-0.69801295
9	0xbcb05a02	-0.021527294
10	0x3bdeae69	0.0067956937
11	0x3f46b266	0.77615964
12	0xbdbd9c13	-0.092582844
13	0xbd09be3c	-0.033628687
14	0xbcfe2e45	-0.031027922
15	0xc00b4951	-2.1763499

inputEmbed.quadjetEmbed.m f4 [1, 1, 1, 3]
0	0x408a866b	4.3289084
1	0x3fb7b51b	1.4352144
2	0x40c4e721	6.153214

inputEmbed.quadjetEmbed.s f4 [1, 1, 1, 3]
0	0x3f5f9ad7	0.8734564
1	0x3fe73ebc	1.806602
2	0x3eabe3af	0.33572146

inputEmbed.quadjetEmbed.conv.bias f4 [1, 8, 1]
0	0xbf0c601c	-0.5483415
1	0x3e4ff2a6	0.20307407
2	0xbe66571d	-0.22494169
3	0x3d868e1d	0.06570075
4	0xbf050183	-0.5195543
5	0x3dbe360d	0.09287653
6	0xbeb47277	-0.3524358
7	0x3f2a1738	0.6644168

inputEmbed.quadjetEmbed.conv.module.weight f4 [4, 3, 1]
0	0xbf0782a4	-0.52933717
1	0x3e484d38	0.19560707
2	0x3f2f0016	0.68359506
3	0xbe4244e3	-0.1897159
4	0xbf8c6b2e	-1.0970209
5	0x3d3126ef	0.04325002
6	0xbf342fc3	-0.7038538
7	0xbe2a83d7	-0.16651855
8	0xbedb6a56	-0.42854565
9	0xbe1f7cf7	-0.15575014
10	0x3e4a0e8a	0.19732109
11	0xbf81d698	-1.0143614

inputEmbed.dijetConv.m f4 [1, 1, 1, 8]
0	0x3f571f00	0.8403168
1	0x3f2e71c2	0.6814233
2	0x3e888795	0.2666594
3	0x3f2af302	0.6677705
4	0x3f00d87b	0.50330323
5	0x3fcb12a5	1.5865065
6	0xbdd95af4	-0.10613051
7	0x3faa78ba	1.3318093

inputEmbed.dijetConv.s f4 [1, 1, 1, 8]
0	0x3f8642ff	1.0489196
1	0x3f96a349	1.1768581
2	0x3f2b351e	0.66877925
3	0x3f90702b	1.1284231
4	0x3f960e97	1.1723202
5	0x3ffcc802	1.9748538
6	0x3e6a1185	0.22858246
7	0x3fe3f059	1.7807723

inputEmbed.dijetConv.conv.bias f4 [1, 8, 1]
0	0x3c8826ca	0.016620059
1	0xbeefe0cb	-0.4685119
2	0x3f8b5565	1.0885435
3	0xbeb25953	-0.34833774
4	0x3f75186f	0.9574041
5	0x3f33a830	0.7017851
6	0xbfa70b9d	-1.3050419
7	0xbd38f28b	-0.045153182

inputEmbed.dijetConv.conv.module.weight f4 [4, 8, 1]
0	0xbf0ff724	-0.5623648
1	0x3fb994b6	1.4498508
2	0x3d3a8090	0.045532763
3	0x3f011876	0.5042795
4	0xbde55198	-0.111972034
5	0xbf62f05e	-0.8864802
6	0x3ebd5ae0	0.36983395
7	0xbe8aaacb	-0.2708343
8	0x3e96a1fd	0.29420462
9	0x3e6b5c68	0.22984469
10	0xbecdad7f	-0.4017143
11	0x3f06d1a8	0.5266366
12	0xbe4f52b5	-0.20246394
13	0xbf9901ff	-1.1953734
14	0x3ecbc48f	0.397984
15	0xbf824f9c	-1.0180545
16	0x3e3c3a72	0.1838167
17	0xbf9f533e	-1.2447278
18	0xbe55efd2	-0.20892265
19	0xbf167376	-0.5876993
20	0x3e9c2012	0.30493218
21	0xbe16b99d	-0.14719243
22	0xbf0546e2	-0.52061284
23	0xbe191bed	-0.14952059
24	0xbf459271	-0.77176577
25	0xbedc38b6	-0.43012017
26	0x3efb1edc	0.4904698
27	0xbea294d5	-0.31754175
28	0xbeb95eae	-0.36205047
29	0x3f76d03c	0.9641149
30	0x3e85de6e	0.26146263
31	0x3f382dd8	0.7194495

inputEmbed.quadjetConv.m f4 [1, 1, 1, 8]
0	0x3bc130ac	0.0058956947
1	0x3e9b9e7a	0.30394346
2	0x3da6cd05	0.08144573
3	0x3eaf9b92	0.34298378
4	0x3c6cc912	0.014452236
5	0x3ea23790	0.31683016
6	0x3d39bc60	0.045345664
7	0x3f211090	0.629159

inputEmbed.quadjetConv.s f4 [1, 1, 1, 8]
0	0x3ecef22c	0.40419137
1	0x3f4b0501	0.7930451
2	0x3edf0e0d	0.43565407
3	0x3f189f1e	0.59617794
4	0x3ec5dae9	0.38643578
5	0x3f06af5b	0.5261132
6	0x3ec4a55e	0.38407415
7	0x3f5ca2ab	0.8618571

inputEmbed.quadjetConv.conv.bias f4 [1, 8, 1]
0	0xbdda02e0	-0.106450796
1	0xbea32a04	-0.31867993
2	0xbf3e249b	-0.74274606
3	0x3ebe224e	0.37135547
4	0xbf135938	-0.5755801
5	0x3f40a361	0.75249296
6	0x3f684aad	0.90738946
7	0x3ff71979	1.9304649

inputEmbed.quadjetConv.conv.module.weight f4 [4, 8, 1]
0	0xbd3dafed	-0.046310354
1	0x3dbeacac	0.09310278
2	0xbd4099ae	-0.04702156
3	0xbdb6d8b7	-0.08928054
4	0x3eb2e656	0.34941357
5	0x3e95e698	0.29277492
6	0x3de8c8b1	0.11366404
7	0x3c48bda3	0.012252244
8	0xbe4d77d0	-0.20065236
9	0x3d27666e	0.04086917
10	0x3da62e45	0.08114294
11	0x3dbd6f4d	0.092497446
12	0x3ea60c34	0.32431185
13	0xbc440da7	-0.011966146
14	0xbd9ef6ac	-0.07761893
15	0xbf124fa4	-0.5715277
16	0x3e4a5988	0.19760716
17	0x3e763030	0.2404182
18	0x3cbc336a	0.022973735
19	0x3e4c2273	0.19935016
20	0x3ed3d818	0.41375804
21	0x3e9df0f5	0.30847898
22	0x3db5ed80	0.0888319
23	0x3d20ed38	0.03928873
24	0x3cb448e4	0.022007413
25	0xbd9ca721	-0.07649065
26	0x3e07e246	0.1326991
27	0xbd7be6a4	-0.061499253
28	0x3e73b17b	0.23798172
29	0x3c1b4b2e	0.009478373
30	0x3d55297f	0.052041527
31	0xbd6e3f4e	-0.05816584

dijetResNetBlock.reinforce.0.conv.m f4 [1, 1, 3, 8]
0	0x3fa1832a	1.2618153
1	0x3e23fd76	0.16014656
2	0x3f4b47dc	0.79406524
3	0x3ec23af4	0.37935603
4	0xbd9d6c4e	-0.07686673
5	0x3ff10f55	1.8832804
6	0x3db58434	0.08863106
7	0x3ea2aeb3	0.3177391
8	0x3e7be57c	0.2459926
9	0x3df43f8b	0.11926182
10	0x3eee57fd	0.46551505
11	0x3fa4d007	1.2875985
12	0x3f18cb32	0.5968505
13	0x3fa21ae2	1.2664454
14	0x3f2707c2	0.6524621
15	0x3d941407	0.072303824
16	0x3f77dded	0.96823007
17	0x3f8c8c9c	1.098041
18	0x3fa6d1b0	1.3032742
19	0x3f4ebf86	0.8076099
20	0x3fc8c46c	1.5684943
21	0x3fd4d43a	1.6627266
22	0x3e4dd943	0.2010241
23	0x3f6b12fa	0.9182583

dijetResNetBlock.reinforce.0.conv.s f4 [1, 1, 3, 8]
0	0x3f857af2	1.0428145
1	0x3f6c629d	0.9233797
2	0x3f8a1925	1.0788924
3	0x3f46468e	0.7745141
4	0x3e79128c	0.24323481
5	0x3fcc0a74	1.594069
6	0x3f15db90	0.5853815
7	0x3f267337	0.65019554
8	0x3f19f7d3	0.60143775
9	0x3f422a0d	0.75845414
10	0x3f8c7daa	1.097585
11	0x3f9a7770	1.20677
12	0x3f2fdd94	0.68697476
13	0x3f9f55f9	1.2448112
14	0x3f8b3c5b	1.0877794
15	0x3f29900f	0.6623544
16	0x3fff58bd	1.9948956
17	0x3fd8ad89	1.6927959
18	0x3f8140ec	1.0097938
19	0x3fcb938b	1.5904402
20	0x3fd932f4	1.6968675
21	0x40194f8a	2.3954797
22	0x3f9e9191	1.2388173
23	0x3fa11155	1.2583414

dijetResNetBlock.reinforce.0.conv.conv.bias f4 [1, 8, 1]
0	0x3fbddc2a	1.4832814
1	0x3f31e3d0	0.6948824
2	0x3e1016b7	0.14071165
3	0xbf7b3cbf	-0.98139566
4	0x3e7b6f61	0.24554206
5	0xbedd0206	-0.43165606
6	0xbfb267d6	-1.3937938
7	0xbf6b97fb	-0.9202878

dijetResNetBlock.reinforce.0.conv.conv.module.weight f4 [4, 8, 3]
0	0x3ed5bcbf	0.41745564
1	0x3eb5b0f3	0.35486564
2	0xbfc38900	-1.5276184
3	0xbe2ec7d6	-0.17068419
4	0xbe04fa4a	-0.12986103
5	0xbf399106	-0.72486913
6	0x3cb0a89f	0.02156478
7	0xbdb0befb	-0.08630177
8	0x3f2d0d20	0.6759815
9	0x3e25391f	0.16135071
10	0x3f044b29	0.51677185
11	0x3e39870f	0.18117927
12	0xbeb85f80	-0.3601036
13	0xbe872ddd	-0.26402178
14	0x3f0edcea	0.5580584
15	0x3e29a674	0.16567403
16	0x3e2a92dc	0.16657585
17	0x3e9f6790	0.311337
18	0x3d72064b	0.059088033
19	0x3dd65a45	0.10466436
20	0xc02ee874	-2.7329378
21	0x3e5ceaee	0.21573994
22	0xbeb40217	-0.35157844
23	0xbdc28a35	-0.09499017
24	0xbe2f6641	-0.1712885
25	0x3d859beb	0.065238796
26	0xbe44ec75	-0.19230826
27	0xbe5a25fd	-0.21303554
28	0xbf1c94ce	-0.6116456
29	0x3e8b3e90	0.2719617
30	0xbe118442	-0.14210609
31	0xbe0c69c1	-0.13712217
32	0xbf5accf4	-0.85468984
33	0x3e814c84	0.2525369
34	0xbd789467	-0.060688403
35	0xbee37dd5	-0.4443194
36	0x3e22dc56	0.15904364
37	0x3de2595b	0.110521995
38	0xbf8862c6	-1.0655143
39	0xbe8b0f9a	-0.2716034
40	0xbda27ebd	-0.0793433
41	0xbf34d936	-0.7064394
42	0x3c0321ba	0.0080036465
43	0x3dd75a34	0.10515252
44	0x3f13f6c4	0.5779841
45	0xbe518253	-0.20459871
46	0xbdcbed62	-0.099573866
47	0x3f121282	0.5705949
48	0xbeeedd6b	-0.46653304
49	0xbc3f6188	-0.011680968
50	0xbe8dcc6a	-0.27695018
51	0xbedf4603	-0.43608102
52	0xbf0fd681	-0.5618668
53	0xbf02754e	-0.5096024
54	0x3d600f49	0.054702077
55	0x3d659ece	0.05605965
56	0xbda1d484	-0.07901862
57	0x3dabf039	0.08395428
58	0xbe880fb1	-0.26574472
59	0xbcc69a15	-0.024243394
60	0x3e2b5310	0.16730905
61	0x3e9196ec	0.28435457
62	0x3e23dc4d	0.16002007
63	0x3e266eff	0.16253279
64	0x3ec48abf	0.38387105
65	0xbe46ec61	-0.19426109
66	0xbe8b8646	-0.2725088
67	0x3d72cd32	0.05927772
68	0xbfe41fd7	-1.7822217
69	0x3e503da3	0.20336013
70	0x3e1cb22a	0.15302339
71	0xbc55d328	-0.013050832
72	0x3e260f8f	0.16216873
73	0x3e65616a	0.22400442
74	0xbebb5faf	-0.36596438
75	0xbebf4e76	-0.37364548
76	0xbf0cb2ca	-0.5496031
77	0xbf87015d	-1.0547291
78	0x3e71e06e	0.2362077
79	0x3e3bd5b3	0.18343239
80	0x3ff98751	1.949442
81	0xbd378ab0	-0.044809997
82	0xbdbb62e0	-0.09149718
83	0xbeff7532	-0.498941
84	0x3dfafb90	0.12255013
85	0x3e42dbf3	0.19029216
86	0x3f92dbad	1.147329
87	0x3e5f393d	0.21799178
88	0x3ea9f164	0.3319198
89	0xbf4d928a	-0.80301726
90	0x3dc1caa0	0.09462476
91	0x3df7e2b7	0.12103789
92	0xbf5fe19f	-0.87453645
93	0xbbacc303	-0.0052722706
94	0xbe5bda0f	-0.21469902
95	0x3d44141e	0.047870748

dijetResNetBlock.reinforce.1.conv.m f4 [1, 1, 3, 8]
0	0x3fbfb215	1.4976221
1	0x3e92974c	0.28631055
2	0x3fe50ce3	1.7894558
3	0x3f3a32c1	0.72733694
4	0x3d55f401	0.052234653
5	0x40328588	2.7894
6	0x3e91a79b	0.28448185
7	0x3f066ae6	0.52506864
8	0x3fd263a9	1.6436664
9	0x3d82dc27	0.06389647
10	0x3f318c2c	0.6935451
11	0x3fea84a3	1.8321728
12	0x3e237f57	0.15966545
13	0x4042a3cc	3.0412474
14	0x3fb36c31	1.4017392
15	0x3e0b64f6	0.13612732
16	0x3ff94b5c	1.9476123
17	0x405523d3	3.3303115
18	0x4011141f	2.266853
19	0x3ff0c4d5	1.8810068
20	0x3fabd894	1.3425469
21	0x405305b5	3.2972233
22	0x3f52be9c	0.82322097
23	0x400fedec	2.2488966

dijetResNetBlock.reinforce.1.conv.s f4 [1, 1, 3, 8]
0	0x3fb5fb5c	1.4217334
1	0x3fbf04b0	1.4923306
2	0x3fe1597f	1.7605437
3	0x3f98b3da	1.1929886
4	0x3ef87d21	0.48532966
5	0x3fcb7199	1.5894042
6	0x3f7cb2a4	0.98710084
7	0x3f9c085c	1.2190051
8	0x3fb15d6b	1.3856634
9	0x3f80f878	1.0075827
10	0x3fb36086	1.4013832
11	0x3fd608e9	1.6721469
12	0x3f4e6c12	0.8063365
13	0x3fc18b5b	1.5120653
14	0x3fe88816	1.816653
15	0x3f625076	0.88404024
16	0x3fa012ae	1.25057
17	0x40872020	4.2226715
18	0x3fee47fb	1.8615717
19	0x400a4f19	2.1610777
20	0x404788d4	3.1177263
21	0x40902456	4.5044355
22	0x404438d2	3.065968
23	0x4079112c	3.891673

dijetResNetBlock.reinforce.1.conv.conv.bias f4 [1, 8, 1]
0	0xbe2db82e	-0.1696479
1	0xbf4fcc17	-0.8117079
2	0x3f1f7e0a	0.62301695
3	0x3f1e1071	0.6174384
4	0x3fb21dd4	1.3915353
5	0x3f8461f2	1.034239
6	0x3dea4839	0.11439557
7	0x3e38864c	0.1801998

dijetResNetBlock.reinforce.1.conv.conv.module.weight f4 [4, 8, 3]
0	0x3d421a27	0.047388222
1	0xbdbd5bff	-0.092460625
2	0xbf3c93ab	-0.73662823
3	0x3c587eb1	0.013213799
4	0x3cf535d9	0.029932903
5	0x3df9bb90	0.12193978
6	0xbe229040	-0.1587534
7	0xbc42d265	-0.011890982
8	0xbf41e494	-0.7573941
9	0xbd35a827	-0.044349816
10	0x3e30f3c4	0.17280489
11	0x3e73b782	0.23800471
12	0xbe4c2aca	-0.19938198
13	0x3c988158	0.018616363
14	0xbf05c91b	-0.5225999
15	0xbb327fdc	-0.0027236855
16	0xbd583af7	-0.05279061
17	0xbee82878	-0.45343375
18	0x3de717d7	0.11283844
19	0x3cf9d96a	0.030499179
20	0xbeee6aae	-0.46565765
21	0xbd96a948	-0.073565066
22	0xbc521575	-0.012822499
23	0x3f71f645	0.945164
24	0xbe6ac6e2	-0.2292743
25	0xbc3fd4a6	-0.011708414
26	0x3ec74002	0.38916022
27	0xbd8784b5	-0.06617109
28	0xbe3e72d6	-0.18598494
29	0x3f0399e4	0.51406693
30	0x3da3bcd3	0.07995
31	0x3df83765	0.12119941
32	0xbde5bc03	-0.11217501
33	0xbd8a1355	-0.067419685
34	0xbe2b53d5	-0.16731198
35	0xbe66f236	-0.22553334
36	0x3bf43382	0.0074524293
37	0xbd1f8a12	-0.038950033
38	0x3ec5b0bf	0.3861141
39	0xbd86e9c4	-0.06587556
40	0xbd93e676	-0.07221691
41	0x3f50b620	0.815279
42	0xbdb757e8	-0.08952314
43	0xbe133b46	-0.1437808
44	0x3eb198c0	0.34686852
45	0x3e369c13	0.17832975
46	0x3d8379d4	0.06419721
47	0x3eb17c1a	0.34664994
48	0xbdb5497f	-0.08851909
49	0xbd7ba12c	-0.061433002
50	0xbf3f51ff	-0.7473449
51	0x3e731441	0.23738195
52	0x3c798516	0.015229484
53	0x3db66584	0.08906081
54	0x3f111057	0.5666556
55	0x3db84925	0.08998326
56	0xbfbe71a0	-1.4878426
57	0x3e2d826f	0.16944288
58	0xbd9ded34	-0.077112585
59	0xbf45d389	-0.772759
60	0x3d20e358	0.039279312
61	0x3e50d3cc	0.20393294
62	0x3d5e46a0	0.054266572
63	0x3e58046f	0.21095441
64	0x3f02cf60	0.5109768
65	0xbfb5c41e	-1.4200475
66	0xbe89b3e1	-0.2689505
67	0xbe0fe268	-0.14051211
68	0x3e53fe65	0.20702513
69	0xbe7e15f6	-0.24813065
70	0x3d963162	0.07333638
71	0x3e203a14	0.15647155
72	0x3e06e017	0.13171421
73	0x3e2fd4dd	0.17171045
74	0x3eeb05c6	0.45902842
75	0xbe1f40ad	-0.15552016
76	0xbde1f23b	-0.1103253
77	0xbce17fb5	-0.027526716
78	0xbec18e67	-0.37803957
79	0xbd6e634c	-0.058200166
80	0x3eec1cf6	0.46115845
81	0xbc8d5d84	-0.017256506
82	0xbd18ec31	-0.037334625
83	0x401ad47f	2.4192197
84	0x3d90bbe7	0.070670895
85	0xbeacf982	-0.3378411
86	0xbd329a05	-0.043603916
87	0xbea6350c	-0.32462347
88	0xbeeeecf7	-0.46665165
89	0x3f197d58	0.59956884
90	0x3e898a65	0.268634
91	0x3ec3dabc	0.3825282
92	0x3f0abec3	0.5419733
93	0xbe37acca	-0.17937008
94	0xbe2b0ef4	-0.16704923
95	0x3e942d09	0.2894061

dijetResNetBlock.conv.0.m f4 [1, 1, 1, 8]
0	0x3f40ffd9	0.7539039
1	0x3e0f0e9e	0.1397042
2	0x3f2139ee	0.6297902
3	0x3f555ec5	0.8334773
4	0x3e851daa	0.25999194
5	0x3fc9951c	1.574863
6	0x3ebdb84a	0.37054664
7	0x3e47b3b3	0.19502144

dijetResNetBlock.conv.0.s f4 [1, 1, 1, 8]
0	0x3f7dc3c5	0.99126846
1	0x3f5862e0	0.8452587
2	0x3f8ce105	1.100617
3	0x3f8e35f3	1.1110214
4	0x3f1d9b67	0.6156525
5	0x3fbb451e	1.4630468
6	0x3f6af85c	0.91785216
7	0x3f2aef12	0.6677104

dijetResNetBlock.conv.0.conv.bias f4 [1, 8, 1]
0	0x3f50c2bd	0.8154715
1	0xbf1fc3f5	-0.6240838
2	0x3e7d0708	0.24709713
3	0x3e7be9f3	0.24600963
4	0xbf6608a8	-0.8985696
5	0x3fa2e9c1	1.2727586
6	0x3d9e4967	0.07728844
7	0xbe8ad686	-0.27116793

dijetResNetBlock.conv.0.conv.module.weight f4 [4, 8, 1]
0	0xbe9f7f09	-0.31151608
1	0x3e0aaf7d	0.13543506
2	0x3daa616d	0.08319364
3	0x3e99bf84	0.30028927
4	0x3d321dbf	0.0434854
5	0xbf1b28b6	-0.60608995
6	0x3ecf8a54	0.40535223
7	0xbf1abae0	-0.604414
8	0x3dcd29b1	0.10017718
9	0x3ed87eab	0.4228414
10	0xbf28b309	-0.65898186
11	0xbecd9ac5	-0.40157142
12	0xbe7d18fc	-0.24716562
13	0x3eec5c8e	0.46164364
14	0x3df0b04c	0.11752376
15	0x3f100f63	0.5627348
16	0x3e838084	0.25683987
17	0xbf2226d3	-0.6334049
18	0xbdbf5ac1	-0.09343482
19	0xbf74c2cf	-0.95609754
20	0xbe7eed99	-0.24895324
21	0x3e2fcbbc	0.17167562
22	0x3e4f5312	0.20246533
23	0xbe4dbc3a	-0.20091334
24	0xbec1099e	-0.3770265
25	0xbec43ccd	-0.38327637
26	0x3f15bc2c	0.5849025
27	0x3f42dbc4	0.76116586
28	0xbe74b27f	-0.23896216
29	0xbdb7429c	-0.089482516
30	0xbf3dd696	-0.7415556
31	0xbee51f93	-0.44750652

attention_oo.q_GBN.gamma f4 [8]
0	0x3d22b241	0.039720777
1	0xbe293ba0	-0.16526651
2	0x3ea100da	0.31445962
3	0x3e627e4c	0.22118491
4	0x3d3faabc	0.046793684
5	0x3f11a441	0.56891257
6	0x3ec19def	0.37815806
7	0xbf2db24a	-0.6785017

attention_oo.q_GBN.bias f4 [8]
0	0xbd86d050	-0.06582701
1	0xbf7aee69	-0.98020035
2	0x403b8ff4	2.9306612
3	0xbe8d3c39	-0.2758501
4	0xbee960b2	-0.45581585
5	0x3f7dde0f	0.9916696
6	0xbf86571c	-1.0495334
7	0x40316e12	2.7723432

attention_oo.q_GBN.m f4 [1, 1, 1, 8]
0	0x400713e6	2.1105895
1	0x3eeb35be	0.4593944
2	0x3f99f177	1.2026814
3	0x3ec34d9d	0.38145152
4	0x3f4eb2a2	0.8074132
5	0x3f874562	1.0568049
6	0x3f61c858	0.88196325
7	0x3f93be64	1.1542478

attention_oo.q_GBN.s f4 [1, 1, 1, 8]
0	0x3f8b9a1f	1.0906409
1	0x3fb2d261	1.3970453
2	0x3fe3f3a8	1.7808733
3	0x3f3ceb07	0.73796123
4	0x3f79fc1d	0.9765032
5	0x3f365ab1	0.71232134
6	0x3f9f0691	1.2423879
7	0x3fcc0787	1.5939797

attention_oo.v_GBN.gamma f4 [8]
0	0x3f1d4f6e	0.61449325
1	0x3fab605c	1.3388782
2	0x3f2fb975	0.6864236
3	0x4017388a	2.3628259
4	0x3fdefc89	1.7420818
5	0x3ec2f7ad	0.38079587
6	0x3fe349e4	1.7756925
7	0x3f56a6a9	0.83848053

attention_oo.v_GBN.bias f4 [8]
0	0x3f0964b0	0.5366926
1	0x3edf3a24	0.43599045
2	0x3fab3cac	1.337789
3	0xbf7fb6f7	-0.9988856
4	0x3ee7965e	0.4523191
5	0xbf60abcb	-0.87762135
6	0x3f862b69	1.0481998
7	0x3f95f78b	1.1716169

attention_oo.v_GBN.m f4 [1, 1, 1, 8]
0	0x400713e6	2.1105895
1	0x3eeb35be	0.4593944
2	0x3f99f177	1.2026814
3	0x3ec34d9d	0.38145152
4	0x3f4eb2a2	0.8074132
5	0x3f874562	1.0568049
6	0x3f61c858	0.88196325
7	0x3f93be64	1.1542478

attention_oo.v_GBN.s f4 [1, 1, 1, 8]
0	0x3f8b9a1f	1.0906409
1	0x3fb2d261	1.3970453
2	0x3fe3f3a8	1.7808733
3	0x3f3ceb07	0.73796123
4	0x3f79fc1d	0.9765032
5	0x3f365ab1	0.71232134
6	0x3f9f0691	1.2423879
7	0x3fcc0787	1.5939797

attention_oo.qv_GBN.gamma f4 [8]
0	0x3f18ab70	0.5963659
1	0x3ea5d3c4	0.32388127
2	0x40323794	2.7846422
3	0x3f0450e0	0.51685905
4	0x3f6d9020	0.9279804
5	0x400c1ec4	2.1893778
6	0x3e53f0d3	0.20697336
7	0x3f888b5b	1.0667528

attention_oo.qv_GBN.bias f4 [8]
0	0x3f656a10	0.89614964
1	0x3f19bb6e	0.6005162
2	0x3f974625	1.1818281
3	0xbfae0c2d	-1.3597466
4	0x3f621a7a	0.8832165
5	0xbf824910	-1.0178547
6	0xbed9929d	-0.4249467
7	0x3ea6fa1c	0.32612693

attention_oo.qv_GBN.m f4 [1, 1, 1, 8]
0	0x3fbf8d95	1.4965082
1	0x398e8f28	0.0002719101
2	0x40296329	2.6466773
3	0x3fa58e63	1.2934078
4	0x3f47ba44	0.78018594
5	0x3fc2df13	1.5224327
6	0x3fd289c8	1.6448298
7	0x3f26f766	0.6522125

attention_oo.qv_GBN.s f4 [1, 1, 1, 8]
0	0x3fef44bd	1.8692852
1	0x3e70200f	0.2344973
2	0x3fde8ecd	1.7387329
3	0x3fc3cb90	1.5296497
4	0x3f8bf178	1.0933065
5	0x40311dee	2.7674518
6	0x3fe45520	1.7838478
7	0x3f78d455	0.9719899

attention_oo.score_GBN.gamma f4 [2]
0	0x3f09e0cf	0.53858656
1	0x3f589a80	0.8461075

attention_oo.score_GBN.bias f4 [2]
0	0x40005ec2	2.0057836
1	0xbcc3dab0	-0.02390799

attention_oo.score_GBN.m f4 [1, 1, 1, 2]
0	0x409bfdc4	4.8747272
1	0x3f706aa3	0.93912715

attention_oo.score_GBN.s f4 [1, 1, 1, 2]
0	0x409a1b66	4.8158445
1	0x408ac943	4.337068

attention_oo.conv.m f4 [1, 1, 1, 8]
0	0x3f599826	0.84997785
1	0x3f07aa40	0.52994156
2	0x4057cb52	3.3717847
3	0xbe24b8ba	-0.16086093
4	0x3ec3ff06	0.38280505
5	0xbd4bd75e	-0.049765937
6	0x3c57c116	0.013168594
7	0x3f8c2386	1.0948341

attention_oo.conv.s f4 [1, 1, 1, 8]
0	0x3e6dd84e	0.23227045
1	0x3e8edbd0	0.2790208
2	0x3f66fd04	0.9022982
3	0x3e4da3a5	0.20081957
4	0x3ed50fa2	0.4161349
5	0x3f06751a	0.5252243
6	0x3e6931ca	0.227729
7	0x3f3e5574	0.7434914

attention_oo.conv.conv.bias f4 [1, 8, 1]
0	0x3fa930aa	1.3217976
1	0x3f9c7014	1.2221704
2	0x3fad459e	1.353687
3	0x3ea4204b	0.32055888
4	0x3f99937a	1.1998131
5	0x3ee4ce39	0.44688585
6	0x3f4f75ae	0.8103894
7	0x3e8813a5	0.26577488

attention_oo.conv.conv.module.weight f4 [4, 8, 1]
0	0xbf5432e5	-0.8289016
1	0xbebed2a9	-0.37270096
2	0x3f433d82	0.7626573
3	0xbe5e7a4b	-0.21726339
4	0x3eb6aaab	0.35677084
5	0xbc231e47	-0.009955949
6	0xbe8acd7a	-0.2710989
7	0xbf77a1d2	-0.96731293
8	0x3eef1e91	0.46703008
9	0xbe334e40	-0.17510319
10	0x3ddb4462	0.10706402
11	0xbc9fe07d	-0.019516224
12	0x3e751ab8	0.23935974
13	0x3e5e1399	0.21687163
14	0xbec3025a	-0.38087732
15	0xbf0ee065	-0.5581115
16	0xbebac4c3	-0.36478242
17	0xbe8e83d3	-0.2783495
18	0xbf1b1f2b	-0.60594434
19	0xbe1f42d7	-0.15552841
20	0x3e18b27e	0.1491184
21	0xbe8f0a29	-0.2793744
22	0xbde4c98b	-0.11171254
23	0xbebbd3b1	-0.36684945
24	0x3e555e20	0.20836687
25	0xbdb8a165	-0.090151586
26	0x3fa689e4	1.3010831
27	0x3e3b5506	0.18294153
28	0xbe6b2c8a	-0.22966209
29	0x3e20895b	0.15677397
30	0x3dd13a1f	0.10216164
31	0xbeadf742	-0.33977705

attention_do.q_GBN.gamma f4 [8]
0	0xbea540a9	-0.32275894
1	0xbe4cc68f	-0.19997619
2	0x3e903b0a	0.28170043
3	0x3f15a1f4	0.58450246
4	0x3f2ff52b	0.6873347
5	0x3f40bb4f	0.7528581
6	0x3dbb28f0	0.091386676
7	0x3e348bd6	0.17631468

attention_do.q_GBN.bias f4 [8]
0	0x3f57c696	0.84287393
1	0xbff22e96	-1.8920467
2	0x404d1c42	3.2048497
3	0x3f14cb59	0.58122784
4	0x3f59f13f	0.8513374
5	0xbf8bd826	-1.0925338
6	0xbe1a317c	-0.1505794
7	0x4028ab61	2.6354601

attention_do.q_GBN.m f4 [1, 1, 1, 8]
0	0x3fda62bb	1.706138
1	0x3f80e0ad	1.0068566
2	0x3fe62754	1.7980752
3	0x400a1783	2.157685
4	0x405449a2	3.3169942
5	0x40223675	2.5345738
6	0x3e509458	0.20369089
7	0x40050c11	2.0788615

attention_do.q_GBN.s f4 [1, 1, 1, 8]
0	0x403d86f9	2.961363
1	0x400b95aa	2.1810098
2	0x3fe9ebe5	1.8275114
3	0x40295a7a	2.6461473
4	0x4034aed5	2.823171
5	0x401e4815	2.4731495
6	0x3f34f99e	0.70693386
7	0x40212c47	2.5183275

attention_do.v_GBN.gamma f4 [8]
0	0x3f937bc1	1.1522142
1	0x3fa3f914	1.2810388
2	0x3f668fc6	0.9006313
3	0x3f43fcc6	0.76557577
4	0x3e73fff2	0.23828104
5	0xbbc47ea2	-0.005996541
6	0x3f9c2f12	1.2201865
7	0x3f950993	1.1643547

attention_do.v_GBN.bias f4 [8]
0	0x3fc188c1	1.5119859
1	0x3f5abfb6	0.8544878
2	0x3f691d5f	0.9106044
3	0x3ec27ade	0.37984365
4	0x40024d1f	2.035957
5	0xbf2741a3	-0.6533453
6	0x3f4e525b	0.80594414
7	0x3f35806b	0.70899075

attention_do.v_GBN.m f4 [1, 1, 1, 8]
0	0x4060ac42	3.5105138
1	0x3fa66b04	1.3001409
2	0x400e1572	2.220059
3	0x3ea19b01	0.3156357
4	0x3ff88f39	1.9418708
5	0x3fbbf5b9	1.4684364
6	0x3fa54d98	1.2914305
7	0x3f9f1631	1.2428647

attention_do.v_GBN.s f4 [1, 1, 1, 8]
0	0x3fbf50fe	1.4946592
1	0x3fe0e998	1.7571287
2	0x3feab293	1.8335747
3	0x3f448fe6	0.7678207
4	0x3fc5b0e8	1.5444613
5	0x3f8a03e0	1.0782433
6	0x3fbaa2fc	1.4580989
7	0x3f91f2c0	1.1402206

attention_do.qv_GBN.gamma f4 [8]
0	0x3f1f993f	0.6234321
1	0x3eab9557	0.33512375
2	0x40030977	2.0474527
3	0x3f542b1d	0.82878286
4	0x3f72c9d3	0.9483921
5	0x3fd792ae	1.6841638
6	0x3ebe4025	0.37158313
7	0x3ff85da3	1.9403576

attention_do.qv_GBN.bias f4 [8]
0	0x3fd06629	1.6281177
1	0x3feab89f	1.8337592
2	0x3d7376fa	0.059439637
3	0x3fc56fac	1.5424705
4	0x401f2c09	2.4870627
5	0xbfe2a7ca	-1.7707455
6	0x3f659948	0.89687014
7	0x3f07cce2	0.53047

attention_do.qv_GBN.m f4 [1, 1, 1, 8]
0	0x3fb19db7	1.3876256
1	0x3f776012	0.96630967
2	0x403e2f69	2.9716437
3	0x3f5c039f	0.85943025
4	0x3f75a14d	0.9594925
5	0x3d24047f	0.04004335
6	0x3fab78b3	1.339621
7	0x3ee50f33	0.4473816

attention_do.qv_GBN.s f4 [1, 1, 1, 8]
0	0x4001afc6	2.0263534
1	0x3f916c44	1.1361165
2	0x3fd6efea	1.6791966
3	0x3f688286	0.9082416
4	0x3f8aa4fc	1.0831599
5	0x3f364ff4	0.7121575
6	0x3fdbcb7c	1.7171474
7	0x3f11ddd4	0.5697911

attention_do.score_GBN.gamma f4 [2]
0	0x3f13dbcc	0.5775726
1	0x3f524cd9	0.8214851

attention_do.score_GBN.bias f4 [2]
0	0x3ff18e87	1.8871621
1	0xbf05f326	-0.5232414

attention_do.score_GBN.m f4 [1, 1, 1, 2]
0	0x40d9d0b9	6.806729
1	0x40d82276	6.7542067

attention_do.score_GBN.s f4 [1, 1, 1, 2]
0	0x40da1161	6.8146214
1	0x40774e10	3.8641396

attention_do.conv.m f4 [1, 1, 1, 8]
0	0x403032c1	2.7530978
1	0x40033cde	2.05059
2	0x3fb88592	1.4415762
3	0x3fdace48	1.7094202
4	0x3fcdf337	1.6089848
5	0x3cbd2c00	0.02309227
6	0x3f0f8cdc	0.5607431
7	0x3f5da8d9	0.86585766

attention_do.conv.s f4 [1, 1, 1, 8]
0	0x3f40ba76	0.75284517
1	0x3e9ec3de	0.3100881
2	0x3f4390f2	0.76393044
3	0x3f4fc1a6	0.8115486
4	0x3f46770b	0.77525395
5	0x3f9204e5	1.1407744
6	0x3f1a2df2	0.60226357
7	0x3f93eb40	1.1556168

attention_do.conv.conv.bias f4 [1, 8, 1]
0	0xbde20d05	-0.110376395
1	0xbf412e96	-0.7546171
2	0x3e847657	0.25871536
3	0x3eeba887	0.46027014
4	0x3f8c0149	1.0937892
5	0x3f78b562	0.9715177
6	0x3f67404b	0.9033248
7	0x3d840e01	0.064479835

attention_do.conv.conv.module.weight f4 [4, 8, 1]
0	0x3f4b753d	0.79475766
1	0xbd4df368	-0.05028096
2	0xbefa47c1	-0.4888287
3	0x3d1f3959	0.03887305
4	0xbf0891f9	-0.53347737
5	0xbf3b163b	-0.73080796
6	0x3eb2e12b	0.34937415
7	0xbe255a39	-0.16147698
8	0x3f16203c	0.58642936
9	0xbd277919	-0.040886972
10	0xbfae921d	-1.363834
11	0xbec4ba80	-0.38423538
12	0xbe7ae6ab	-0.24502055
13	0xbe5a1b9e	-0.21299598
14	0x3e32fadb	0.17478506
15	0x3e50242b	0.20326297
16	0x3f1739b8	0.59072447
17	0xbe8f4607	-0.27983114
18	0xbe195d00	-0.14976883
19	0xbf0abe64	-0.54196763
20	0x3f6d29be	0.9264182
21	0xbfa0c3b7	-1.2559727
22	0xbdf5549b	-0.11979028
23	0x3f6bb570	0.92073727
24	0xbe9a6adf	-0.3015966
25	0xbed62d4a	-0.41831428
26	0xbf6f9061	-0.9357968
27	0x3f2f6601	0.6851502
28	0xbe7e3f37	-0.24828802
29	0xbf497320	-0.7869129
30	0x3ef28d84	0.47373593
31	0x3f564d8d	0.83712083

quadjetResNetBlock.reinforce.0.sym.weight f4 [8, 1, 2]
0	0x3f000000	0.5
1	0x3f000000	0.5
2	0x3f000000	0.5
3	0x3f000000	0.5
4	0x3f000000	0.5
5	0x3f000000	0.5
6	0x3f000000	0.5
7	0x3f000000	0.5
8	0x3f000000	0.5
9	0x3f000000	0.5
10	0x3f000000	0.5
11	0x3f000000	0.5
12	0x3f000000	0.5
13	0x3f000000	0.5
14	0x3f000000	0.5
15	0x3f000000	0.5

quadjetResNetBlock.reinforce.0.antisym.weight f4 [8, 1, 2]
0	0x3f000000	0.5
1	0xbf000000	-0.5
2	0x3f000000	0.5
3	0xbf000000	-0.5
4	0x3f000000	0.5
5	0xbf000000	-0.5
6	0x3f000000	0.5
7	0xbf000000	-0.5
8	0x3f000000	0.5
9	0xbf000000	-0.5
10	0x3f000000	0.5
11	0xbf000000	-0.5
12	0x3f000000	0.5
13	0xbf000000	-0.5
14	0x3f000000	0.5
15	0xbf000000	-0.5

quadjetResNetBlock.reinforce.0.conv.m f4 [1, 1, 3, 8]
0	0x3fa874bc	1.3160625
1	0x3eef0778	0.46685386
2	0x401286ea	2.2894845
3	0x402583b8	2.5861645
4	0x4072ea0a	3.7955346
5	0x403c4ace	2.9420657
6	0x3f56fbcc	0.8397796
7	0x40115ad7	2.2711694
8	0x3f67fbc9	0.9061857
9	0x3ef1dc4f	0.47238395
10	0x3f6ae578	0.9175639
11	0x3f8e3a0a	1.1111462
12	0x3f987726	1.1911361
13	0x3f65470f	0.8956155
14	0x3f0ff1b5	0.5622819
15	0x3f4d28e3	0.80140513
16	0xbd4483b5	-0.047977168
17	0x3d4306fa	0.047614075
18	0xbe416340	-0.18885517
19	0x3e769908	0.24081814
20	0xbe2f19a7	-0.1709963
21	0x3f2ce6c7	0.6753964
22	0x3f2abe54	0.6669667
23	0x3fd8e800	1.6945801

quadjetResNetBlock.reinforce.0.conv.s f4 [1, 1, 3, 8]
0	0x3ff69794	1.9265008
1	0x3f9ba214	1.2158837
2	0x400ad2bc	2.1691122
3	0x40252df4	2.5809298
4	0x40167428	2.3508396
5	0x4008e830	2.1391716
6	0x3fa3f7b1	1.2809964
7	0x40339365	2.8058712
8	0x3f9963a8	1.1983538
9	0x3f747833	0.9549591
10	0x3f63cae4	0.8898146
11	0x3fa2b3be	1.2711103
12	0x3f8b1b73	1.0867752
13	0x3f4da75b	0.8033349
14	0x3f41dd03	0.7572786
15	0x3f6dca35	0.9288667
16	0x3e2d3295	0.16913827
17	0x3ec4652a	0.38358432
18	0x3e3523fb	0.17689507
19	0x3e34fa88	0.17673695
20	0x3d8de9b1	0.06929339
21	0x3f4f62b4	0.81009984
22	0x3ebbea2b	0.36702093
23	0x3e84ac54	0.25912726

quadjetResNetBlock.reinforce.0.conv.conv.bias f4 [1, 8, 1]
0	0xbeb0a687	-0.3450205
1	0x3fb7302c	1.4311576
2	0xbfc13eeb	-1.5097326
3	0x3e777b89	0.24168219
4	0xbd00e0d9	-0.03146443
5	0x3f3b1b34	0.73088384
6	0xbea8ab6b	-0.32943282
7	0xbff34b0a	-1.9007275

quadjetResNetBlock.reinforce.0.conv.conv.module.weight f4 [4, 8, 3]
0	0x3ec231a4	0.37928498
1	0x3f01211f	0.50441164
2	0xbcfd6000	-0.030929565
3	0x3e9061d5	0.2819964
4	0xbee5683f	-0.44806096
5	0x3e966867	0.29376528
6	0x3e64aa1e	0.2233052
7	0x3efd1758	0.49431872
8	0xbe8b7389	-0.27236584
9	0x3f464691	0.77451426
10	0x3f434b6c	0.7628696
11	0xbe867466	-0.2626068
12	0xbf30323e	-0.68826663
13	0xbeb1062b	-0.34575018
14	0x3df11b67	0.11772805
15	0x3f94c6b8	1.1623144
16	0x3ed54059	0.41650656
17	0x3dd16bf4	0.102256685
18	0x3efcddde	0.4938802
19	0x3d978248	0.07397896
20	0x3f340d9a	0.70333254
21	0xbfbf8b7b	-1.4964441
22	0xbd9089cc	-0.07057533
23	0x3df973a9	0.121802635
24	0xbf2bb19f	-0.67067903
25	0xbf158e00	-0.584198
26	0xbeb47c5b	-0.35251126
27	0xbe83940e	-0.25698894
28	0x3ee61ab1	0.4494224
29	0x3f7789f4	0.96694875
30	0xbd8c10d8	-0.0683915
31	0xbe4252a6	-0.1897684
32	0x3d2b1e7e	0.041777126
33	0x3e9ac281	0.3022652
34	0x3e782be7	0.24235497
35	0x3e9e373d	0.30901518
36	0xbc570a1c	-0.013124969
37	0x3f6e3266	0.9304565
38	0xbf25bb70	-0.6473913
39	0x3eb944ae	0.3618521
40	0x3ef018b1	0.46893838
41	0x3ee32f2f	0.44371936
42	0x3d08a731	0.03336257
43	0xbe112973	-0.14175968
44	0x3e3104ea	0.17287031
45	0xbeb3b547	-0.3509924
46	0xbed38edb	-0.41319928
47	0xbe8cd146	-0.27503413
48	0x3f389981	0.7210923
49	0x3e9343f8	0.28762794
50	0x3f4a64ed	0.7906025
51	0x3e826eaa	0.25475055
52	0xbee20bd6	-0.44149655
53	0x3f8da7fb	1.1066889
54	0xbec42938	-0.38312697
55	0x3e5b14e0	0.21394682
56	0xbe8eb5ca	-0.2787307
57	0x3d3fc270	0.04681629
58	0x3f188097	0.5957121
59	0x3da6586f	0.08122336
60	0xbf082cb3	-0.53193206
61	0x3e7b0f7a	0.24517623
62	0x3e5d969c	0.21639484
63	0x3e65765b	0.2240843
64	0x3f8a4f1c	1.0805392
65	0xbe9f2e82	-0.3109017
66	0xbd68ac74	-0.05680509
67	0x3eb09c87	0.3449442
68	0xbdc63864	-0.096787244
69	0xbf2e8fc6	-0.6818813
70	0x3e4b0f77	0.19830118
71	0x3e02dcfb	0.1277961
72	0xbf4f593a	-0.80995524
73	0xbdbed76e	-0.09318434
74	0x3eaa0852	0.33209473
75	0x3f490f79	0.78539234
76	0x3fb23107	1.3921212
77	0xbe9b3335	-0.30312505
78	0xbdcc6bcb	-0.099814974
79	0x3da200ab	0.07910284
80	0xbe02e6cf	-0.12783359
81	0x3e3dc2c7	0.18531333
82	0xbf258e7f	-0.64670557
83	0xbb9d896b	-0.0048076413
84	0xbf144a08	-0.5792546
85	0x3e61cc78	0.22050655
86	0x3e871e2c	0.26390207
87	0x3f5ed338	0.87041044
88	0x3f999e91	1.2001516
89	0x3e66c507	0.22536097
90	0xbeb58f07	-0.35460684
91	0x3dc37c28	0.09545165
92	0x3e081c91	0.13292147
93	0xbf0da701	-0.5533295
94	0xbdb02c0e	-0.08602153
95	0xbd70e25c	-0.058809623

quadjetResNetBlock.reinforce.1.sym.weight f4 [8, 1, 2]
0	0x3f000000	0.5
1	0x3f000000	0.5
2	0x3f000000	0.5
3	0x3f000000	0.5
4	0x3f000000	0.5
5	0x3f000000	0.5
6	0x3f000000	0.5
7	0x3f000000	0.5
8	0x3f000000	0.5
9	0x3f000000	0.5
10	0x3f000000	0.5
11	0x3f000000	0.5
12	0x3f000000	0.5
13	0x3f000000	0.5
14	0x3f000000	0.5
15	0x3f000000	0.5

quadjetResNetBlock.reinforce.1.antisym.weight f4 [8, 1, 2]
0	0x3f000000	0.5
1	0xbf000000	-0.5
2	0x3f000000	0.5
3	0xbf000000	-0.5
4	0x3f000000	0.5
5	0xbf000000	-0.5
6	0x3f000000	0.5
7	0xbf000000	-0.5
8	0x3f000000	0.5
9	0xbf000000	-0.5
10	0x3f000000	0.5
11	0xbf000000	-0.5
12	0x3f000000	0.5
13	0xbf000000	-0.5
14	0x3f000000	0.5
15	0xbf000000	-0.5

quadjetResNetBlock.reinforce.1.conv.m f4 [1, 1, 3, 8]
0	0x3f8fd98d	1.1238266
1	0x3dec45ac	0.11536726
2	0x400a1982	2.1578069
3	0x404cb0bd	3.1982872
4	0x40af4106	5.4766874
5	0x405400a8	3.31254
6	0x3eb66b6c	0.3562883
7	0x401ca6c0	2.4476776
8	0x3f45c8e5	0.77259666
9	0x3e409601	0.18807222
10	0x3f4cf8ba	0.80067027
11	0x3f9e2590	1.2355213
12	0x3fad5743	1.3542255
13	0x3f691a93	0.91056174
14	0x3ec536f4	0.38518488
15	0x3f5f3fc0	0.8720665
16	0x3f7ee41e	0.9956683
17	0x3fc5ab6a	1.5442936
18	0x3f14be88	0.5810323
19	0x3f6bf863	0.92175883
20	0x3f829de8	1.0204439
21	0x3fd3edd7	1.6556958
22	0x3fcb35ee	1.5875833
23	0x3f260a9a	0.64859927

quadjetResNetBlock.reinforce.1.conv.s f4 [1, 1, 3, 8]
0	0x3fd438fd	1.6579891
1	0x3ef06e3d	0.46959105
2	0x3fe59705	1.7936713
3	0x40425a14	3.036748
4	0x4036c9cc	2.8560667
5	0x400cefc7	2.2021348
6	0x3f9951cb	1.1978086
7	0x4044f904	3.0776987
8	0x3f84791b	1.0349458
9	0x3ebd2381	0.3694115
10	0x3f32fcde	0.69917095
11	0x3fb5225f	1.4151114
12	0x3fa0d53f	1.2565078
13	0x3f554760	0.83312035
14	0x3f69d6a1	0.9134312
15	0x3f8775c2	1.0582812
16	0x3fceeee1	1.616665
17	0x3fce4068	1.6113405
18	0x3fd7db96	1.6863887
19	0x3fe4a800	1.786377
20	0x3fe79040	1.8090897
21	0x400b6b85	2.1784375
22	0x3fdc360d	1.7203995
23	0x3f896d86	1.0736549

quadjetResNetBlock.reinforce.1.conv.conv.bias f4 [1, 8, 1]
0	0x3f57efb7	0.8435015
1	0xbf8b99b2	-1.0906279
2	0xbf498408	-0.7871709
3	0x3eab2538	0.33426833
4	0xbed65d10	-0.41867876
5	0x3ed7eb59	0.42171744
6	0x3f9ff079	1.2495261
7	0x40251d08	2.579897

quadjetResNetBlock.reinforce.1.conv.conv.module.weight f4 [4, 8, 3]
0	0x3e3154b6	0.17317471
1	0xbf0450f8	-0.5168605
2	0xbd2988bd	-0.04139017
3	0x3e40e734	0.18838197
4	0xbe068f03	-0.13140492
5	0xbd790e8c	-0.06080489
6	0x3f8295fd	1.0202023
7	0x3e6693ef	0.2251737
8	0xbeeb3991	-0.45942357
9	0xbf4af716	-0.79283273
10	0xbf384d8c	-0.7199333
11	0x3d97f3cf	0.0741955
12	0x3e0c12dc	0.1367907
13	0xbefc5f50	-0.49291468
14	0xbd869fff	-0.065734856
15	0xbf25cdc7	-0.64767116
16	0x3f83f1b0	1.0308132
17	0x3e0e3f16	0.13891253
18	0xbee4cba3	-0.44686612
19	0x3e8d2a7b	0.27571473
20	0x3e6da1f9	0.23206319
21	0x3fde2549	1.7355129
22	0xbdd51c7e	-0.10405825
23	0x3f29e858	0.66370153
24	0xbf3c60cc	-0.735852
25	0x3f30530b	0.68876714
26	0x3d0701a8	0.032960564
27	0xbe9ba83e	-0.30401796
28	0x3e774658	0.24147928
29	0xbef52c00	-0.47885132
30	0xbed17333	-0.40908203
31	0xbdd0e881	-0.102005966
32	0xbe8b40af	-0.27197787
33	0xbf492923	-0.78578395
34	0xbdf95deb	-0.121761166
35	0xbe9cd202	-0.30628973
36	0x3e1667c7	0.14688025
37	0x3e6474fb	0.2231025
38	0x3ea24a6b	0.316974
39	0xbf050280	-0.5195694
40	0xbed97da4	-0.4247867
41	0x3e8233ab	0.25430045
42	0xbe88148e	-0.26578182
43	0x3d3c9e77	0.04604956
44	0xbe01b92a	-0.1266829
45	0x3fd256bd	1.643272
46	0x3c131cb2	0.008979009
47	0xbec069e0	-0.37580776
48	0x3f8734ae	1.0562952
49	0x3e5b5657	0.21419655
50	0xbe77e970	-0.24210143
51	0x3f7c0ded	0.9845875
52	0x3f110f25	0.56663734
53	0xbefc4c2f	-0.49276873
54	0x3f129c0c	0.5726936
55	0xbe371697	-0.17879711
56	0xbe3b148f	-0.18269561
57	0x3f729fc0	0.9477501
58	0x3ed186ec	0.4092325
59	0xbf1dcbf3	-0.61639327
60	0xbe71bfab	-0.23608272
61	0x3f4accb4	0.792186
62	0xbf1fab2e	-0.62370574
63	0x3f8410c3	1.0317615
64	0xbebc2197	-0.36744377
65	0x3e60b879	0.2194537
66	0xbe383cdd	-0.17991967
67	0xbe1609e0	-0.14652205
68	0xbeb6fc18	-0.35739207
69	0xbe420c53	-0.18950014
70	0xbe0b3853	-0.13595705
71	0xbf088492	-0.53327286
72	0x3f46445b	0.7744805
73	0xbe26619c	-0.16248173
74	0xbf06bea5	-0.5263465
75	0x3ec032c0	0.3753872
76	0x3dad3c91	0.08458818
77	0xbe2061ca	-0.15662304
78	0xbec27cdb	-0.37985882
79	0xbcee14b9	-0.029062616
80	0xbe4c7fdd	-0.19970651
81	0x3b4b4311	0.0031015316
82	0xbcf65acd	-0.030072594
83	0xbe8dd838	-0.27704024
84	0xbed543f2	-0.416534
85	0x3e97d816	0.29657048
86	0x3d7b61d8	0.061372608
87	0x3ece38d3	0.40277728
88	0x3ea77237	0.32704327
89	0x3ef9cb48	0.48787904
90	0xbe7aed18	-0.24504507
91	0x3dedf0b2	0.116181746
92	0xbec20567	-0.37894747
93	0x3ee46deb	0.4461511
94	0xbe03f860	-0.12887716
95	0x3d83842e	0.06421696

quadjetResNetBlock.conv.0.m f4 [1, 1, 1, 8]
0	0x3fa874bc	1.3160625
1	0x3eef0778	0.46685386
2	0x401286ea	2.2894845
3	0x402583b8	2.5861645
4	0x4072ea0a	3.7955346
5	0x403c4ace	2.9420657
6	0x3f56fbcc	0.8397796
7	0x40115ad7	2.2711694

quadjetResNetBlock.conv.0.s f4 [1, 1, 1, 8]
0	0x401c5b6e	2.4430804
1	0x3fceedc2	1.6166308
2	0x402122c4	2.517747
3	0x404561c1	3.0840914
4	0x403671dd	2.8506997
5	0x401d1331	2.4542964
6	0x3fcb9ff8	1.5908194
7	0x4043fdfb	3.0623767

quadjetResNetBlock.conv.0.conv.bias f4 [1, 8, 1]
0	0xbea495ca	-0.3214553
1	0xbf73acbe	-0.9518546
2	0xbe1866f3	-0.14883022
3	0x3ef6a176	0.4817006
4	0x4010d440	2.2629547
5	0x3f283cb8	0.6571765
6	0xbfd58939	-1.6682502
7	0xbe9074ae	-0.2821402

quadjetResNetBlock.conv.0.conv.module.weight f4 [4, 8, 1]
0	0xbf34351f	-0.70393556
1	0x3e3057ef	0.17221044
2	0x3e39656d	0.18105097
3	0xbe36aaef	-0.17838643
4	0x3f2f6e4a	0.6852766
5	0xbf81c1d5	-1.0137278
6	0x3ebea972	0.37238652
7	0x3d6991df	0.05702388
8	0x3e8245da	0.25443918
9	0xbf8f62ec	-1.1202064
10	0xbe47bc1b	-0.1950535
11	0x3e6e3a98	0.23264539
12	0xbce3f030	-0.027824491
13	0xbd023847	-0.03179195
14	0x3e9fbea4	0.31200135
15	0x3f16e968	0.589499
16	0x3ef381b1	0.47559884
17	0xbe1acf25	-0.15118082
18	0xbef85dd9	-0.485091
19	0x3e7ec0b7	0.24878202
20	0x3f0cd6fa	0.5501553
21	0x3e6e82d7	0.23292099
22	0xbf7fab97	-0.998712
23	0xbf0f12b4	-0.55887914
24	0x3da2f96c	0.0795773
25	0x3faade7a	1.3349144
26	0xbf0935e1	-0.5359784
27	0x3d419072	0.047256894
28	0xbeb0287f	-0.34405896
29	0x3f568dea	0.83810294
30	0xbeb4a983	-0.35285577
31	0xbeceee68	-0.40416265

select_q.m f4 [1, 1, 1, 8]
0	0x3fecce39	1.8500434
1	0x3f3b9ebf	0.732891
2	0x3e1061ac	0.14099759
3	0x3f7cc6a0	0.9874058
4	0x3f920d81	1.1410371
5	0x40007d9d	2.0076668
6	0x400c17d3	2.188954
7	0x408d6b0c	4.4193172

select_q.s f4 [1, 1, 1, 8]
0	0x4038d0dc	2.8877478
1	0x3fcb0fd7	1.5864209
2	0x3f8ecaea	1.1155674
3	0x3fd9ddd0	1.7020817
4	0x3fd04a46	1.6272666
5	0x4009cba0	2.1530533
6	0x3ff31bdd	1.8992878
7	0x40059e3e	2.0877833

select_q.conv.module.weight f4 [1, 8, 1]
0	0x3e667a02	0.2250748
1	0x3ea9438e	0.33059353
2	0x3c97afa9	0.018516378
3	0xbdd84c2d	-0.105614044
4	0xbdea3be2	-0.11437203
5	0x3d016429	0.03158966
6	0x3e81b338	0.25332046
7	0xbefa4fb8	-0.48888946

out.m f4 [1, 1, 1, 8]
0	0x408271f8	4.076412
1	0x3fee6e57	1.8627423
2	0x3e13f38d	0.14448376
3	0x40058cdb	2.0867221
4	0x3ecebf4c	0.40380323
5	0x3f3a8592	0.7286006
6	0x4031d311	2.7785075
7	0x4041de31	3.0291865

out.s f4 [1, 1, 1, 8]
0	0x401227be	2.2836757
1	0x3fd19d7e	1.6376188
2	0x3f1e1452	0.61749756
3	0x3fb20e5c	1.3910632
4	0x3f185ca0	0.59516335
5	0x3f46bd0c	0.7763221
6	0x4002a6ec	2.041438
7	0x3fb404de	1.4063985

out.conv.module.weight f4 [5, 8, 1]
0	0x3f5a1016	0.85180795
1	0xbefbf7dc	-0.4921254
2	0x3db7a42d	0.08966861
3	0xbf8b34fd	-1.0875546
4	0xbe7b0bce	-0.24516222
5	0x3e78dcd2	0.24302986
6	0xbf84bb56	-1.036967
7	0x3f06cc96	0.52655923
8	0xbf0bdc34	-0.5463288
9	0xbeef3caa	-0.4672597
10	0xbda07d72	-0.07836427
11	0x3ed306f8	0.41216254
12	0x3e3d401b	0.18481486
13	0x3d14b6d0	0.036307156
14	0x3e681617	0.22664677
15	0x3e070b53	0.13187914
16	0x3f59b649	0.8504377
17	0xbf669ab8	-0.9007983
18	0xbe9bf56e	-0.30460685
19	0x3f7a5230	0.9778166
20	0xbcc43769	-0.023952203
21	0xbe10d0af	-0.14142106
22	0xbee0198c	-0.4376949
23	0xbe676e96	-0.22600779
24	0x3cee1afb	0.0290656
25	0x3f1af24a	0.60525954
26	0xbc8fef31	-0.01757011
27	0xbf5bc3b6	-0.85845506
28	0xbe724b97	-0.23661648
29	0xbe9986da	-0.29985696
30	0x3f57a69b	0.84238595
31	0xbe3d3df8	-0.1848067
32	0x3e295817	0.1653751
33	0x3f854327	1.0411118
34	0xbecf6f93	-0.40514812
35	0x3de1bfd0	0.110229135
36	0xbebe5d4e	-0.3718056
37	0xbe39718f	-0.18109725
38	0xbf49c370	-0.7881384
39	0x3e0b314d	0.13593026

out.conv.module.bias f4 [5]
0	0xc01e0eaf	-2.4696462
1	0x3fd73685	1.6813513
2	0xbfb084f2	-1.3790572
3	0x3d756884	0.059914127
4	0xbf7c0fca	-0.9846159
