metadata/weights/pytorch_models/2024_HHUL_all_kl/model_SvB_ggF_all_kl__kfolds_3__offset_2__8152112c-01ca-4a81-8d2f-5c76304cef46.pkl (torch, 114438 bytes, 118 tensors)

inputEmbed.ancillaryEmbed.m f4 [1, 1, 1, 4]
00000000: 067e 8741 db8b 053f f9cc 5140 035a 9b3f
16.936535 0.5216653 3.2781355 1.2136844

inputEmbed.ancillaryEmbed.s f4 [1, 1, 1, 4]
00000000: c315 5b3f 3978 f83e 9a13 3940 3637 6440
0.8558008 0.48529223 2.8918214 3.5658698

inputEmbed.ancillaryEmbed.conv.module.weight f4 [4, 4, 1]
00000000: 96d9 cfbc 9686 a5be e1b0 3e3d 41b6 c03c
00000010: 918a 5e3d 80d2 063e 07be 65bd 5367 b93a
00000020: 9bfa 563c 3e34 3ebf ab0b 88bd 059c 4bbd
00000030: 05eb cebc 4a8e fd3d 565a 9ebd 7e28 83bd
-0.025372308 -0.32329243 0.046555404 0.023524405 0.054331366 0.13166237 -0.056089427 0.0014145173
0.013121272 -0.74298465 -0.066428505 -0.04970934 -0.02525855 0.12380655 -0.07732074 -0.06404208

inputEmbed.jetEmbed.m f4 [1, 1, 1, 4]
00000000: 816d 9140 eae3 f23e 51ee 6c3f 2eb9 2a40
4.544617 0.4743951 0.9255114 2.6675525

inputEmbed.jetEmbed.s f4 [1, 1, 1, 4]
00000000: 1e38 ec3e 5212 663f 8590 4a3f 4016 b93e
0.46136564 0.89871705 0.7912677 0.36149788

inputEmbed.jetEmbed.conv.bias f4 [1, 8, 1]
00000000: acee a43e 4e2f 82be f182 04bd bd20 b3be
00000010: 08f9 373e 8d7e 7dbe 5df2 aa3e 8690 1dbe
0.32213342 -0.25426716 -0.032351438 -0.34985915 0.17966092 -0.24755307 0.33388034 -0.15387163

inputEmbed.jetEmbed.conv.module.weight f4 [4, 4, 1]
00000000: 75fc ccbe d254 333d edbb febd 1044 833f
00000010: 67bb b7bf a3c6 3abd 5e95 06be d1f9 773f
00000020: b60f 4dbe 1bbd 7a3c 78ad 83bf ccfa 85bf
00000030: 0b6f 7ebf 1e4b 6d3e 0ff3 1c3e e01d d5be
-0.4003636 0.043782063 -0.12438188 1.0255146 -1.4354066 -0.04559959 -0.13142917 0.96865565
-0.20025524 0.015303875 -1.0287313 -1.0467162 -0.9938819 0.23173186 0.15327094 -0.41624355

inputEmbed.jetConv.m f4 [1, 1, 1, 8]
00000000: 32e7 bf3e f92a 603d 64a6 cc3e 71b4 853e
00000010: 665a 893e 084f 923d d0e0 0d3f 88c9 d13e
0.37481076 0.054728482 0.39970696 0.26114228 0.2682678 0.0714398 0.5542116 0.4097407

inputEmbed.jetConv.s f4 [1, 1, 1, 8]
00000000: 1eb7 273f 1705 bc3e 09ed 453f ac7b 243f
00000010: 4baf fc3e 4ae3 ed3e 24fd 853f 1000 803f
0.6551379 0.36722633 0.7731481 0.6425121 0.49352488 0.4646247 1.0467877 1.0000019

inputEmbed.jetConv.conv.bias f4 [1, 8, 1]
00000000: 18e3 a9bf 5810 36bf f6be c7be 4f1b 05bf
00000010: c067 463f 89b9 60be dff5 523f 8271 b0be
-1.3272429 -0.7111869 -0.3901288 -0.51994795 0.7750206 -0.21945776 0.8240642 -0.344616

inputEmbed.jetConv.conv.module.weight f4 [4, 8, 1]
00000000: 562d f03e cf09 ecbd 801b bfbe 13dd 82bc
00000010: de7b b13e 1e61 b23e b7a4 3f3f 79d8 7b3d
00000020: e760 7ebd fb32 0b3c c9cb ecbe 72b5 33bf
00000030: cbf6 8bbe c6d5 fe3e 9551 1a3e 3317 a6bd
00000040: 3c1a b13e f2fb 3f3f 61ea a1be 3ef3 d4bd
00000050: 1c1b 1dbf 122a 1dbf 4828 153e 8111 7f3e
00000060: d805 56be 3413 8f3e cf98 d7be e2b7 1a3e
00000070: 71f6 b43e 9a15 10bf 4e72 033e 08d0 76be
0.4690959 -0.11525308 -0.37325668 -0.015974557 0.34664816 0.3483972 0.7486071 0.06148574
-0.062104132 0.008496041 -0.46249226 -0.7019874 -0.27336726 0.4977247 0.15070184 -0.08109894
0.34590328 0.74993813 -0.3162413 -0.10397957 -0.6136949 -0.6139232 0.14566147 0.24909021
-0.20900667 0.27944338 -0.4210877 0.15109208 0.3534427 -0.5628296 0.12836573 -0.24102795

inputEmbed.othJetEmbed.m f4 [1, 1, 1, 4]
00000000: 36a2 8c40 cd77 bf3e c189 2440 52c2 c53f
4.394801 0.37396088 2.5709078 1.5449927

inputEmbed.othJetEmbed.s f4 [1, 1, 1, 4]
00000000: e516 193f 0f36 8f3f 279e e23e 0446 3d3f
0.5980056 1.1188372 0.44261286 0.7393496

inputEmbed.othJetEmbed.conv.bias f4 [1, 8, 1]
00000000: 4f9b 623f 8db2 773e 73a3 7cbf dea6 91be
00000010: 57d5 ef3f a0e3 203d dd30 8c3f 540e 263e
0.8851823 0.24189205 -0.98686904 -0.28447622 1.8736981 0.03927958 1.0952412 0.16216403

inputEmbed.othJetEmbed.conv.module.weight f4 [4, 4, 1]
00000000: cb92 bd3e 0cf9 23bd 2e2f afbf b411 efbf
00000010: c126 3d3f 0dc6 90bc ede1 7dbe 2aee fc3f
00000020: 3b56 fcbe c136 2c3c 8800 3dbf 9c40 823f
00000030: 971e 0340 c146 853c 9799 e9bc 9a59 1fbf
0.37026057 -0.04003243 -1.3686273 -1.8677278 0.7388726 -0.017672563 -0.24793215 1.9760182
-0.4928454 0.010511101 -0.73828936 1.0175967 2.048742 0.01626909 -0.02851562 -0.62246096

inputEmbed.othJetConv.m f4 [1, 1, 1, 8]
00000000: 7150 8a3f 6c04 623f 16f9 69bd 8f66 d43e
00000010: 76e0 1240 4378 273f 222a 933f 1706 093f
1.0805799 0.88288 -0.057122312 0.41484496 2.29495 0.6541788 1.1497233 0.5352492

inputEmbed.othJetConv.s f4 [1, 1, 1, 8]
00000000: 9fcd 0640 9335 473f 425f a33e fe55 8a3f
00000010: 3991 ca3f e505 e03f 2b8b a33f d494 613f
2.1063 0.7781612 0.31908613 1.0807493 1.5825568 1.7501799 1.2776846 0.8811772

inputEmbed.othJetConv.conv.bias f4 [1, 8, 1]
00000000: 7d34 4340 007b d93f 131b 8440 ec98 ae3f
00000010: 374f 503e 02cd 0a40 7deb 3e3f c4e6 4040
3.0500786 1.6990662 4.128305 1.3640418 0.20342718 2.1687627 0.74578077 3.0140848

inputEmbed.othJetConv.conv.module.weight f4 [4, 8, 1]
00000000: 80cd 993f 9ae0 d4be 61a7 93be 08ba 2cbe
00000010: 5fa2 92be 5360 3f3e ff44 5dbe 5591 03bf
00000020: b8f6 ef3e ec47 dcbe b653 f4bd 705d 943f
00000030: b1be 86be c7ba 53bf f413 0c3e 6279 50bf
00000040: 4d56 c8bd d62d 58bf bebf 103e 75b1 33be
00000050: 3f4a a2bd e8a0 3bbf e903 d6be c0cf 4d3f
00000060: 0df1 50bf 459f 52be 332f 893e 7cb6 88be
00000070: 8a2d 3cbe 6c72 c43f 5fa2 263e ffe0 1f3e
1.2015839 -0.41577607 -0.28838637 -0.1686784 -0.28639504 0.18689089 -0.21608351 -0.51393634
0.4686792 -0.43023622 -0.11930029 1.1591015 -0.2631736 -0.82706875 0.13679487 -0.81435215
-0.097820856 -0.8444494 0.14135644 -0.17548163 -0.079243176 -0.732924 -0.41799858 0.80395126
-0.81617814 -0.20568569 0.26793823 -0.26701725 -0.18376747 1.5347419 0.16272877 0.15613173

inputEmbed.MdPhi_embed.m f4 [1, 1, 1, 3]
00000000: 7e25 ab40 dcfd e83f adf4 dd3e
5.3483267 1.8202472 0.43350735

inputEmbed.MdPhi_embed.s f4 [1, 1, 1, 3]
00000000: df37 2f3f 950a 6d3f eab9 fd3e
0.6844463 0.9259427 0.49555904

inputEmbed.MdPhi_embed.conv.bias f4 [1, 8, 1]
00000000: d8e0 bd3e 053a 673f 2be5 51bf a749 0c3f
00000010: e9cb 9f3e aabf ec3e de47 1c40 1d23 ae3e
0.37085605 0.90322906 -0.8199031 0.54799885 0.3121026 0.46239978 2.4418864 0.34011164

inputEmbed.MdPhi_embed.conv.module.weight f4 [4, 3, 1]
00000000: 562e 93be 44e0 68be 2f1f 8fbf ed27 0b3e
00000010: 238b bfbf a055 9d3e b71f fdbf 8efd 4bbf
00000020: b430 8c3e ad6b 073f d87f a2be b6cd 8cbf
-0.2874629 -0.227418 -1.1181391 0.13589449 -1.4964336 0.3072939 -1.9775304 -0.7968377
0.27380908 0.52898675 -0.31738162 -1.1000278

inputEmbed.MdPhi_conv.m f4 [1, 1, 1, 8]
00000000: 0aa8 4e3f 1c64 613f 9c2c c13e 7276 1b3f
00000010: f662 303f 121f 2d3f b08e 1f40 e4dc cb3e
0.8072516 0.8804338 0.37729347 0.6072761 0.68901 0.67625535 2.493084 0.39816964

inputEmbed.MdPhi_conv.s f4 [1, 1, 1, 8]
00000000: bdd0 7c3f 0701 963f b3ef 8e3f 8d0e 393f
00000010: 8616 8a3f c571 653f 4064 fa3f 9372 2c3f
0.9875601 1.1719064 1.11669 0.7228783 1.0788124 0.89626724 1.9561844 0.67362326

inputEmbed.MdPhi_conv.conv.bias f4 [1, 8, 1]
00000000: b3ca 32be 23b7 fe3f 5e16 d33f 4ba4 843f
00000010: 166d 843f d266 a73e 793c 7b3f 92d4 5440
-0.17460136 1.9899639 1.6491201 1.0362638 1.034579 0.32695633 0.9813915 3.3254743

inputEmbed.MdPhi_conv.conv.module.weight f4 [4, 8, 1]
00000000: 6391 a63e 9f7f f3bd 18e5 823d d41c 23be
00000010: 14b0 21bf 4f99 b63f 8742 663f 6299 19be
00000020: bdec c1bd 67b9 b2bf ab6d 0bbf 7133 fabd
00000030: 1298 d5be 4ad8 ebbd 920a 383e 1770 773d
00000040: 8cf9 123e 1348 0d3f 6576 dbbf 369d ae3e
00000050: 824a 0abe 80d3 3cbe 79da e63e 1185 27bf
00000060: 1959 0b3f b224 1dbf a011 b23f c248 e9be
00000070: 33ec 86bd f5fa 4fbe 894b db3e 4600 a13d
0.32532796 -0.11889576 0.063913524 -0.15928966 -0.631593 1.4265536 0.8994526 -0.14999917
-0.09468982 -1.396283 -0.54464215 -0.12216843 -0.41717583 -0.11515863 0.17972782 0.06040963
0.14353007 0.551881 -1.7145506 0.34104317 -0.13504985 -0.18440056 0.45088556 -0.6543742
0.5443283 -0.6138412 1.3911629 -0.45563322 -0.0658802 -0.20310576 0.42831066 0.0786138

inputEmbed.dijetEmbed.m f4 [1, 1, 1, 4]
00000000: 4fb2 9240 2c5b 563f 41b5 743f 0ee3 a240
4.584266 0.8373287 0.9558907 5.0902166

inputEmbed.dijetEmbed.s f4 [1, 1, 1, 4]
00000000: 9c68 403f 620b a43f 5849 983f 2598 043f
0.7515962 1.2815974 1.1897383 0.51794654

inputEmbed.dijetEmbed.conv.bias f4 [1, 8, 1]
00000000: 0e28 183e 79b8 783f 9b59 1240 6e80 babe
00000010: b09c 843e 55a7 0ebf 9751 44bf cc2b 6c3f
0.1485903 0.9715648 2.286719 -0.3642611 0.25900793 -0.5572408 -0.76686996 0.9225433

inputEmbed.dijetEmbed.conv.module.weight f4 [4, 4, 1]
00000000: 92ca 9a3e 1fd0 a6bd 45fa df3c bb09 a33f
00000010: 7a0f 98bf e41b 27be 13ba 323c 77c9 20be
00000020: a0c0 f4bd c114 a2bf fd28 bfbc 81b2 773e
00000030: 526a 903e 3b9a a0bd d149 7e3c 6b5f 13c0
0.30232674 -0.08145165 0.027341017 1.2737345 -1.1879723 -0.16319233 0.010908621 -0.15701853
-0.11950803 -1.2662584 -0.023334974 0.24189188 0.28206116 -0.07841917 0.015520529 -2.3026989

inputEmbed.quadjetEmbed.m f4 [1, 1, 1, 3]
00000000: 2479 8a40 e8e5 b73f b2e5 c440
4.3272877 1.4367037 6.153039

inputEmbed.quadjetEmbed.s f4 [1, 1, 1, 3]
00000000: fe91 5f3f 876b e73f a3f5 ab3e
0.8733214 1.807969 0.33585843

inputEmbed.quadjetEmbed.conv.bias f4 [1, 8, 1]
00000000: 775a 9a3f c4f3 bd3c c80a 003f 6a6e 943e
00000010: 8cc3 e0bf 8152 dd3d ba9f 433e a0fd efbf
1.2058858 0.023187526 0.5001645 0.2899049 -1.7559676 0.10806752 0.191039 -1.8749275

inputEmbed.quadjetEmbed.conv.module.weight f4 [4, 3, 1]
00000000: 7057 87bd e838 393b 7e15 c33f 21e4 52bf
00000010: 068e b9bf a85d ca3e a19e 21bf 31d7 8dbe
00000020: 1c7c bc3d a9f3 efbf ba73 c63c 055b cd3c
-0.06608474 0.0028262679 1.5240934 -0.8237935 -1.4496467 0.3952458 -0.63132674 -0.2770324
0.092033595 -1.8746234 0.024225105 0.025067816

inputEmbed.dijetConv.m f4 [1, 1, 1, 8]
00000000: ff24 aa3e eb16 4c3f 2c23 0440 6f3e 1e3f
00000010: e459 e33e f1ba 563d ce4d 873c f1d9 a23f
0.3323135 0.7972247 2.0646467 0.61814016 0.4440452 0.052424375 0.016516592 1.272276

inputEmbed.dijetConv.s f4 [1, 1, 1, 8]
00000000: 45b0 4d3f 6fb9 843f ee4d af3f 0b2a 943f
00000010: 259f 313f 208a d33e 1263 e53e 3fc1 e73f
0.8034709 1.036909 1.3695657 1.157533 0.6938346 0.4131632 0.44802147 1.8105849

inputEmbed.dijetConv.conv.bias f4 [1, 8, 1]
00000000: 6b13 ba3d e461 4ebe 6eb4 933e 6ab8 5ebb
00000010: c99f fbbe 07a1 2dbe 341b 293f 8671 d0bd
0.09085735 -0.2015453 0.28848594 -0.003398443 -0.49145344 -0.16955958 0.66057134 -0.10177903

inputEmbed.dijetConv.conv.module.weight f4 [4, 8, 1]
00000000: bffd 943f 24ca 8abe 3644 95bd 5a78 7dbf
00000010: 945f 263d 380d 03bf d0b2 dcbd 372d 2a3f
00000020: 3f3a 173e ec53 73be 850c 9a3d 61d7 1fbf
00000030: 869b cabe d730 153f 3b0f 633e 373d b9bf
00000040: f855 0bbf ea33 b83e b70b ae3c 4488 8f3e
00000050: 35cb 5c3d 3184 99be b7cb 113e 4843 553f
00000060: 56f9 9e3e 365d dbbd 765f e3bd 9bb7 b93f
00000070: 50ed 1a3f 8698 11be f91b 4ebd d2b4 33be
1.1639937 -0.27107346 -0.07288401 -0.99011767 0.040618494 -0.51192045 -0.10776293 0.6647524
0.14768313 -0.23762482 0.07521919 -0.6243802 -0.3957178 0.5827765 0.22173779 -1.4471806
-0.5442805 0.35977107 0.02124582 0.2803365 0.05390473 -0.29983667 0.14237867 0.8330579
0.31049603 -0.10711138 -0.11102192 1.4509157 0.6051836 -0.1421834 -0.050319646 -0.17549446

inputEmbed.quadjetConv.m f4 [1, 1, 1, 8]
00000000: b8cc 913f ae79 b13e 16a1 b93e 341c 373f
00000010: cac2 e2bd 2960 083f 72e4 713e a012 8abd
1.13906 0.34663147 0.3625571 0.7152741 -0.11072309 0.5327173 0.23622301 -0.06741834

inputEmbed.quadjetConv.s f4 [1, 1, 1, 8]
00000000: b2ff a13f 519c 9a3f 17e7 043f 8235 a33f
00000010: 8876 8c3e 6c8d 293f f330 c33e cb7c ac3e
1.2656157 1.2078954 0.51915115 1.2750704 0.27434182 0.6623142 0.38123283 0.3368896

inputEmbed.quadjetConv.conv.bias f4 [1, 8, 1]
00000000: 8e5d b83f 155e 5dbd b9ad 8ebe f917 ee3f
00000010: 8c2c 6a3f 9ee2 a7bc cf80 12be 3fc4 923f
1.4403551 -0.0540448 -0.27866915 1.8601066 0.91474223 -0.020493802 -0.14306949 1.146614

inputEmbed.quadjetConv.conv.module.weight f4 [4, 8, 1]
00000000: e452 cc3e 6d51 b23c ddc3 b1bd 8c92 983e
00000010: 08f2 b93c aceb 9f3e f70b 433d 6ca2 e53e
00000020: 5f3c cc3e 35fd ddbd 02f1 403e 1240 c1bd
00000030: 9ffd 1ebe 53fd 1abe ceb3 543e 006c 7b3e
00000040: 6655 6f3f 739e d13c 0d0d a5bd d3a1 f3bc
00000050: 7069 eebd 2322 e23d 965e 7bbc 539c 96be
00000060: e221 b93c 5575 2c3d 1d7b b6bd 7e36 a43c
00000070: dcf7 2d3f 78c9 80bd 6894 c33d e7ec 4c3d
0.3990699 0.021767342 -0.08679936 0.29799306 0.022698417 0.3123449 0.047618832 0.4485048
0.3988981 -0.10839311 0.18841937 -0.094360486 -0.15526436 -0.15135698 0.20771715 0.24552917
0.9348968 0.02558825 -0.0805913 -0.02974025 -0.11641204 0.11041667 -0.015342375 -0.2941614
0.022599164 0.042104084 -0.08910201 0.020045515 0.6795633 -0.06288427 0.095497906 0.050030615

dijetResNetBlock.reinforce.0.conv.m f4 [1, 1, 3, 8]
00000000: 4a43 49bd 7570 c63d 0a73 a73e e23b e8bd
00000010: 3b61 393f f60b 22bd 214c 653f 6a75 d33e
00000020: 41d4 afbc 54cc 56bc 6c57 2f3e 75dc 753e
00000030: b503 753f 6ecd 063f 0f0d 7c3f 93f3 96bd
00000040: 624c 623f 1ad1 5c3e 1e13 943e 3734 fe3e
00000050: d593 193f b5c5 8e3e 7673 213f 9a4b cf3e
-0.049136437 0.09689418 0.32704955 -0.11339547 0.72413987 -0.039562188 0.8956929 0.41300517
-0.021463515 -0.013110239 0.17123193 0.24009879 0.9570878 0.5265721 0.98457426 -0.07370677
0.883978 0.21564141 0.28920835 0.49649212 0.599912 0.27885213 0.63066804 0.40487367

dijetResNetBlock.reinforce.0.conv.s f4 [1, 1, 3, 8]
00000000: 32a9 063f a988 de3e dde3 603f d694 863e
00000010: 245e 433f dbd2 fa3e 5006 9e3f 273e 463f
00000020: 0c15 0a3f dd63 e03e 2ffb 2e3f 2e65 0c3f
00000030: d228 753f 7a4f 733f 0f95 993f 6910 c33e
00000040: 1d9e d53f 9e12 243f f1b0 143f 0004 bd3f
00000050: dc96 8d3f c2e1 523f aeef 1f3f a5a2 063f
0.5260192 0.43463638 0.8784769 0.26285428 0.7631552 0.48988995 1.2345676 0.77438587
0.53938365 0.4382619 0.68352026 0.5484189 0.9576541 0.95043147 1.1998614 0.38098457
1.6688877 0.6409091 0.5808249 1.4766846 1.1061664 0.8237573 0.624751 0.52591926

dijetResNetBlock.reinforce.0.conv.conv.bias f4 [1, 8, 1]
00000000: 7860 a1bb 583a c13d 8b20 be3c 2be1 9dbe
00000010: 8976 273f eb30 f5be 6596 b0bc cfb6 b4be
-0.00492483 0.09434956 0.023208877 -0.30835852 0.65415245 -0.47888884 -0.021556089 -0.35295722

dijetResNetBlock.reinforce.0.conv.conv.module.weight f4 [4, 8, 3]
00000000: 4b21 9b3d 665d 723d c25f 90be 1046 463e
00000010: f7d5 173e 199e eb3e c507 f5be 1e90 1abf
00000020: 0298 ae3e f43f 4bbe 5727 09be fba1 663c
00000030: 179b 5b3c a449 4fbe db59 07c0 cec7 d83d
00000040: a052 8d3b 4314 d63e 0528 30bd b4d6 e33d
00000050: 043d 4d3d 0369 5f3e ca34 de3d a346 0040
00000060: 5f44 2ebe b563 d83d 113f dabf 0f66 09be
00000070: 2107 8cbd 516d a83e 7c2b 883d 5466 36be
00000080: c940 4b3e 50c4 8c3e 3c13 33be 5345 273f
00000090: af56 03bf 9b6e c83e f196 5bbf be2c 8fbe
000000a0: a185 133e 630e b2be 69d0 40bd 21a4 d83e
000000b0: 1337 173e 12f7 3e3e b959 293e 2fb6 103f
000000c0: 573f 0e3e db14 b7be 2f13 203f 7214 bcbc
000000d0: 16ac 72be 3dc5 a1be 620f 903c 420a cabd
000000e0: dbff 3c3f 8985 b4bd 71bb 2abc 8ce5 ccbf
000000f0: 7877 233e 69d9 35be ce22 5fbf 650f 2fbd
00000100: a154 4d3b 1884 963e d149 243c 0a44 6b3e
00000110: 4781 85bf 8a91 3ebe cd9b 8dbe 984d e43c
00000120: b1c4 acbb f305 24be c619 84be a21c 74be
00000130: 05d0 573e 8a13 9f3c 41db 31bf b611 42bf
00000140: a5e2 ac3d 6960 bc3e 7a9c afbd 1f32 1c3f
00000150: 77f3 c0be 2bc0 ecbd fcd2 d83f fd6f 78bd
00000160: aab5 59be 3abb 34be 4e3d a4bd 4014 f63d
00000170: 8c88 bebc 8a58 babd cc06 8a3e 9790 9abf
0.075747095 0.059171103 -0.28198057 0.19362664 0.14827715 0.46019056 -0.4785749 -0.60376155
0.34100348 -0.19848615 -0.13393913 0.014076705 0.0134036755 -0.20242935 -2.1148593 0.10584985
0.004312828 0.41812333 -0.043006916 0.11124936 0.050107017 0.21817403 0.108499125 2.0043113
-0.17018269 0.105658926 -1.7050496 -0.13417839 -0.06837297 0.32895902 0.06648919 -0.17812473
0.19848932 0.27493525 -0.17487806 0.65340155 -0.51304144 0.39146885 -0.85777193 -0.27963823
0.14406444 -0.347766 -0.047073755 0.4231272 0.14767103 0.18648937 0.16538133 0.5652799
0.1389135 -0.357581 0.6252927 -0.022958968 -0.23698458 -0.31595793 0.01758546 -0.09865238
0.73827904 -0.08814532 -0.010420666 -1.6007552 0.15963542 -0.17758717 -0.8716248 -0.04273929
0.003133096 0.29397655 0.010027365 0.22975174 -1.0430077 -0.18610206 -0.2765793 0.02786903
-0.005272471 -0.16017894 -0.25800914 -0.23839048 0.21075447 0.019418497 -0.6947518 -0.75808275
0.084416665 0.36792305 -0.085747674 0.6101398 -0.3768575 -0.11560091 1.6939387 -0.060653675
-0.21260706 -0.17649546 -0.080195054 0.12015581 -0.02325847 -0.09098919 0.2695831 -1.2075375

dijetResNetBlock.reinforce.1.conv.m f4 [1, 1, 3, 8]
00000000: c7a8 d5bd 1b89 8a3e 033d 043f 14b6 23be
00000010: 8a71 0c40 2bea 893e 2f53 c63f e7eb 3c3f
00000020: 9049 37bd ddc0 4e3e 2592 3d3f 5ebc 8c3e
00000030: e4b4 1d40 4cfd 8e3f 6cda 893f 9f39 ee3e
00000040: 0930 2a40 9a26 793f f272 ca3f d306 fc3f
00000050: 10bc 2a40 6e4e 743f 0856 ee3f 4093 e03f
-0.10432582 0.27057728 0.51655596 -0.15987426 2.1944299 0.26936468 1.5494136 0.7379746
-0.04474789 0.20190759 0.74051124 0.27487463 2.4641657 1.117105 1.0769782 0.46528336
2.6591818 0.97324526 1.5816329 1.9689583 2.6677284 0.95432174 1.8620005 1.7544937

dijetResNetBlock.reinforce.1.conv.s f4 [1, 1, 3, 8]
00000000: bc7c ec3e 44c0 813f 3216 ac3f d9a7 9a3e
00000010: e929 813f 8855 693f 6f80 b73f 6b96 373f
00000020: dc19 193f b54c 7d3f 54f7 ad3f e870 543f
00000030: 5a43 913f 52aa d03f b695 a03f f40d 6d3f
00000040: b994 4440 2a92 c43f 3ca3 0c40 5463 6440
00000050: 3a6b 7240 2497 1240 9ec6 2940 2b66 ff3f
0.46188915 1.01368 1.3444273 0.30206183 1.0090915 0.91146135 1.433607 0.71713895
0.59805083 0.9894517 1.3591104 0.8298478 1.1348679 1.6301978 1.2545688 0.92599416
3.0715773 1.5357106 2.197463 3.5685625 3.7877946 2.290475 2.6527476 1.9953054

dijetResNetBlock.reinforce.1.conv.conv.bias f4 [1, 8, 1]
00000000: caea 67be f1ef f23b c461 e93d b1db d43e
00000010: 1b10 d63e c2b4 cfbe ca23 9c3f d2a6 c83d
-0.22648159 0.007413857 0.113956004 0.4157386 0.41809162 -0.40567595 1.2198422 0.097974434

dijetResNetBlock.reinforce.1.conv.conv.module.weight f4 [4, 8, 3]
00000000: 3f7c f73c 1af1 993d e819 b83f 5d67 57be
00000010: 13ad 30bd 01c7 10be 8252 88bd 153d 39be
00000020: 0e6d 8f3f d20e 5fbc 32e8 89be 56a7 7cbf
00000030: adba d9bc 18ab 8f3d 53c9 e53e b39f 5f3c
00000040: c3b0 0a3d 0691 adbd f561 cfbd af4a 8a3d
00000050: 6436 5d3e c032 8a3e 8373 523e 64ba 033e
00000060: 1240 e6bd 4b71 86be 77f7 2cc0 072e 9dbd
00000070: dbf5 173e 1e09 c93d b3e2 2dbe d1f8 0fbe
00000080: 612b 8d3e 7fd8 9ebd d4ee c7bd 6b42 463e
00000090: 8855 ebbd 190e 9e3d ce26 23bf 5a8d fcbd
000000a0: 8c4b a3bc e38c 143d 7156 ac3e 53e4 a43e
000000b0: 4769 893e 4d86 27bd 8d53 7d3d bd9a 66bf
000000c0: 8c58 913c 2b7b 2d3e 33dd 55be 2e0b 90bc
000000d0: be17 7f3e 1944 abbe 5ceb e7bd c64d 7cbe
000000e0: f41a 1ebf 0cb2 3fbe 9c2e bebe cee2 8a3f
000000f0: 794c 883d 8bb0 823e 8a82 8a3f ad6f babe
00000100: dac6 cbbd cc64 fb3e c82f a0bd 4240 cfb9
00000110: 3654 003e 160f a53e 7b1b 2f3e aac5 ab3e
00000120: 7aae 913d 99b9 f0bd 7431 ee3d 0466 2fbb
00000130: ee59 dcbd db5f aabe 7346 55bd 99d8 0abe
00000140: de8d b63d c1d7 46bd acdd 8d3d 5900 4b3f
00000150: 513c e0bd 51df 73bd 2161 a43f d516 363d
00000160: cbbc 093d a1ab 1bbe 5bfc 09bb 9311 183d
00000170: 94c6 af3e a21e 3d3c 38b1 093c 8340 033f
0.030210612 0.075166896 1.4382906 -0.21035524 -0.043133806 -0.14138414 -0.06656362 -0.18089707
1.1205156 -0.013614373 -0.26934963 -0.98692834 -0.026578272 0.070150554 0.4488016 0.013648915
0.03385998 -0.08474927 -0.10126106 0.06752526 0.2160278 0.26991844 0.20551877 0.12864071
-0.11242689 -0.2625831 -2.702604 -0.07674795 0.1483988 0.09816192 -0.1698101 -0.1405976
0.27572158 -0.07756137 -0.0976235 0.19361274 -0.11490923 0.07717533 -0.63731086 -0.12331648
-0.019933484 0.036267173 0.336597 0.32205448 0.26838133 -0.040899564 0.06184726 -0.9007986
0.017742418 0.16941516 -0.20885162 -0.017583456 0.249114 -0.33450392 -0.11324188 -0.24639043
-0.6175988 -0.18720263 -0.37144935 1.0850465 0.06655211 0.25525317 1.0821087 -0.36413327
-0.09950037 0.4910034 -0.078216136 -0.00039529993 0.12532124 0.32238072 0.17100327 0.33549243
0.07113357 -0.1175415 0.11630526 -0.0026763687 -0.1075934 -0.33276257 -0.05206914 -0.13559188
0.08913778 -0.048545603 0.06927046 0.79297405 -0.109490044 -0.059539143 1.2842141 0.044455368
0.033627313 -0.1520219 -0.0021054957 0.037126135 0.3433119 0.011542948 0.008404069 0.5127031

dijetResNetBlock.conv.0.m f4 [1, 1, 1, 8]
00000000: b696 10bd ec96 2b3d bf1e 7f3e 85be 813d
00000010: 7832 573f 5f59 793e 97ac 703f 86b8 2d3e
-0.03529998 0.041891977 0.24914072 0.06335167 0.84061384 0.24350499 0.9401335 0.16964921

dijetResNetBlock.conv.0.s f4 [1, 1, 1, 8]
00000000: b26f 083f 013d e13e 307b 4a3f ef0d ee3e
00000010: 52aa 5f3f 96ad 4e3f c8ed 9b3f aa31 283f
0.53295434 0.43991855 0.7909422 0.46495005 0.87369263 0.8073362 1.218194 0.6570078

dijetResNetBlock.conv.0.conv.bias f4 [1, 8, 1]
00000000: 1a8d 6fbf 3f60 33bf 3181 063f a719 53be
00000010: 71be bb3f 0d09 843e b518 8c3e 62c7 273f
-0.9357468 -0.70068735 0.5254088 -0.20615254 1.4667493 0.25788155 0.273626 0.6553861

dijetResNetBlock.conv.0.conv.module.weight f4 [4, 8, 1]
00000000: 44d8 503e 2542 2a3e 3189 a5be 03d4 25be
00000010: 1ce2 f63e 8418 833d 8415 3abe 5cc1 92bd
00000020: e3cc 183f a22b 86be 85bf 32be 644c 893e
00000030: bdd5 52bf 2386 c4bb 544b 993e 7b6d af3e
00000040: 9bcf dc3d ef81 ecbd 19a8 313f e10c 2abd
00000050: f429 043f c78d 1e3f 86d9 2f3f eeb2 bfbe
00000060: 7593 b0bd a38f 13bf 0384 efbd 1059 933e
00000070: 7d1d 12bf 689c 67be 261c 0b3e 2963 323f
0.20394999 0.16626795 -0.3233123 -0.16194157 0.48219383 0.0640116 -0.1817227 -0.071657866
0.5968763 -0.26205164 -0.17455871 0.26816094 -0.8235739 -0.0059974357 0.29940283 0.34263214
0.10781785 -0.1154822 0.6939712 -0.04151619 0.51626515 0.61935085 0.6869129 -0.374412
-0.08621875 -0.5764105 -0.11695101 0.28778887 -0.57076246 -0.22618258 0.13584957 0.69682556

attention_oo.q_GBN.gamma f4 [8]
00000000: 0891 b83e ef48 323e 7f17 8bbe 6368 abbe
00000010: 0f80 573e 7e84 663f 05c1 15bf d297 3ebf
0.3604815 0.17410634 -0.27166364 -0.33478078 0.21044944 0.9004592 -0.5849765 -0.7445041

attention_oo.q_GBN.bias f4 [8]
00000000: 3bc1 84bf 79d4 1b40 b5bc 20c0 65ec 26be
00000010: f56b df3f f558 9c3f 6329 ae3f 9ac1 4340
-1.0371469 2.4348433 -2.5115178 -0.16301115 1.7454821 1.2214648 1.360638 3.0586915

attention_oo.q_GBN.m f4 [1, 1, 1, 8]
00000000: c967 3740 2e20 c73f 69c0 8040 2310 933f
00000010: 8216 0f3f 2334 0840 178e 613f 064d 3940
2.8657095 1.5556695 4.0234876 1.14893 0.5589372 2.1281822 0.88107437 2.8953261

attention_oo.q_GBN.s f4 [1, 1, 1, 8]
00000000: 8ef2 df3f eb9c d13f 2a74 b93f a40a a13f
00000010: e0b3 243f 8c0e b83f 7098 8a3f a818 a33f
1.7495897 1.6376013 1.4488575 1.2581372 0.6433697 1.4379439 1.082777 1.27419

attention_oo.v_GBN.gamma f4 [8]
00000000: 0240 b13f 92bf 4e3f 8c22 af3e 824a b53f
00000010: 3c48 663e c36e 5f3f e1f5 e23e dd2d f93f
1.3847659 0.80761063 0.34206045 1.4163363 0.22488493 0.87278384 0.44328216 1.9467121

attention_oo.v_GBN.bias f4 [8]
00000000: fb6d 2fbf 4868 433f 1b17 553f bbef 88bf
00000010: a2b5 c2be 4c4a 1dbf c93e 93be fb05 d03c
-0.6852719 0.76330996 0.8323838 -1.069816 -0.380292 -0.61441493 -0.2875884 0.025393477

attention_oo.v_GBN.m f4 [1, 1, 1, 8]
00000000: c967 3740 2e20 c73f 69c0 8040 2310 933f
00000010: 8216 0f3f 2334 0840 178e 613f 064d 3940
2.8657095 1.5556695 4.0234876 1.14893 0.5589372 2.1281822 0.88107437 2.8953261

attention_oo.v_GBN.s f4 [1, 1, 1, 8]
00000000: 8ef2 df3f eb9c d13f 2a74 b93f a40a a13f
00000010: e0b3 243f 8c0e b83f 7098 8a3f a818 a33f
1.7495897 1.6376013 1.4488575 1.2581372 0.6433697 1.4379439 1.082777 1.27419

attention_oo.qv_GBN.gamma f4 [8]
00000000: 7062 e23f ad11 3b40 6209 1c3f 732f cebd
00000010: 9306 b43f ed55 8c3f ff43 0740 46c6 223f
1.7686291 2.9229538 0.6095182 -0.10067644 1.4064506 1.0963722 2.1135252 0.6358379

attention_oo.qv_GBN.bias f4 [8]
00000000: 40cd 1d40 fe0f 7dbe 693e 983f 1e99 13be
00000010: f8aa 5b3e cdb5 f4bc 493c 81bf 0fdf a5bf
2.4656525 -0.24713132 1.1894046 -0.14413878 0.21451938 -0.029871846 -1.0096523 -1.2958697

attention_oo.qv_GBN.m f4 [1, 1, 1, 8]
00000000: 539e 883f f8b1 0540 c0fb 0540 71cb 9f3f
00000010: fd24 573f 4c92 2a3f 79c3 6e3f 1dc9 3940
1.0673317 2.0889874 2.0934906 1.248396 0.84040815 0.6662948 0.9326702 2.9029

attention_oo.qv_GBN.s f4 [1, 1, 1, 8]
00000000: 724f c43f 6ab2 bd3f b461 ba3f 7650 c53f
00000010: 2544 8f3f 7755 ae3f f42e e63f dcc0 a63f
1.5336745 1.4820073 1.4561067 1.541518 1.1192671 1.3619832 1.7983079 1.3027606

attention_oo.score_GBN.gamma f4 [2]
00000000: ef20 133f 80e5 6c3f
0.5747213 0.9253769

attention_oo.score_GBN.bias f4 [2]
00000000: 4168 ca3f 0a8a 87bf
1.5813066 -1.0589001

attention_oo.score_GBN.m f4 [1, 1, 1, 2]
00000000: e464 7e40 ba23 63c0
3.9749079 -3.5490556

attention_oo.score_GBN.s f4 [1, 1, 1, 2]
00000000: 5fb4 d140 ff7b da40
6.553268 6.8276362

attention_oo.conv.m f4 [1, 1, 1, 8]
00000000: cdcd fa3f 4d21 e43f e4df c43f 7208 81be
00000010: fbac 8d3e 647a ef3c baf1 693d 0600 31bc
1.9594055 1.7822663 1.5380826 -0.25201756 0.27671036 0.029233165 0.057115294 -0.010803228

attention_oo.conv.s f4 [1, 1, 1, 8]
00000000: b15c 703f be71 413f 5bc2 923e be13 503d
00000010: 9e84 813e 1949 893e aaf3 133f 0272 563e
0.93891436 0.7556418 0.28663906 0.050800078 0.2529649 0.26813582 0.57793677 0.20941928

attention_oo.conv.conv.bias f4 [1, 8, 1]
00000000: c7bb c43f d210 323f bb73 f83f 1aab 903f
00000010: b8c8 e1bf d6ad ce3f e276 0c3f 48d2 4b40
1.5369805 0.69556916 1.9410318 1.1302216 -1.763938 1.61468 0.548689 3.1847095

attention_oo.conv.conv.module.weight f4 [4, 8, 1]
00000000: 503c 4cbd 3cfa 563e 3a59 93be 5233 963c
00000010: 8e4e 84be dc75 ce3d 6ae6 e5be 7c36 5d3e
00000020: b408 a63d d796 8dbf 357d 383d aecb 2a3c
00000030: 2c93 013f c3e3 efbd 5a52 30be 028d 73be
00000040: 3c6f a93d f638 d63e 0642 78be e9ee a53d
00000050: 58f5 503e 0215 32bd 14d6 783f e1ce 13bd
00000060: bb23 aa3c 81cd e0be ed41 153f 9135 c83d
00000070: 6473 c63e f770 353e 7cdd 403f 2310 be3d
-0.049862206 0.20993894 -0.28779012 0.018335018 -0.25841182 0.10081074 -0.44902354 0.21602815
0.08107129 -1.1061658 0.04504128 0.010424538 0.5061519 -0.11713364 -0.17218915 -0.23784259
0.082731694 0.41840333 -0.24243936 0.08102209 0.20406091 -0.043477066 0.9720166 -0.036085967
0.02076899 -0.43906787 0.5830372 0.09775842 0.3875991 0.17718874 0.7533796 0.092804216

attention_do.q_GBN.gamma f4 [8]
00000000: 67de 893f 4dec c73c 0b71 1abf 01dc 633f
00000010: e430 9a3d 5900 d33f b717 27bf 58ea e73c
1.0770997 0.02440467 -0.6032874 0.89007574 0.075288564 1.6484481 -0.6527056 0.028309986

attention_do.q_GBN.bias f4 [8]
00000000: 6315 d8bf 7bc2 0b3f 2d93 f9bf 52d4 1cc0
00000010: 2b70 5cbf d76d 36bf 0cdc c6be 1726 bebd
-1.6881527 0.5459363 -1.949804 -2.450459 -0.86108655 -0.7126135 -0.38839757 -0.09284609

attention_do.q_GBN.m f4 [1, 1, 1, 8]
00000000: e619 fd3f f736 ae3f cab8 633f b0f5 a83f
00000010: 9caa 0040 2930 a13f 5194 0940 6f1d 933f
1.9773529 1.3610524 0.8895384 1.3199978 2.0104132 1.2592822 2.1496775 1.1493357

attention_do.q_GBN.s f4 [1, 1, 1, 8]
00000000: 7218 3e40 c447 f73f 9537 f13f c21e 4340
00000010: c013 1f40 b601 0840 56b2 d23f 1c41 7c3f
2.970242 1.9318776 1.8845087 3.0487523 2.4855804 2.1251044 1.6460674 0.9853685

attention_do.v_GBN.gamma f4 [8]
00000000: ea52 d83f d888 d83f ad97 8b3f da32 a03f
00000010: 5ede 543f 86c5 9b3f cf5e 9a3c 69cd 903f
1.6900303 1.6916761 1.0905663 1.2515519 0.83151805 1.2169654 0.018844036 1.1312686

attention_do.v_GBN.bias f4 [8]
00000000: e2d1 843d 6270 3cbf 4836 aa3f 6838 3340
00000010: d4a6 a33f 1f69 893f e76c 67bd 10a1 413f
0.064853445 -0.7360898 1.3297815 2.8003178 1.2785287 1.0735205 -0.05650034 0.75636387

attention_do.v_GBN.m f4 [1, 1, 1, 8]
00000000: 9cab 8f40 d270 0b40 7653 c140 c6d1 0e40
00000010: 65f9 1cbe eecf 6540 1ce1 c03f ac04 c440
4.4896984 2.178761 6.041438 2.2315536 -0.15329511 3.590816 1.5068698 6.1255703

attention_do.v_GBN.s f4 [1, 1, 1, 8]
00000000: 86b0 cc3f ee52 b03f 0af5 f03f 55ae f43f
00000010: 5e9b 443e e958 b13f d6a0 b23f 218b ed3f
1.5991371 1.3775308 1.882478 1.9115702 0.19199893 1.3855258 1.3955333 1.8558084

attention_do.qv_GBN.gamma f4 [8]
00000000: 0d27 1fbd 4006 543f edbb e43e fcd4 173f
00000010: 3647 d43f 258d e63e 9acf 0b40 bd3b 2e3f
-0.0388556 0.82822037 0.44674626 0.59309363 1.6584232 0.4502956 2.184546 0.68059903

attention_do.qv_GBN.bias f4 [8]
00000000: b787 c03f 4527 22bd 0bc8 df3f 35c2 2c40
00000010: 9892 003f bb07 3b3f 3942 9abe d897 503f
1.5041417 -0.03958823 1.7482923 2.6993535 0.50223684 0.7305867 -0.3012865 0.81481695

attention_do.qv_GBN.m f4 [1, 1, 1, 8]
00000000: 5031 443d f7db e93f 5d27 973f 45ca fa3e
00000010: 17ad fa3f 2fc4 323f 0a2c 973f 189f 6a40
0.04789859 1.8270253 1.1808888 0.48982444 1.9584073 0.698306 1.1810315 3.6659603

attention_do.qv_GBN.s f4 [1, 1, 1, 8]
00000000: 41a5 e83e df29 a53f 31e5 703f fa4a f13e
00000010: b0c9 be3f db71 a63f 5f47 653f cde1 3f3f
0.4543858 1.2903403 0.9409972 0.47127515 1.49053 1.3003496 0.8956203 0.7495392

attention_do.score_GBN.gamma f4 [2]
00000000: c6c6 e63e 101d 263f
0.45073527 0.64888096

attention_do.score_GBN.bias f4 [2]
00000000: 7f8d bf3f 9a95 a4be
1.4965056 -0.32145387

attention_do.score_GBN.m f4 [1, 1, 1, 2]
00000000: 6975 b4c0 7223 b73e
-5.6393323 0.3576923

attention_do.score_GBN.s f4 [1, 1, 1, 2]
00000000: 923f 0141 60e1 5540
8.07802 3.3418808

attention_do.conv.m f4 [1, 1, 1, 8]
00000000: 2800 703f f2ed 1abb 6b42 0d40 dca3 8d40
00000010: 7911 5c3f 6b32 2f3f 5480 3f3e b0f2 ed3e
0.9375024 -0.0023640362 2.2071788 4.4262524 0.8596416 0.68436307 0.18701297 0.46474218

attention_do.conv.s f4 [1, 1, 1, 8]
00000000: 8c1a 013f dcb8 903e 0265 e43e c03e f63e
00000010: 94a8 283f 2a0f 1e3f 606e 7a3f 931c ce3e
0.5043113 0.28266037 0.44608313 0.4809475 0.6588223 0.6174189 0.9782467 0.40256175

attention_do.conv.conv.bias f4 [1, 8, 1]
00000000: 7439 8bbe 00a4 35bc 240f f83e f21b 30bf
00000010: d98c 983e e021 1fbf fea9 7e3f 40c5 e23d
-0.2719227 -0.011086464 0.4844905 -0.6879264 0.29794958 -0.62161064 0.9947814 0.11072779

attention_do.conv.conv.module.weight f4 [4, 8, 1]
00000000: 632e 39bf 3752 abbe 104e 2dbf c999 a23f
00000010: f94e 3fbf 6f40 cfbc fac8 7f3e fa4b 28bf
00000020: 6421 0ebe db88 56bd a645 6fbf 88ed b2be
00000030: f6b9 4fbf ee08 81be fe22 833f 0686 08be
00000040: ea9d d6be a3b2 91bf b194 a93e cc50 053d
00000050: 1470 87bf d2e7 d03e 26b8 06be 1810 e93e
00000060: 5974 013e 4603 1bbf cf77 0c3e b833 90be
00000070: 6009 bc3e ed70 893e ec83 c3be 9a50 d9bc
-0.72336406 -0.33461162 -0.6769724 1.2703182 -0.7472988 -0.025299279 0.2497901 -0.6574093
-0.13879925 -0.05237661 -0.9346565 -0.34946847 -0.8114313 -0.25202125 1.0245054 -0.13332376
-0.41917354 -1.1382641 0.33121255 0.032547757 -1.0581079 0.40801865 -0.13156185 0.4552009
0.1264204 -0.6055187 0.13717578 -0.28164458 0.36725903 0.26843968 -0.38186586 -0.026527692

quadjetResNetBlock.reinforce.0.sym.weight f4 [8, 1, 2]
00000000: 0000 003f 0000 003f 0000 003f 0000 003f
00000010: 0000 003f 0000 003f 0000 003f 0000 003f
00000020: 0000 003f 0000 003f 0000 003f 0000 003f
00000030: 0000 003f 0000 003f 0000 003f 0000 003f
0.5 0.5 0.5 0.5 0.5 0.5 0.5 0.5
0.5 0.5 0.5 0.5 0.5 0.5 0.5 0.5

quadjetResNetBlock.reinforce.0.antisym.weight f4 [8, 1, 2]
00000000: 0000 003f 0000 00bf 0000 003f 0000 00bf
00000010: 0000 003f 0000 00bf 0000 003f 0000 00bf
00000020: 0000 003f 0000 00bf 0000 003f 0000 00bf
00000030: 0000 003f 0000 00bf 0000 003f 0000 00bf
0.5 -0.5 0.5 -0.5 0.5 -0.5 0.5 -0.5
0.5 -0.5 0.5 -0.5 0.5 -0.5 0.5 -0.5

quadjetResNetBlock.reinforce.0.conv.m f4 [1, 1, 3, 8]
00000000: d105 bb3f eb80 e43f 76a7 ba3f 3e9b 763f
00000010: f07f e33f 0be7 b83f 35eb 4140 dc48 843f
00000020: 944b 5b3f da87 343f e5b4 723f 68cd 543f
00000030: 6995 563f 78d7 873f ef6a 903f 1691 0e3f
00000040: 2829 8d3f ec57 f53b 888f 673d 33b8 c13f
00000050: 7894 363f 856f 563d 3903 d93d ee9a 693f
1.461115 1.7851843 1.4582355 0.9633063 1.7773418 1.4445509 3.029981 1.0334735
0.856622 0.70519793 0.94807273 0.83125925 0.8382173 1.0612631 1.1282634 0.55690134
1.1028185 0.0074872877 0.056533366 1.5134338 0.71320295 0.052352447 0.10596318 0.9125203

quadjetResNetBlock.reinforce.0.conv.s f4 [1, 1, 3, 8]
00000000: 5b45 0440 b0e4 0540 127a d53f 8021 f83f
00000010: 8f83 fe3f fcf1 0340 e95c fe3f 0014 513f
00000020: 7aab 8d3f 7c84 433f 2ca3 853f 634e b33f
00000030: 0a72 7e3f cda7 be3f 7cc1 6b3f 26bb 0c3f
00000040: a67f 273f 2761 8d3e 26f4 043f a67f 383f
00000050: f269 f83e cd3f 7c3e 5f0b ce3e 259a d03e
2.0667331 2.092083 1.6677878 1.9385223 1.9883898 2.0616446 1.9872104 0.8167114
1.1067955 0.7637403 1.0440421 1.4008297 0.9939276 1.4894959 0.9209211 0.54973066
0.6542915 0.27613184 0.5193504 0.72069776 0.4851833 0.24633713 0.4024305 0.40742603

quadjetResNetBlock.reinforce.0.conv.conv.bias f4 [1, 8, 1]
00000000: 419b f43e eae8 993e 56e6 f3be 7a3c 193f
00000010: 19aa 493f 9b2a be3c 1762 bfbe 0cf3 6abd
0.477747 0.30060512 -0.4763667 0.59857905 0.78775173 0.023213675 -0.37379524 -0.057360694

quadjetResNetBlock.reinforce.0.conv.conv.module.weight f4 [4, 8, 3]
00000000: 9bff 163e b8e5 963e 1d33 523e ba89 5bbf
00000010: 07a9 83bd 74ab e83e 9134 c8be 83b7 07bd
00000020: e5d7 1cbe 2eaa 5a3e cf2f 4ebe 549e 963e
00000030: 2424 923f 95e1 8c3e 19dd 9dbd e4c4 3e3f
00000040: 6d88 8dbe 9a50 08bf 7276 903f 76ae a83b
00000050: b448 21be 3a2e 03be 2be8 d43d 05fb a93e
00000060: 7808 3b3f 5214 de3e f5e2 c8be 439a 42bf
00000070: 20c9 273d a998 b33e e235 db3e 2734 773d
00000080: fac7 f63e c095 973d 157e bebe c3d9 0dbf
00000090: 4952 0fbf b0f0 15bd a1ce 02bd d9fa e23d
000000a0: 215c 0e3e b032 c8be f4ef 8dbe db3e c8be
000000b0: f484 933d c124 a83e f640 103e 380b 9c3e
000000c0: 51e1 81bf f319 debe 9a3e f33e 87a4 d03e
000000d0: 4fda 10be 4dec d4be 0e13 213e 7fff 133e
000000e0: 2cab 68be 097a 29bc 567f 3b3d 78d7 da3e
000000f0: a218 f23f 4d58 cdbe 02d2 67bd c31e 533f
00000100: d46f ca3e fad1 503f b9d9 1f3e 8194 3dbe
00000110: 00c0 8e3e 9001 583e 8383 80be 2221 a4be
00000120: f713 9f3c 7f9a 14be 4b13 1fbd 390f 95bf
00000130: 1cb3 f5bd 9b01 543e 0526 503e 666b 65bf
00000140: 2a77 21be d58e 923f 06ea 6e3e 478f b23d
00000150: 0bd7 a13d 522c c9bf b98a 9b3c f906 40be
00000160: 32ff ffbd a0bb b9be 6a12 aa3e d4a5 20be
00000170: 243b 013e 6f11 80bf 41b6 a1be 7736 b03e
0.14745943 0.29472136 0.2052731 -0.8575703 -0.06428724 0.45443308 -0.39102605 -0.033133995
-0.15316732 0.21353981 -0.20135425 0.2941767 1.1417279 0.27515855 -0.07708187 0.7451918
-0.27643147 -0.5324799 1.1286147 0.0051477505 -0.1575039 -0.12810603 0.10395845 0.33199325
0.730598 0.43374878 -0.39235654 -0.76016635 0.040963292 0.35077408 0.42814547 0.06035247
0.48199445 0.074016094 -0.37205568 -0.55410403 -0.5598493 -0.03660649 -0.031935338 0.11083002
0.13902332 -0.39101171 -0.27722132 -0.39110455 0.07203093 0.3284054 0.1408728 0.3047731
-1.0146886 -0.43379173 0.475087 0.40750524 -0.14145778 -0.41586533 0.15729925 0.14452933
-0.22721547 -0.010344037 0.045775734 0.42742515 1.8913767 -0.4010643 -0.056596763 0.82468814
0.39538443 0.815704 0.15610398 -0.18513681 0.2788086 0.21094346 -0.25100335 -0.32056528
0.0194187 -0.1451206 -0.03883676 -1.164527 -0.11997053 0.20703737 0.20327003 -0.89617
-0.15768114 1.1449839 0.2333146 0.08718734 0.07902344 -1.571665 0.018987047 -0.1875266
-0.124998465 -0.3627596 0.33217174 -0.15688258 0.12620217 -1.000532 -0.3158436 0.34416553

quadjetResNetBlock.reinforce.1.sym.weight f4 [8, 1, 2]
00000000: 0000 003f 0000 003f 0000 003f 0000 003f
00000010: 0000 003f 0000 003f 0000 003f 0000 003f
00000020: 0000 003f 0000 003f 0000 003f 0000 003f
00000030: 0000 003f 0000 003f 0000 003f 0000 003f
0.5 0.5 0.5 0.5 0.5 0.5 0.5 0.5
0.5 0.5 0.5 0.5 0.5 0.5 0.5 0.5

quadjetResNetBlock.reinforce.1.antisym.weight f4 [8, 1, 2]
00000000: 0000 003f 0000 00bf 0000 003f 0000 00bf
00000010: 0000 003f 0000 00bf 0000 003f 0000 00bf
00000020: 0000 003f 0000 00bf 0000 003f 0000 00bf
00000030: 0000 003f 0000 00bf 0000 003f 0000 00bf
0.5 -0.5 0.5 -0.5 0.5 -0.5 0.5 -0.5
0.5 -0.5 0.5 -0.5 0.5 -0.5 0.5 -0.5

quadjetResNetBlock.reinforce.1.conv.m f4 [1, 1, 3, 8]
00000000: 9130 c13f da35 1640 3ddc d43f f8c2 a23e
00000010: f62f 0340 14f9 0a40 4c11 7940 f621 833f
00000020: cac6 5c3f c558 593f 38dd 973f 0e6c d63e
00000030: 8cbc 8e3f 780b b93f 0ac7 ab3f e086 213f
00000040: 14e0 e53f b4d6 9e3f b032 183f b8f3 2040
00000050: b1e0 ff3f 6144 973f 679b 0c3f 8c3a bd3f
1.5092946 2.3470368 1.6629711 0.31789374 2.0498023 2.1714525 3.8916807 1.0244739
0.8624083 0.84901077 1.1864386 0.41879314 1.115129 1.4456625 1.3420117 0.6309643
1.7959008 1.2409272 0.59452343 2.5148754 1.9990445 1.1817743 0.54924625 1.4783492

quadjetResNetBlock.reinforce.1.conv.s f4 [1, 1, 3, 8]
00000000: 50da 0940 44aa 1f40 3b48 ee3f 8a6c 813f
00000010: 34eb 1940 1865 3840 d6a5 f63f a423 693f
00000020: 00e7 8c3f 5190 6a3f ab37 a63f cdcc 4d3f
00000030: 7e31 b53f b6cd f93f 6b5d 823f 5268 073f
00000040: 2af0 f93f c2d2 0140 effc cc3f d688 1140
00000050: a61d e23f 055e f73f 8393 6d3f f0e4 fd3f
2.1539497 2.4947672 1.8615793 1.0111248 2.4049807 2.8811703 1.9269359 0.9107001
1.1007996 0.9162646 1.2985739 0.80390626 1.4155729 1.9515903 1.0184759 0.52893555
1.9526417 2.0284886 1.6014689 2.2739768 1.7665298 1.9325567 0.9280321 1.9835491

quadjetResNetBlock.reinforce.1.conv.conv.bias f4 [1, 8, 1]
00000000: 0cbe b23f 26ad 92be 6c20 643d bb41 0b40
00000010: c393 423f bb92 0e3c fb5b 443e ef5a 6e3f
1.3964248 -0.28647727 0.055694982 2.1758869 0.76006716 0.008701975 0.19175713 0.93107504

quadjetResNetBlock.reinforce.1.conv.conv.module.weight f4 [4, 8, 3]
00000000: 287a a73e bdca 98be ce5e 22bf d1e6 05bf
00000010: 66e9 5c3b c48c 463e 9fb2 c93e 5947 0f3f
00000020: fcfa eabd c6c9 56bd aab3 0fbf a772 423e
00000030: af9e 5a3d 10d5 823e f07d 113e c448 d33e
00000040: 05bd 153f fe7b 91bd aceb 22bf 8aae 5d3c
00000050: 82e5 debd 5205 71bf 7429 453e d580 883e
00000060: 3c6d 2abe 9d08 073f 3d40 1cbf be6b 183f
00000070: ce81 b63d 7a24 af3d 0c7b af3e 345b 8cbf
00000080: dd05 f73d 2857 9cbf 7ad6 d53e f974 d9be
00000090: 7420 95be 2018 85bf 4199 0a3d 8aab 80bf
000000a0: a6ea 913e 7f51 4c3f 5902 43bf 8458 cf3c
000000b0: ad88 a8be e9c3 403d 1335 13bf b58f c9be
000000c0: 9a9e 52be c39b e03e c73b 013f 76e3 15c0
000000d0: 5f01 18bd 2483 34bc a9d0 ee3e 847e 52be
000000e0: 9051 933c 2027 5b3e 4634 8cbe 0408 043f
000000f0: 9a71 1d3f 3331 703c 0cb9 873c 71f3 e83e
00000100: accf 96bd 6715 61be 4cc0 b73e f262 9b3e
00000110: aff5 65be a0c3 fdbe 2859 c4be cbf5 de3e
00000120: eecc 1c3f 5ccd ff3d e14a 48bd e54f 36bf
00000130: 807e 9fbd 95f8 8a3d f5e0 a6be 5629 aebd
00000140: 8da8 36bf af28 8a3f e5cc ce3e f945 b33d
00000150: 0e07 a9bf a339 c93c 6c86 1e3d eb64 253f
00000160: d944 1b3f 1b9b b7be 5adc e8bd 327b babe
00000170: 7711 113f 5ee4 113f 77a7 02be 17de 74bd
0.32710385 -0.29842177 -0.6342591 -0.5230532 0.0033708452 0.19389635 0.3939409 0.5596824
-0.11473653 -0.05243852 -0.5613352 0.18989049 0.05337399 0.2555318 0.14208198 0.41266453
0.58491546 -0.07103728 -0.63640857 0.013530383 -0.10883619 -0.94148743 0.19254094 0.2666079
-0.16643232 0.5274752 -0.6103552 0.595394 0.08911477 0.08551879 0.34273565 -1.0965333
0.12061665 -1.2214098 0.41765195 -0.42472056 -0.29126322 -1.0397987 0.03383756 -1.005235
0.28499335 0.79811853 -0.7617546 0.025310762 -0.32916775 0.047061834 -0.5750286 -0.39367452
-0.20568314 0.43868837 0.5048184 -2.342008 -0.037110683 -0.0110175945 0.4664357 -0.20556074
0.017983228 0.21401644 -0.2738363 0.5157473 0.6150147 0.0146601675 0.01656773 0.4549823
-0.07363829 -0.2198082 0.35888898 0.30348927 -0.22457002 -0.49563313 -0.3834927 0.435469
0.612502 0.12490341 -0.048899535 -0.7121566 -0.077878 0.067856945 -0.32593504 -0.08503978
-0.7135094 1.0793666 0.40390697 0.087535806 -1.3205278 0.024563616 0.038702413 0.64607114
0.6065193 -0.35860524 -0.11370154 -0.36422116 0.56667274 0.56989086 -0.12759195 -0.059782114

quadjetResNetBlock.conv.0.m f4 [1, 1, 1, 8]
00000000: d205 bb3f eb80 e43f 76a7 ba3f 3e9b 763f
00000010: f07f e33f 0be7 b83f 35eb 4140 dc48 843f
1.4611151 1.7851843 1.4582355 0.9633063 1.7773418 1.4445509 3.029981 1.0334735

quadjetResNetBlock.conv.0.s f4 [1, 1, 1, 8]
00000000: 3bc0 1f40 d482 1540 ffc8 0b40 db0c 2240
00000010: 3b0d 1840 d461 3040 65ae 1d40 e3c7 903f
2.4961078 2.33611 2.1841428 2.5320346 2.3758075 2.755971 2.4637692 1.1311

quadjetResNetBlock.conv.0.conv.bias f4 [1, 8, 1]
00000000: 5d96 28bd da03 1f3e c567 a43e 4c6b 8fbf
00000010: 4cd3 983e f0c0 263f 3364 613f 9b00 003f
-0.041159023 0.15528813 0.3211042 -1.120462 0.29848707 0.6513815 0.88043517 0.50000924

quadjetResNetBlock.conv.0.conv.module.weight f4 [4, 8, 1]
00000000: 51ef ce3e 8c68 203e 08ab 43bf 066e 2fbf
00000010: e141 b93e bee4 fb3c c94d aa3e d538 b6bd
00000020: ec19 49bf cae3 f73d c2ff 00bf 3c38 c33e
00000030: 0696 33bd 53e6 e5bd 6b46 96b9 a49a 41bf
00000040: fbc3 223f dc43 8d3d 7735 02bc eb69 d83d
00000050: 91e0 463f 5670 e93e a2a4 3d3f cf38 15be
00000060: dc4e 923f c7e9 e6be 7a23 e53d 7980 a4be
00000070: 6a73 1ebe 1bd2 163f 1167 b13e e4f3 8b3f
0.4041696 0.15664881 -0.7643285 -0.6852726 0.36183074 0.030748721 0.3326247 -0.088975586
-0.7855518 0.12103994 -0.50390255 0.3812884 -0.043844245 -0.112255715 -0.00028662695 -0.7562659
0.6358029 0.06897709 -0.007947317 0.10567077 0.7768641 0.45593518 0.74079335 -0.14572452
1.1430316 -0.45100233 0.11188407 -0.32129267 -0.15473714 0.58914346 0.34648946 1.0933805

select_q.m f4 [1, 1, 1, 8]
00000000: b435 3440 f054 f53e aece 823f 1c79 8140
00000010: 5d8a 0340 eec8 303f 0fcf 943f ac39 2640
2.8157778 0.47916365 1.0219324 4.046034 2.05532 0.69056594 1.1625689 2.59727

select_q.s f4 [1, 1, 1, 8]
00000000: 124c 2d40 f6c3 943f 2e80 e13f 2c94 5e40
00000010: 6d2e 0e40 274b d73f 36b4 fd3f fe24 4540
2.707768 1.1622303 1.7617242 3.4777937 2.2215836 1.681981 1.9820621 3.0803828

select_q.conv.module.weight f4 [1, 8, 1]
00000000: 454e 87be 9721 ad3e aec4 b33d 63dc 8ebe
00000010: 736e a53e 4ae3 b83d b063 7a3e 74e5 b53f
-0.26426902 0.3381469 0.08777748 -0.27902517 0.3231083 0.09027727 0.2445209 1.4210649

out.m f4 [1, 1, 1, 8]
00000000: 6f1f c73f ca90 a53f 444f e83d 8ae4 663f
00000010: 0439 4540 5ae9 8d3e bb93 3440 8579 b440
1.5556468 1.2934811 0.11343244 0.9019247 3.081605 0.27717096 2.8215168 5.639834

out.s f4 [1, 1, 1, 8]
00000000: e5f8 d63f 6a72 bc3f a0a7 213f a832 b93f
00000010: 5640 0e40 10a7 5c3f 4100 1240 2454 1140
1.6794707 1.4722416 0.631464 1.4468584 2.2226768 0.8619242 2.2812655 2.2707605

out.conv.module.weight f4 [5, 8, 1]
00000000: 3ed4 0cbd 7c95 dfbd 7813 b23d 90d7 46be
00000010: ada7 34be 49bb 133e a114 efbe 8bf5 35bf
00000020: 07d5 1dbe a856 01bf 66eb 443e f24c a53c
00000030: d721 b93f 99ef a23e bc73 77bf 1eb1 283f
00000040: 2dc5 d2bd 5b08 8b3e 16a5 b9bd 740b aabe
00000050: cdfe 2a3f 0d54 1e3e 436f 573f b093 80be
00000060: a7b4 ae3e e7f8 073f 493f 873d fe23 c7bd
00000070: 5cad 1fbf 3a62 1bbe c01d 19bf 69d2 363f
00000080: 70dd 433e 4009 07bf 6785 b9be 846a 50bc
00000090: a2ef d6be 9d3a 9c3c 323e 763f 8b8e 353f
-0.034382097 -0.10917184 0.086951196 -0.19418168 -0.17642088 0.14426912 -0.46695426 -0.71077794
-0.15413295 -0.5052285 0.19230422 0.020178292 1.4463452 0.31823424 -0.9666097 0.6589526
-0.102915145 0.27154812 -0.09064691 -0.33211863 0.66795045 0.1546175 0.84154147 -0.25112677
0.34122202 0.5311417 0.066038676 -0.09723662 -0.623739 -0.15174189 -0.5981102 0.7141481
0.1912744 -0.5274849 -0.3623459 -0.012720708 -0.419797 0.019070918 0.9618865 0.7092063

out.conv.module.bias f4 [5]
00000000: ee35 df3f 913d 22c0 666a a53d fbde a4bf
00000010: 6118 71bf
1.7438333 -2.5350077 0.080769345 -1.2880548 -0.94177824
