metadata/weights/pytorch_models/2024_HHUL_all_kl/model_SvB_ggF_all_kl__kfolds_3__offset_0__3034cf4d-3a5e-40e4-934d-dfcdc748b2de.pkl (torch, 114438 bytes, 118 tensors)

inputEmbed.ancillaryEmbed.m f4 [1, 1, 1, 4]
0	0x41877b9e	16.93536
1	0x3f055ba7	0.52092975
2	0x4051d0cd	3.2783692
3	0x3f9bd510	1.2174397

inputEmbed.ancillaryEmbed.s f4 [1, 1, 1, 4]
0	0x3f5b0817	0.8555922
1	0x3ef85fc2	0.48510557
2	0x40391496	2.8918815
3	0x40642e2b	3.5653179

inputEmbed.ancillaryEmbed.conv.module.weight f4 [4, 4, 1]
0	0xbd97902a	-0.07400544
1	0xbe16dde0	-0.14733076
2	0xbd367968	-0.044549376
3	0xbc8ebcb7	-0.01742397
4	0x3d0195bb	0.031636935
5	0x3ca908b2	0.020634029
6	0xbc49901c	-0.012302425
7	0x3c897062	0.016777221
8	0xbcfbce7e	-0.030738112
9	0xbf448126	-0.76759565
10	0xbaa1a289	-0.0012331764
11	0x3cd68d83	0.026190525
12	0xbd298c6e	-0.04139369
13	0x3e1bb153	0.15204363
14	0xbc7c3dc5	-0.015395586
15	0xbd55ed2c	-0.052228138

inputEmbed.jetEmbed.m f4 [1, 1, 1, 4]
0	0x40916e88	4.5447426
1	0x3ef29060	0.47375774
2	0x3f6ce4c4	0.9253657
3	0x402ab934	2.667554

inputEmbed.jetEmbed.s f4 [1, 1, 1, 4]
0	0x3eec4b03	0.4615098
1	0x3f660e38	0.89865446
2	0x3f4a9281	0.791298
3	0x3eb91ca9	0.36154678

inputEmbed.jetEmbed.conv.bias f4 [1, 8, 1]
0	0xbf396708	-0.7242284
1	0xbd390222	-0.04516805
2	0xbe4c854e	-0.19972727
3	0xbe9e40d3	-0.30908832
4	0x3e8206f6	0.25395936
5	0x3ed55fac	0.41674554
6	0xbf2f79ca	-0.6854521
7	0xbec4c6d7	-0.38432953

inputEmbed.jetEmbed.conv.module.weight f4 [4, 4, 1]
0	0xbe894f97	-0.26818535
1	0x3b6f4424	0.003650912
2	0xbd14c2cb	-0.03631858
3	0x3f726d18	0.94697714
4	0xbfb68a2c	-1.4260917
5	0xbd8e54f5	-0.06949798
6	0xbebd92c2	-0.3702603
7	0x3f7a1216	0.97683847
8	0xbc83ff23	-0.01611287
9	0x3cfffef5	0.031249503
10	0xbf509ef0	-0.8149252
11	0xbf473fbe	-0.7783164
12	0xbfd814fe	-1.6881406
13	0x3cc9cfa1	0.024635138
14	0x3e9c2237	0.30494854
15	0xbdb6d873	-0.08928003

inputEmbed.jetConv.m f4 [1, 1, 1, 8]
0	0xbde2f1a8	-0.110812485
1	0x3e160c1c	0.14653057
2	0x3e43049c	0.19044727
3	0x3eec0a60	0.46101665
4	0x3e8981c2	0.2685681
5	0x3ecae38f	0.39626738
6	0x3ccb524f	0.024819521
7	0x3eef0cd1	0.46689466

inputEmbed.jetConv.s f4 [1, 1, 1, 8]
0	0x3e9acd59	0.30234793
1	0x3ed79fcf	0.42114112
2	0x3f1134b0	0.5672102
3	0x3f642beb	0.89129514
4	0x3ed924ae	0.42410797
5	0x3f20e9b0	0.6285658
6	0x3f05a77e	0.522087
7	0x3f9299c1	1.1453172

inputEmbed.jetConv.conv.bias f4 [1, 8, 1]
0	0xbec31331	-0.3810058
1	0xbea75168	-0.32679296
2	0x3f16961c	0.588228
3	0x3f3494ae	0.7053937
4	0xbe5616d2	-0.20907143
5	0xbccefa4d	-0.025265837
6	0xbe1da7d8	-0.15396059
7	0xbe680a26	-0.22660121

inputEmbed.jetConv.conv.module.weight f4 [4, 8, 1]
0	0x3ed68e6e	0.4190554
1	0x3f472e4e	0.7780503
2	0xbe670ac9	-0.22562708
3	0x3d00e493	0.031467985
4	0xbf43ca8b	-0.7648093
5	0xbee8ca66	-0.45466918
6	0x3effe633	0.49980316
7	0x3e596747	0.21230803
8	0x3f3e0e93	0.7424099
9	0x3d165b54	0.03670819
10	0xbf12de2e	-0.5737027
11	0xbf6880d4	-0.90821576
12	0x3e201e9a	0.15636674
13	0x3f0bc0b3	0.5459091
14	0x3cfd13a5	0.030893156
15	0x3cb7da2f	0.022442905
16	0x3d6f98d9	0.058495376
17	0x3f05396e	0.52040756
18	0x3da00515	0.07813469
19	0x3e4e8124	0.2016645
20	0xbe624529	-0.22096695
21	0xbf24e40c	-0.6441047
22	0xbebe1b88	-0.3713038
23	0x3e1643bb	0.14674275
24	0x3e70b7b0	0.23507571
25	0xbd9d687e	-0.07685946
26	0x3f171120	0.59010506
27	0xbedf85bd	-0.43656722
28	0xbee75d90	-0.4518857
29	0x3ed85916	0.42255467
30	0xbe4ea6dc	-0.2018084
31	0x3f80d585	1.0065161

inputEmbed.othJetEmbed.m f4 [1, 1, 1, 4]
0	0x408ca507	4.395145
1	0x3ebf5164	0.37366784
2	0x40248cb3	2.5710876
3	0x3fc5cd6d	1.5453316

inputEmbed.othJetEmbed.s f4 [1, 1, 1, 4]
0	0x3f191b8a	0.59807646
1	0x3f8f363c	1.1188426
2	0x3ee29fe9	0.44262627
3	0x3f3d3e74	0.7392342

inputEmbed.othJetEmbed.conv.bias f4 [1, 8, 1]
0	0x4006bd4e	2.1053042
1	0x3eb61a3f	0.355669
2	0xbf43060c	-0.761811
3	0xbe6279ee	-0.22116825
4	0x3f30f624	0.6912558
5	0xbf529fdf	-0.82275194
6	0xbea5db95	-0.3239409
7	0x3e214a11	0.1575091

inputEmbed.othJetEmbed.conv.module.weight f4 [4, 4, 1]
0	0xbdfc8604	-0.12330249
1	0x3cbca41a	0.023027468
2	0xbfd6603f	-1.6748122
3	0xbe62b18d	-0.22138043
4	0x3fcc1db8	1.594657
5	0xbbe96b0d	-0.007123357
6	0xbef9b09e	-0.4876756
7	0x3eb653cd	0.3561081
8	0x3fc536a3	1.5407299
9	0xbc0d4f80	-0.008624911
10	0xbf08332f	-0.532031
11	0x3f10040a	0.56256163
12	0x3f5e2b65	0.86784965
13	0x3cda9a91	0.026685031
14	0x3f07ac9a	0.52997744
15	0xbfc49d05	-1.5360419

inputEmbed.othJetConv.m f4 [1, 1, 1, 8]
0	0x3ffd7c38	1.9803534
1	0x3f0d0949	0.55092293
2	0x3e29b2c6	0.16572103
3	0x3ea405c8	0.3203566
4	0x3f906773	1.128157
5	0x3d4749b4	0.048654273
6	0x3eca0e8e	0.3946423
7	0x3ed45f81	0.41479114

inputEmbed.othJetConv.s f4 [1, 1, 1, 8]
0	0x3fdc5609	1.7213756
1	0x3f52b084	0.8230059
2	0x3f1ccc1c	0.61248946
3	0x3f6e0a99	0.9298492
4	0x3fb656ac	1.42452
5	0x3f1d7cfe	0.6151885
6	0x3f7d4578	0.98934126
7	0x3f35082f	0.7071561

inputEmbed.othJetConv.conv.bias f4 [1, 8, 1]
0	0x3ef4a75a	0.4778393
1	0x3eaa1335	0.3321778
2	0x4056b020	3.3544998
3	0x400a05eb	2.1566112
4	0x40547368	3.3195438
5	0x401b59c3	2.4273536
6	0x4048750f	3.1321447
7	0x3fb1c9ad	1.3889672

inputEmbed.othJetConv.conv.module.weight f4 [4, 8, 1]
0	0x3f58e2b2	0.8472091
1	0xbf1c4341	-0.6104012
2	0xbd1582ed	-0.036501814
3	0xbecce9cf	-0.40022132
4	0xbedea547	-0.43485472
5	0x3e30a2f9	0.17249669
6	0xbeba2824	-0.3635875
7	0xbf2c2e6f	-0.6725835
8	0x3d8d3cce	0.06896363
9	0x3e7c0904	0.24612814
10	0x3e182db7	0.14861189
11	0x3eac20c3	0.33618745
12	0x3eb208b5	0.34772268
13	0x3d6b7981	0.057488922
14	0x3f30cd72	0.69063485
15	0xbe81724a	-0.25282508
16	0xbedd1261	-0.43178084
17	0xbf77c633	-0.96786803
18	0x3d357982	0.044305332
19	0xbe99aaeb	-0.30013213
20	0xbe2c0370	-0.16798186
21	0x3f9442c6	1.1582878
22	0x3e0235fd	0.12715907
23	0x3f54dc4e	0.8314866
24	0xbf37d16c	-0.7180393
25	0x3ef8c8a9	0.48590592
26	0xbe4fb0d9	-0.20282306
27	0xbf239d8c	-0.6391227
28	0x3e11c342	0.14234641
29	0x3dd5c0a6	0.104371354
30	0xbd602ba9	-0.054729138
31	0x3f3cda3b	0.73770493

inputEmbed.MdPhi_embed.m f4 [1, 1, 1, 3]
0	0x40ab27e7	5.348621
1	0x3fe8fd25	1.8202254
2	0x3eddfe33	0.43358

inputEmbed.MdPhi_embed.s f4 [1, 1, 1, 3]
0	0x3f2f3dc4	0.6845362
1	0x3f6d10d5	0.9260381
2	0x3efdbb31	0.49556878

inputEmbed.MdPhi_embed.conv.bias f4 [1, 8, 1]
0	0xbee5210f	-0.44751784
1	0x3f35bb55	0.7098897
2	0xbfb7dedd	-1.4364887
3	0x3ed0a09c	0.40747535
4	0x3f450494	0.7696011
5	0x3fb887de	1.4416463
6	0x3ffc71c3	1.9722217
7	0x3fa73bd7	1.3065137

inputEmbed.MdPhi_embed.conv.module.weight f4 [4, 3, 1]
0	0x3ecfaf95	0.40563646
1	0x3dd9c34b	0.10632952
2	0xc00d6e13	-2.2098434
3	0x3e3b1725	0.18270548
4	0xbfc91955	-1.5710856
5	0x3eae6a6f	0.34065577
6	0xc0009fa6	-2.0097442
7	0xbecae49d	-0.39627543
8	0xbd844189	-0.06457812
9	0xbec58c35	-0.38583532
10	0xbf1123ab	-0.5669505
11	0xbf7b8837	-0.9825472

inputEmbed.MdPhi_conv.m f4 [1, 1, 1, 8]
0	0x3f11acc5	0.5690425
1	0x3f522e92	0.8210231
2	0x3e3a7284	0.18207747
3	0x3f338509	0.7012487
4	0x3fadc182	1.3574679
5	0x3fb7b624	1.435246
6	0x4001b3ac	2.0265913
7	0x3fadab19	1.356784

inputEmbed.MdPhi_conv.s f4 [1, 1, 1, 8]
0	0x3f2f632a	0.6851069
1	0x3f97147e	1.1803129
2	0x3f57e194	0.8432858
3	0x3f80a2b9	1.0049659
4	0x3fe612b0	1.7974453
5	0x3fa3b227	1.2788743
6	0x3fe4444c	1.7833343
7	0x3fb29987	1.3953103

inputEmbed.MdPhi_conv.conv.bias f4 [1, 8, 1]
0	0x3fb0cc30	1.3812313
1	0x406006a9	3.5004065
2	0x3fdd8ab5	1.7307955
3	0xbfafab04	-1.3724065
4	0x4051cacd	3.278003
5	0x402af360	2.6711044
6	0x400498ee	2.071834
7	0x3fd9359a	1.6969483

inputEmbed.MdPhi_conv.conv.module.weight f4 [4, 8, 1]
0	0xbfa940ae	-1.3222864
1	0xbdea996e	-0.11455046
2	0x3f819132	1.0122435
3	0x3f0723cf	0.52789015
4	0x3e19aa98	0.15006483
5	0x3eac0ac4	0.33601964
6	0x3e876984	0.2644769
7	0x3df309b5	0.11867086
8	0xbf24c3b8	-0.64361143
9	0xbed9ee23	-0.42564496
10	0x3ffe7b48	1.9881372
11	0x3f29be27	0.66305774
12	0x3de32c22	0.11092402
13	0x3eb2ce93	0.3492323
14	0xbd845720	-0.0646193
15	0xbdf6dab3	-0.12053432
16	0xbfb066b9	-1.3781348
17	0x3e940d23	0.28916273
18	0x3e961920	0.29316044
19	0x3f2f9157	0.68581146
20	0x3e8076b6	0.2509057
21	0xbe59b1f8	-0.21259296
22	0x3f7aade8	0.9792161
23	0x3ecea337	0.40358898
24	0xbe7bb132	-0.24579313
25	0xbdef7c7c	-0.116936654
26	0xbe25eb83	-0.16203122
27	0xbed22dcf	-0.41050574
28	0x3ed6b7b6	0.41937035
29	0x3fcbc544	1.5919576
30	0x3d476745	0.04868247
31	0x3eafd337	0.34340832

inputEmbed.dijetEmbed.m f4 [1, 1, 1, 4]
0	0x4092b50b	4.5846
1	0x3f561142	0.83620083
2	0x3f74b0ab	0.95582074
3	0x40a2e2c7	5.090183

inputEmbed.dijetEmbed.s f4 [1, 1, 1, 4]
0	0x3f406077	0.75147194
1	0x3fa4078c	1.2814803
2	0x3f983b51	1.1893102
3	0x3f049757	0.51793426

inputEmbed.dijetEmbed.conv.bias f4 [1, 8, 1]
0	0x3e901fe8	0.28149343
1	0x3efe60f6	0.4968335
2	0xbd91dd8c	-0.07122335
3	0xbed640f1	-0.4184642
4	0x3ee4fecc	0.44725645
5	0x3d384e81	0.044996742
6	0xbeefdb20	-0.46846867
7	0x3f940e2f	1.1566828

inputEmbed.dijetEmbed.conv.module.weight f4 [4, 4, 1]
0	0x3e1dc51e	0.15407225
1	0xbdadd7d7	-0.08488434
2	0x3ced3189	0.028954284
3	0x3f452735	0.7701295
4	0xbfc693f7	-1.5513905
5	0x3d087b39	0.03332064
6	0x3c050461	0.00811872
7	0xbd551175	-0.0520186
8	0xbdf7ca16	-0.12099092
9	0xbe2d3ba9	-0.1691729
10	0xbcac7078	-0.021049723
11	0xbfd9444c	-1.6973968
12	0x3e3ad7b4	0.18246347
13	0x3d19be11	0.037534777
14	0x3bec93e2	0.0072197774
15	0xc02493ec	-2.5715284

inputEmbed.quadjetEmbed.m f4 [1, 1, 1, 3]
0	0x408a775b	4.3270698
1	0x3fb7c8a9	1.4358112
2	0x40c4e5ab	6.1530356

inputEmbed.quadjetEmbed.s f4 [1, 1, 1, 3]
0	0x3f5fb4fd	0.8738554
1	0x3fe77bf8	1.8084707
2	0x3eabfc4a	0.3359092

inputEmbed.quadjetEmbed.conv.bias f4 [1, 8, 1]
0	0x3f229d36	0.63521135
1	0x3e95ec67	0.29281923
2	0xbd1e4e81	-0.038649086
3	0x3e5b06d2	0.2138932
4	0xbf17df3d	-0.5932501
5	0xbfa9722d	-1.3237969
6	0xbf6168f5	-0.88050777
7	0x3ee0854e	0.43851703

inputEmbed.quadjetEmbed.conv.module.weight f4 [4, 3, 1]
0	0x3dac244c	0.084053606
1	0xbcdf1285	-0.02723051
2	0x3f962ce8	1.1732454
3	0xbf354ef7	-0.70823616
4	0xbfc65840	-1.5495682
5	0x3e1d40eb	0.15356795
6	0xbfbef9dc	-1.4920001
7	0x3e4a75c5	0.19771488
8	0x3f291adf	0.6605663
9	0x3e6f5fe4	0.23376423
10	0x3e94ff51	0.2910104
11	0x3f59ac2b	0.8502833

inputEmbed.dijetConv.m f4 [1, 1, 1, 8]
0	0x3e84298d	0.2581295
1	0x3f17b65c	0.59262633
2	0x3ee80492	0.45315987
3	0x3f2a0600	0.66415405
4	0x3ee9ac5a	0.45639306
5	0x3efec541	0.49759868
6	0x3e91fd8a	0.28513747
7	0x3fbef46d	1.4918343

inputEmbed.dijetConv.s f4 [1, 1, 1, 8]
0	0x3f056ee8	0.52122355
1	0x3f9574aa	1.1676228
2	0x3f5d354b	0.86409444
3	0x3f9d8433	1.2305969
4	0x3f02eb4d	0.5114029
5	0x3f50164b	0.81284016
6	0x3f671c54	0.902776
7	0x40021a98	2.0328732

inputEmbed.dijetConv.conv.bias f4 [1, 8, 1]
0	0xbe7b42f7	-0.24537264
1	0xbf1d1cb0	-0.613719
2	0x3df3ea8f	0.11909973
3	0xbef0a9a7	-0.47004434
4	0xbeb2a9c8	-0.34895158
5	0x3fad0078	1.3515768
6	0xbe2cbc5d	-0.1686873
7	0x3f4bb31a	0.7957016

inputEmbed.dijetConv.conv.module.weight f4 [4, 8, 1]
0	0x3e9e54fb	0.3092421
1	0xbe15ee7b	-0.14641754
2	0xbe3c30a9	-0.18377937
3	0xbfb3af5d	-1.4037892
4	0x3ddc2453	0.10749116
5	0xbe76f6c4	-0.24117571
6	0xbe9ca809	-0.3059695
7	0x3f62da36	0.88614213
8	0x3e2bbc83	0.1677113
9	0xbd9e2061	-0.077210195
10	0xbea4f872	-0.322208
11	0xbf6fb620	-0.93637276
12	0xbe2dfb21	-0.1699033
13	0x3f02469f	0.5088901
14	0xbea2894f	-0.31745383
15	0xbf746667	-0.95468754
16	0xbd9af99a	-0.07567139
17	0xbd46951b	-0.04848204
18	0x3e27d3c2	0.16389373
19	0xbe9d92a4	-0.3077594
20	0x3eaa665f	0.33281228
21	0xbf6ac957	-0.9171347
22	0x3f8b3152	1.0874426
23	0x3effc84f	0.4995751
24	0x3e65d053	0.2244275
25	0xbde5b02b	-0.11215242
26	0x3ef43252	0.4769464
27	0x40043853	2.0659378
28	0x3e966ac6	0.29378337
29	0x3da9f073	0.08297815
30	0x3d78d59d	0.060750592
31	0xbe91d3b4	-0.2848183

inputEmbed.quadjetConv.m f4 [1, 1, 1, 8]
0	0x3f1520be	0.58253086
1	0x3f0bed2d	0.54658777
2	0x3f13072f	0.57432836
3	0x3e87cf63	0.2652541
4	0x3c92c67f	0.017916916
5	0xbe11c254	-0.14234287
6	0x3e3a96ab	0.18221538
7	0x3ee47d83	0.44627008

inputEmbed.quadjetConv.s f4 [1, 1, 1, 8]
0	0x3f5b23d0	0.8560152
1	0x3fa9c1c7	1.3262261
2	0x3f915921	1.1355325
3	0x3f1b1175	0.6057351
4	0x3ec8a4f7	0.39188358
5	0x3e120c1f	0.14262436
6	0x3f30c7c8	0.6905484
7	0x3f1aff52	0.6054584

inputEmbed.quadjetConv.conv.bias f4 [1, 8, 1]
0	0x3fbb5dee	1.463804
1	0xbc9d13da	-0.019174505
2	0x3f39bb34	0.72551274
3	0xbe6a7600	-0.22896576
4	0x3d9bfc24	0.076164514
5	0x3f6483ae	0.8926343
6	0x3f932e9f	1.1498603
7	0x3ef401be	0.4765758

inputEmbed.quadjetConv.conv.module.weight f4 [4, 8, 1]
0	0x3f1a86d0	0.6036196
1	0x3dab2c6e	0.08358084
2	0x3de6890a	0.11256607
3	0x3e169e39	0.14708795
4	0xbe4297e4	-0.19003254
5	0xbc9a8e82	-0.018866781
6	0x3d88f422	0.0668719
7	0xbe207305	-0.15668876
8	0x3e00991f	0.12558411
9	0xbc80ba5f	-0.015713869
10	0x3e16db85	0.14732178
11	0xbdf9d0b1	-0.12198008
12	0xbf13e0d8	-0.5776496
13	0x3d0cc3c3	0.03436638
14	0x3ee53393	0.4476591
15	0xbdb9b628	-0.09067947
16	0xbe3fadf4	-0.18718702
17	0xbd5abc07	-0.053401973
18	0x3e273b23	0.16331153
19	0x3c8a98ae	0.016918506
20	0x3e185547	0.1487628
21	0x3e7ff6d1	0.24996497
22	0xbd8d90ba	-0.0691237
23	0x3de61f4a	0.11236437
24	0x3e66b10e	0.22528479
25	0xbadd3933	-0.0016878009
26	0xbda22581	-0.079173096
27	0x3dc1d636	0.094646856
28	0x3e105736	0.14095768
29	0x3c4379bf	0.011930882
30	0x3f08e9cf	0.53481764
31	0xbd43ef33	-0.04783554

dijetResNetBlock.reinforce.0.conv.m f4 [1, 1, 3, 8]
0	0x3f0d69fa	0.5523983
1	0x3f179417	0.5921034
2	0x3f111309	0.5666967
3	0x3fdfa236	1.7471378
4	0x3ec81149	0.39075688
5	0x3d3958ff	0.04525089
6	0x3e49569a	0.19661942
7	0x3d6e9e65	0.058256526
8	0x3e79402b	0.24340884
9	0x3dbcb0fe	0.09213446
10	0x3f4aa2d8	0.7915473
11	0x3e4d7310	0.20063424
12	0x3f111055	0.56665546
13	0x3f54024b	0.82816
14	0x3e9891a7	0.29798624
15	0x3f6d1fe3	0.9262678
16	0x3f12c45c	0.5733087
17	0x3d4187de	0.047248714
18	0x3f018d76	0.5060648
19	0x3f45b971	0.77236086
20	0x3f10eb7a	0.5660931
21	0x3f9b05e7	1.2111176
22	0x3eb2b40f	0.34903
23	0x3fb9d05b	1.451671

dijetResNetBlock.reinforce.0.conv.s f4 [1, 1, 3, 8]
0	0x3fa640ec	1.2988563
1	0x3f7cd2e3	0.9875929
2	0x3f4a3c7d	0.7899855
3	0x3fdf4dbb	1.7445596
4	0x3f6976f2	0.9119712
5	0x3f09d4b7	0.538402
6	0x3f18f99c	0.59755874
7	0x3efab9d7	0.4896991
8	0x3f5bad2c	0.85811114
9	0x3f2315b0	0.6370497
10	0x3f7dec9b	0.99189156
11	0x3f45f8f5	0.77333003
12	0x3f857ce5	1.042874
13	0x3f873090	1.0561695
14	0x3f5f0c9c	0.87128615
15	0x3f80da6a	1.0066655
16	0x3f6080a8	0.87696314
17	0x3ed29cd2	0.4113527
18	0x3f9652ab	1.1743978
19	0x40011b0c	2.0172758
20	0x3fad2e3f	1.3529738
21	0x3fa61645	1.2975546
22	0x3f55d93b	0.8353459
23	0x3fa46f0a	1.2846386

dijetResNetBlock.reinforce.0.conv.conv.bias f4 [1, 8, 1]
0	0xbfa88c6e	-1.3167856
1	0x3f53157f	0.82454675
2	0xbe2b311f	-0.16717957
3	0xbf8f3a73	-1.1189712
4	0x3e9ceff5	0.30651823
5	0x3fbf3aa7	1.4939774
6	0xbea057be	-0.31316942
7	0xbf8b8b6b	-1.0901922

dijetResNetBlock.reinforce.0.conv.conv.module.weight f4 [4, 8, 3]
0	0xbf2e0519	-0.6797653
1	0xbf2de542	-0.67927945
2	0x3e9420c3	0.28931245
3	0x3db69b66	0.08916359
4	0x3d2c4165	0.042054553
5	0x3f3ecae5	0.7452834
6	0xbe8b3288	-0.2718699
7	0xbe80a170	-0.25123167
8	0xbda651a3	-0.0812104
9	0x3e0b94c2	0.13630965
10	0x3c8c2c1e	0.01711088
11	0xbdb03353	-0.08603539
12	0x3d2cec65	0.04221763
13	0x3c76bac5	0.015059178
14	0xbf958835	-1.1682192
15	0x3e7b32b7	0.24531065
16	0xbd14e302	-0.036349304
17	0x3dd2a0cd	0.102845766
18	0xbe035c9c	-0.12828296
19	0x3d91fc06	0.07128148
20	0xbe70b188	-0.23505223
21	0xbdb61fdb	-0.08892795
22	0xbc9031a4	-0.017601795
23	0x3ff63728	1.9235582
24	0xbef49a39	-0.47773913
25	0xbedf8a51	-0.43660215
26	0xbf390479	-0.7227245
27	0xbec44e6f	-0.3834109
28	0xbe1885c9	-0.14894785
29	0x3f37ad23	0.7174856
30	0xbd9f9456	-0.07791965
31	0xbe664887	-0.22488604
32	0xbf122796	-0.57091653
33	0xbe93b5a5	-0.2884952
34	0x3deca3ad	0.11554656
35	0xbf6f4ead	-0.93479425
36	0x3d420d8d	0.047376204
37	0x3e9301b4	0.28712237
38	0xbf56d6b7	-0.8392138
39	0x3e484191	0.19556262
40	0x3e847658	0.2587154
41	0x3e7a609b	0.24450915
42	0x3d18f76f	0.037345346
43	0xbe24f519	-0.16109122
44	0xbcaf3df4	-0.021391846
45	0x3d552394	0.052035883
46	0xbdbe40da	-0.09289713
47	0xbe27c4ee	-0.16383716
48	0x3e737b9b	0.2377762
49	0x3e0cc4be	0.13746926
50	0x3e4ac79a	0.19802704
51	0xbe790849	-0.24319567
52	0x3db98af9	0.0905971
53	0x3ed5bfca	0.41747886
54	0x3e261439	0.16218652
55	0x3e3fe09d	0.18738027
56	0xbf37df39	-0.71824986
57	0x3db95aec	0.09050545
58	0xbdd5371b	-0.10410901
59	0xbeaecc33	-0.34140167
60	0xbca9ffc5	-0.020751843
61	0x3e23d6d7	0.15999924
62	0xbf25879c	-0.6466005
63	0x3f378c00	0.71698
64	0x3f2387fa	0.6387936
65	0x3f1f95d9	0.62338024
66	0x3db91c70	0.09038627
67	0xbe03a090	-0.12854218
68	0xbfa932c5	-1.3218619
69	0xbf3fce10	-0.749238
70	0xbf07cbe0	-0.53045464
71	0x3f420e56	0.75803125
72	0xbd7ec82c	-0.062202618
73	0xbe11e6c3	-0.14248185
74	0xbeb5f021	-0.35534766
75	0xbd743112	-0.05961711
76	0xbe8efbba	-0.27926427
77	0xbf1079d3	-0.5643589
78	0xbe910bd4	-0.28329337
79	0xbd5502f0	-0.052004755
80	0x3e25f153	0.16205339
81	0xbdf9da2a	-0.121998146
82	0x3ea7f070	0.32800627
83	0x3f3b9f2d	0.7328976
84	0xbdb9c4d5	-0.09070746
85	0xbec44068	-0.38330388
86	0x3fd4a939	1.6614143
87	0x3e25a3a1	0.161757
88	0xbe1f773e	-0.15572831
89	0xbe3f73db	-0.18696539
90	0xbdf663c3	-0.12030747
91	0x3e84ea82	0.25960165
92	0x3ed06304	0.40700543
93	0x3e0fb057	0.14032112
94	0x3e3a947b	0.18220703
95	0xbf906c51	-1.1283056

dijetResNetBlock.reinforce.1.conv.m f4 [1, 1, 3, 8]
0	0x3eedbbad	0.46432248
1	0x3df1acb1	0.118005164
2	0x3f9fec9a	1.249408
3	0x40462387	3.0959184
4	0x3ee6364f	0.4496331
5	0x3ea944d2	0.33060318
6	0x3e885c0d	0.2663273
7	0x3e49d849	0.19711412
8	0x3eac220b	0.33619723
9	0xbce0e0aa	-0.027450878
10	0x3fcb910c	1.590364
11	0x3f76a0dd	0.9633921
12	0x3e95bea5	0.29247013
13	0x3f74a17a	0.95558894
14	0x3e8f66d8	0.2800815
15	0x3fa8ef9f	1.3198127
16	0x3fc632c0	1.5484238
17	0x3f9c8fd3	1.2231392
18	0x3fac3cea	1.345609
19	0x4002428d	2.035312
20	0x4019e8af	2.4048269
21	0x4034429e	2.816566
22	0x3f90c03a	1.1308663
23	0x40173ff4	2.3632784

dijetResNetBlock.reinforce.1.conv.s f4 [1, 1, 3, 8]
0	0x3fbbd519	1.4674407
1	0x3f25d901	0.64784247
2	0x3fafc355	1.3731486
3	0x400512a8	2.0792637
4	0x3f3664b3	0.71247405
5	0x3f3ac978	0.72963667
6	0x3f36f943	0.71474093
7	0x3f2edb62	0.683035
8	0x3f90b923	1.1306499
9	0x3ef889d9	0.4854267
10	0x3fb41f9a	1.4072144
11	0x3fa768c6	1.3078849
12	0x3f2628e9	0.64906174
13	0x3f8e6ade	1.1126363
14	0x3f81d3a3	1.0142711
15	0x3f9e64d5	1.2374521
16	0x3feca15d	1.8486744
17	0x3fd1efc8	1.64013
18	0x3fd5e3f8	1.6710196
19	0x4085833a	4.172269
20	0x407819f5	3.8765843
21	0x4043d456	3.059835
22	0x4012c027	2.292978
23	0x400ec2cc	2.2306395

dijetResNetBlock.reinforce.1.conv.conv.bias f4 [1, 8, 1]
0	0x3e931ea0	0.28734303
1	0x3eff52e1	0.4986792
2	0x3e2c2939	0.168126
3	0x3c4415fa	0.01196813
4	0xbf36f098	-0.71460867
5	0x3f863dff	1.048767
6	0x3e8d57d6	0.27606076
7	0x3fbb1ff3	1.4619125

dijetResNetBlock.reinforce.1.conv.conv.module.weight f4 [4, 8, 3]
0	0x3e3c193a	0.18368998
1	0x3cd36436	0.02580462
2	0x3f1286e3	0.5723707
3	0x3d085fb5	0.0332944
4	0xbe44ff21	-0.19237949
5	0x3f163b78	0.5868449
6	0x3dd2457a	0.10267158
7	0x3e95ccfb	0.2925795
8	0x3e614772	0.2199991
9	0xbe366c78	-0.17814815
10	0xbe2f133f	-0.17097186
11	0xbf80e190	-1.0068836
12	0x3bc4cd93	0.0060059517
13	0xbdcd11b4	-0.10013142
14	0xbdcd424a	-0.10022409
15	0x3d98adb8	0.07455009
16	0xbdd5d8a1	-0.10441709
17	0x3c86b712	0.016444717
18	0xbb14ddec	-0.0022715284
19	0x3e97b429	0.2962964
20	0xbeb93031	-0.3616958
21	0x3e53006a	0.20605627
22	0x3d434b77	0.04767939
23	0x3bd53f0f	0.0065077613
24	0xbdb6f005	-0.08932499
25	0xbe121a35	-0.1426781
26	0xbf672d6e	-0.90303695
27	0xbd14069d	-0.03613912
28	0xbd2c3bb4	-0.042049125
29	0xbef23513	-0.47306117
30	0xbe840ccb	-0.2579101
31	0xbe67e9c0	-0.22647762
32	0xbf6dc2eb	-0.92875546
33	0x3d88ba74	0.06676188
34	0x3e93b4c1	0.28848842
35	0xbd964557	-0.07337444
36	0x3d47e581	0.048802856
37	0x3e8517f4	0.25994837
38	0xbf35fd54	-0.71089673
39	0xbef50d11	-0.4786153
40	0xbe671ad9	-0.22568835
41	0x3c3f220a	0.01166583
42	0x3e43bd15	0.19115098
43	0x3e57647c	0.21034425
44	0xbea77b36	-0.3271119
45	0x3c7005d6	0.014649829
46	0x3dd1653e	0.102243885
47	0xbf3c40ac	-0.7353618
48	0x3e1fce13	0.15605955
49	0xbc739a13	-0.014868277
50	0x3fa3f751	1.280985
51	0x3d9b7032	0.07589759
52	0x3e8203ce	0.25393528
53	0xbeddc60f	-0.4331517
54	0x3c85d702	0.016337875
55	0x3d05bbab	0.032649677
56	0x3e9985f9	0.29985026
57	0xbe5aae15	-0.2135547
58	0xbd8083f6	-0.062751696
59	0x3f43b895	0.76453525
60	0xbd9fade9	-0.077968426
61	0xbccc5f30	-0.024947733
62	0x3f61f8af	0.88270086
63	0x3d34b9b8	0.044122428
64	0x3e1000bd	0.14062782
65	0xbe8c670c	-0.2742237
66	0xbdab76cd	-0.08372269
67	0xbe86f0cd	-0.2635559
68	0xbd58593f	-0.052819487
69	0x3d6a341a	0.057178594
70	0x3d808445	0.062752284
71	0x3fa3d2e7	1.2798737
72	0x3dfcfb32	0.12352599
73	0x3c9a95e1	0.018870296
74	0xbf771c27	-0.9652733
75	0x3e10b93c	0.14133161
76	0x3cba38d5	0.022732178
77	0x3e0084f0	0.12550712
78	0x3d4b5fe8	0.04965201
79	0x3e302a7e	0.1720371
80	0xbdde154c	-0.10843906
81	0x3c89f54c	0.0168406
82	0x3dffd920	0.12492585
83	0x3f0fe263	0.56204814
84	0x3c44df7c	0.012016173
85	0xbd71c7f0	-0.059028566
86	0xbda8f41f	-0.082496874
87	0xbde77166	-0.11300926
88	0x3c51d1d5	0.0128063755
89	0xbf20fd03	-0.62886065
90	0xbcbd7ee6	-0.023131799
91	0x3cfb52a7	0.03067906
92	0x3f33535a	0.7004906
93	0xbde6e509	-0.11274154
94	0xbe566a1d	-0.20938917
95	0xbcbdaa3b	-0.023152461

dijetResNetBlock.conv.0.m f4 [1, 1, 1, 8]
0	0x3ecbba05	0.3979036
1	0x3eaf2a36	0.34211892
2	0x3f2ddaf2	0.6791221
3	0x3f795098	0.973886
4	0x3ef518fa	0.47870618
5	0x3edf97da	0.4367054
6	0x3e7d3cf0	0.24730277
7	0x3efc09c7	0.4922621

dijetResNetBlock.conv.0.s f4 [1, 1, 1, 8]
0	0x3f8e4967	1.1116151
1	0x3f5e29e4	0.8678267
2	0x3f675744	0.9036753
3	0x3fc7119e	1.5552251
4	0x3f7bcd42	0.98360074
5	0x3f6cd7ae	0.925166
6	0x3f3fb1fe	0.7488097
7	0x3f671b0b	0.9027564

dijetResNetBlock.conv.0.conv.bias f4 [1, 8, 1]
0	0xbd00f10a	-0.031479873
1	0xbf350051	-0.7070361
2	0x3f4fa847	0.81116146
3	0x3faa0fc8	1.3286066
4	0xbe2dd906	-0.16977319
5	0x3f008c3f	0.50214
6	0xbe69f38a	-0.22846809
7	0x3e9d6414	0.30740416

dijetResNetBlock.conv.0.conv.module.weight f4 [4, 8, 1]
0	0x3ed22543	0.41044053
1	0xbe1654d5	-0.14680798
2	0xbe85a77c	-0.26104343
3	0xbe412f53	-0.18865709
4	0x3ee6f8b2	0.45111614
5	0x3eac9a26	0.33711356
6	0x3d8b1141	0.067904
7	0x3e1c9556	0.15291342
8	0xbe84e4bb	-0.25955757
9	0xbe309ee4	-0.17248112
10	0xbeafc3fa	-0.34329206
11	0x3daef0e3	0.08542039
12	0xbe876aeb	-0.2644876
13	0x3e56e78e	0.20986769
14	0x3e85e228	0.26149106
15	0x3ef28faa	0.47375232
16	0x3f299e2b	0.6625697
17	0x3cee62b3	0.029099798
18	0xbe150053	-0.14550905
19	0xbe46b9db	-0.19406836
20	0x3effa41a	0.49929887
21	0x3e7c295a	0.2462515
22	0xbe47ed22	-0.19524053
23	0xbdbbe31c	-0.09174177
24	0x3e91a1a6	0.2844364
25	0x3d0ce043	0.03439356
26	0xbe6da0e3	-0.23205905
27	0xbddea557	-0.1087138
28	0xbdd2b2c9	-0.10288007
29	0xbcd70ada	-0.026250292
30	0x3e09782e	0.13424751
31	0x3cbcd45b	0.023050478

attention_oo.q_GBN.gamma f4 [8]
0	0x3d9313bf	0.07181501
1	0x3e53b3bb	0.2067403
2	0xbe98cdd4	-0.29844534
3	0xbf577fa1	-0.8417912
4	0x3e690137	0.2275437
5	0xbf7cfc4c	-0.98822474
6	0x3d502667	0.050817873
7	0x3e4ea4e8	0.20180094

attention_oo.q_GBN.bias f4 [8]
0	0xbfd69420	-1.6763954
1	0xbf6bd85b	-0.9212701
2	0xbfc0e420	-1.5069618
3	0xbe06d92b	-0.1316878
4	0x4057a7aa	3.3696084
5	0xbf8705ed	-1.0548683
6	0x408cd785	4.4013085
7	0x3f969929	1.1765491

attention_oo.q_GBN.m f4 [1, 1, 1, 8]
0	0x3f17f0b9	0.5935169
1	0x3ec0731e	0.37587827
2	0x404a09c0	3.156845
3	0x40021699	2.0326293
4	0x404e74dd	3.2258828
5	0x400f3bab	2.2380168
6	0x403f3039	2.9873183
7	0x3f996c70	1.1986217

attention_oo.q_GBN.s f4 [1, 1, 1, 8]
0	0x3f871c64	1.0555539
1	0x3f3f8e54	0.7482655
2	0x3fee6a12	1.862612
3	0x3f912587	1.1339577
4	0x3fccfe09	1.6015025
5	0x3f812299	1.0088683
6	0x3ff2f13e	1.8979871
7	0x3f9dcd8c	1.2328353

attention_oo.v_GBN.gamma f4 [8]
0	0x3fa3cd88	1.2797098
1	0x3e83fef1	0.25780442
2	0x3f9cba6d	1.2244393
3	0x3fd40fcd	1.6567322
4	0x3fdfb4f6	1.74771
5	0x3f2e4269	0.68070084
6	0x400c048e	2.187778
7	0xbdbc9155	-0.092074074

attention_oo.v_GBN.bias f4 [8]
0	0xbf33b0fe	-0.70191944
1	0x3fb2e6c9	1.397668
2	0x3f314e96	0.6926054
3	0xbeca1524	-0.39469254
4	0x3e8ce076	0.27515
5	0x3f6b2b5b	0.9186303
6	0x3dd68754	0.104750305
7	0xbe6b87c8	-0.23001015

attention_oo.v_GBN.m f4 [1, 1, 1, 8]
0	0x3f17f0b9	0.5935169
1	0x3ec0731e	0.37587827
2	0x404a09c0	3.156845
3	0x40021699	2.0326293
4	0x404e74dd	3.2258828
5	0x400f3bab	2.2380168
6	0x403f3039	2.9873183
7	0x3f996c70	1.1986217

attention_oo.v_GBN.s f4 [1, 1, 1, 8]
0	0x3f871c64	1.0555539
1	0x3f3f8e54	0.7482655
2	0x3fee6a12	1.862612
3	0x3f912587	1.1339577
4	0x3fccfe09	1.6015025
5	0x3f812299	1.0088683
6	0x3ff2f13e	1.8979871
7	0x3f9dcd8c	1.2328353

attention_oo.qv_GBN.gamma f4 [8]
0	0x3f8c2667	1.094922
1	0x3fcea652	1.6144507
2	0x3fa72afd	1.3059994
3	0x3e22c5ae	0.15895721
4	0x3f596a2b	0.84927624
5	0x3f155ccd	0.5834473
6	0x4024ab56	2.5729575
7	0x4016d8cd	2.3569825

attention_oo.qv_GBN.bias f4 [8]
0	0xbf1a7979	-0.603416
1	0x3f133642	0.57504666
2	0x3f047971	0.51747805
3	0x3fc26f57	1.5190228
4	0xbe59f454	-0.2128461
5	0x3f8833f3	1.0640854
6	0xbfda2091	-1.7041188
7	0x3e87da33	0.2653366

attention_oo.qv_GBN.m f4 [1, 1, 1, 8]
0	0x3f4c3dd1	0.79781824
1	0x4082351d	4.0689836
2	0x3ec06a94	0.37581313
3	0x3c2daeca	0.010600755
4	0x407c4d89	3.9422324
5	0x40192185	2.3926709
6	0x40643e20	3.5662918
7	0x401b647d	2.4280083

attention_oo.qv_GBN.s f4 [1, 1, 1, 8]
0	0x3fc95716	1.5729702
1	0x40378a43	2.8678138
2	0x3f8355c6	1.0260551
3	0x3e96f7ee	0.2948603
4	0x3fca01b2	1.5781767
5	0x3fd07a89	1.6287395
6	0x3faaa8a4	1.3332715
7	0x4009d9e6	2.1539245

attention_oo.score_GBN.gamma f4 [2]
0	0x3fb21373	1.3912185
1	0x3ee0ed83	0.43931207

attention_oo.score_GBN.bias f4 [2]
0	0xbfef4eaa	-1.8695881
1	0x3d8a9b49	0.067678995

attention_oo.score_GBN.m f4 [1, 1, 1, 2]
0	0x3f85a810	1.0441914
1	0xbf4ba39e	-0.79546535

attention_oo.score_GBN.s f4 [1, 1, 1, 2]
0	0x40936c3d	4.6069627
1	0x417ac489	15.672982

attention_oo.conv.m f4 [1, 1, 1, 8]
0	0x3e15235b	0.14564268
1	0x3fa40fe0	1.2817345
2	0x3f6a3e91	0.9150172
3	0x3ebc324e	0.3675713
4	0x3f0aaf13	0.5417339
5	0x3f50c226	0.81546247
6	0x3dde819a	0.10864563
7	0xbd17e311	-0.03708178

attention_oo.conv.s f4 [1, 1, 1, 8]
0	0x3f37504b	0.7160689
1	0x3fd6bf97	1.6777219
2	0x3fc3fcdd	1.5311543
3	0x3ef0e543	0.47049913
4	0x3f461c22	0.7738668
5	0x3e4c4d8b	0.19951455
6	0x3efb9f52	0.4914499
7	0x3e01d31f	0.12678193

attention_oo.conv.conv.bias f4 [1, 8, 1]
0	0x3f9e75a7	1.2379655
1	0x3f479d63	0.7797453
2	0x4042d416	3.0441947
3	0xbe748c20	-0.23881578
4	0x3fe788a3	1.8088573
5	0x3f2a64d7	0.6656012
6	0x3f30f4c5	0.6912349
7	0x3fe72069	1.8056766

attention_oo.conv.conv.module.weight f4 [4, 8, 1]
0	0xbc9420e8	-0.018082097
1	0xbf5f25fd	-0.8716734
2	0x3e980410	0.296906
3	0xbe9384a1	-0.28812125
4	0x3dccbefe	0.09997366
5	0x3ed7b2ce	0.42128605
6	0x3eb561f6	0.354263
7	0x3dc78aac	0.097432464
8	0xbe5b3007	-0.2140504
9	0xbda64ab8	-0.0811972
10	0x3ee947e3	0.45562658
11	0x3dd6a722	0.10481097
12	0x3d9ac1e9	0.07556517
13	0x3efe80b4	0.49707568
14	0xbebbe99d	-0.3670167
15	0x3fb269b8	1.3938513
16	0xbe28a282	-0.16468242
17	0x3e614f3f	0.22002886
18	0x3e1ab089	0.15106405
19	0x3d932fd1	0.07186855
20	0x3ea7d8c1	0.32782558
21	0x3eb73a22	0.3578654
22	0x3c9ff0fb	0.019524088
23	0xbe05091c	-0.12991756
24	0xbde4eeee	-0.11178385
25	0x3e8b65c6	0.27226084
26	0x3ee488dd	0.44635668
27	0xbfa678f6	-1.3005664
28	0x3dc4aa36	0.09602778
29	0x3f1348c7	0.57532924
30	0x3e96c4c2	0.2944699
31	0xbf89686f	-1.0734996

attention_do.q_GBN.gamma f4 [8]
0	0x402ef690	2.733799
1	0xbda55397	-0.08072584
2	0x3fb66740	1.4250259
3	0x3ed7a00a	0.42114288
4	0x3d32d902	0.043663986
5	0xbf0c64e0	-0.54841423
6	0xbd6a5f15	-0.057219584
7	0x3f013343	0.50468844

attention_do.q_GBN.bias f4 [8]
0	0xc03ce2ec	-2.9513502
1	0xc0013434	-2.0188112
2	0xc01f2191	-2.4864237
3	0xbeebc2dc	-0.46047103
4	0x4002c9ee	2.0435748
5	0xbe47837f	-0.19483756
6	0x400f1e58	2.236227
7	0x3f9cf01f	1.2260779

attention_do.q_GBN.m f4 [1, 1, 1, 8]
0	0x3fbbdff2	1.4677718
1	0x3f3fb401	0.7488404
2	0x3fbba991	1.4661123
3	0x3fc72a8f	1.5559863
4	0x3f8ed2e1	1.1158105
5	0x401cc9b0	2.44981
6	0x3fae78b7	1.3630589
7	0x40473922	3.112862

attention_do.q_GBN.s f4 [1, 1, 1, 8]
0	0x3fba430f	1.4551715
1	0x3fa314c9	1.2740718
2	0x40099cd1	2.1501963
3	0x402cc70e	2.6996493
4	0x401d2257	2.455221
5	0x401700df	2.3594282
6	0x40088bb7	2.1335275
7	0x403594db	2.8372104

attention_do.v_GBN.gamma f4 [8]
0	0x3f294467	0.6612
1	0x3f869cbf	1.0516585
2	0x3fe23de0	1.7675133
3	0x3f1285da	0.5723549
4	0x3f6a1122	0.9143239
5	0x3e93581b	0.28778157
6	0x3ff94545	1.9474264
7	0x3fc8c8f9	1.5686332

attention_do.v_GBN.bias f4 [8]
0	0xbe8f41ad	-0.27979794
1	0x3fbf1ff3	1.4931625
2	0x3fad2f54	1.3530068
3	0x3fddc16e	1.7324655
4	0x3f1ebb00	0.6200409
5	0x3f651a56	0.8949331
6	0x3ed5c1e7	0.41749498
7	0x3f7d0b04	0.98844934

attention_do.v_GBN.m f4 [1, 1, 1, 8]
0	0x3fb2bee6	1.3964508
1	0x3f88b628	1.068059
2	0x40c5e479	6.1841397
3	0x40119802	2.2749028
4	0x40a3d4f8	5.119747
5	0x403b53ba	2.9269853
6	0x406ce3cd	3.7014039
7	0x40467959	3.1011565

attention_do.v_GBN.s f4 [1, 1, 1, 8]
0	0x3fa1d121	1.2641946
1	0x3fbe50eb	1.4868444
2	0x3fdece16	1.7406642
3	0x3fec687c	1.8469386
4	0x3fb83a32	1.439276
5	0x3fc7bcc9	1.5604488
6	0x3fe333ed	1.7750221
7	0x402d749f	2.710243

attention_do.qv_GBN.gamma f4 [8]
0	0x401742ab	2.363444
1	0x3f33ad7a	0.7018658
2	0x3f754289	0.9580465
3	0x3f3e1f41	0.7426644
4	0x3f9f21d4	1.2432199
5	0x3f9b3aca	1.2127316
6	0x3f8e6466	1.1124389
7	0x3f872b0a	1.056001

attention_do.qv_GBN.bias f4 [8]
0	0x3f582935	0.84437877
1	0x3fc0c945	1.5061423
2	0x3fcc75cf	1.5973452
3	0x3f53319a	0.8249756
4	0x3f02717a	0.509544
5	0x3f70e7e6	0.9410385
6	0x3f016411	0.50543314
7	0x3f6df0b3	0.929454

attention_do.qv_GBN.m f4 [1, 1, 1, 8]
0	0x40037796	2.054174
1	0x401ded1d	2.4675972
2	0x406d6449	3.709246
3	0x3ebcfc34	0.36911166
4	0x4010bc5a	2.261496
5	0x405b1c43	3.4236
6	0x3df3038b	0.1186591
7	0x3f5be011	0.85888773

attention_do.qv_GBN.s f4 [1, 1, 1, 8]
0	0x3f25915c	0.64674926
1	0x3f252997	0.64516586
2	0x3f439cd4	0.76411176
3	0x3f3f9ef3	0.7485191
4	0x3f25e7ed	0.64807016
5	0x3f20adf8	0.62765455
6	0x3ead013e	0.3379001
7	0x3f946c40	1.1595535

attention_do.score_GBN.gamma f4 [2]
0	0x3effd7c7	0.49969313
1	0x3ed10fc7	0.4083235

attention_do.score_GBN.bias f4 [2]
0	0x3eeb5aa5	0.45967594
1	0x3f08940d	0.5335091

attention_do.score_GBN.m f4 [1, 1, 1, 2]
0	0xbff58d17	-1.9183682
1	0x40c96ca0	6.29451

attention_do.score_GBN.s f4 [1, 1, 1, 2]
0	0x41225caa	10.147623
1	0x40b20009	5.5625043

attention_do.conv.m f4 [1, 1, 1, 8]
0	0x3f61d43c	0.8821447
1	0x3ff4feb0	1.9140224
2	0x3fc43314	1.5328088
3	0x3fe62c93	1.7982353
4	0x3f4793bf	0.7795982
5	0x3f93c026	1.1543014
6	0x3f1f0a33	0.6212494
7	0x3faf9248	1.3716516

attention_do.conv.s f4 [1, 1, 1, 8]
0	0x3f5f4a93	0.87223166
1	0x3efea1f5	0.49732938
2	0x3f587b39	0.8456302
3	0x3f1d67bb	0.61486405
4	0x3f22b34f	0.63554853
5	0x3f09628b	0.5366599
6	0x3f311d03	0.69184893
7	0x3f659f18	0.8969588

attention_do.conv.conv.bias f4 [1, 8, 1]
0	0x3edeb925	0.4350063
1	0x3f0339ec	0.51260257
2	0xbd17cb3c	-0.037059054
3	0xbc0e0770	-0.008668765
4	0xbf45a12e	-0.77199066
5	0x3f8534ff	1.0406798
6	0xbc36f879	-0.011167639
7	0x3fbcb20c	1.4741836

attention_do.conv.conv.module.weight f4 [4, 8, 1]
0	0x3f1b0c67	0.605658
1	0x3f226290	0.63431644
2	0xbf12e1ab	-0.5737559
3	0xbf35c717	-0.7100691
4	0xbd99f87c	-0.07518098
5	0xbf858d87	-1.0433816
6	0x3f460697	0.77353805
7	0x3f9202e6	1.1407135
8	0xbf1e9b5e	-0.6195582
9	0x3eb9b9a2	0.3627444
10	0xbf04a583	-0.5181505
11	0x3eb3fe0a	0.35154754
12	0xbf88c943	-1.068642
13	0xbe1b6ebf	-0.15178965
14	0x3f6e41ac	0.9306896
15	0x3e4a7c04	0.1977387
16	0x3f1e6fa7	0.6188912
17	0xbec383c6	-0.38186473
18	0xbe1d44b4	-0.1535824
19	0xbe80077b	-0.25005707
20	0x3dd1da9f	0.10246777
21	0x3f625b63	0.88420695
22	0x3ed6a77f	0.41924664
23	0x3d7a5057	0.061111774
24	0xbe8dd450	-0.27701044
25	0xbf1f45f6	-0.62216127
26	0x3ed0e9e6	0.4080345
27	0x3e05d809	0.13070692
28	0xbe10c13c	-0.14136213
29	0x3e9fca59	0.31209067
30	0xbd7d7817	-0.061882105
31	0x3f5ee07e	0.870613

quadjetResNetBlock.reinforce.0.sym.weight f4 [8, 1, 2]
0	0x3f000000	0.5
1	0x3f000000	0.5
2	0x3f000000	0.5
3	0x3f000000	0.5
4	0x3f000000	0.5
5	0x3f000000	0.5
6	0x3f000000	0.5
7	0x3f000000	0.5
8	0x3f000000	0.5
9	0x3f000000	0.5
10	0x3f000000	0.5
11	0x3f000000	0.5
12	0x3f000000	0.5
13	0x3f000000	0.5
14	0x3f000000	0.5
15	0x3f000000	0.5

quadjetResNetBlock.reinforce.0.antisym.weight f4 [8, 1, 2]
0	0x3f000000	0.5
1	0xbf000000	-0.5
2	0x3f000000	0.5
3	0xbf000000	-0.5
4	0x3f000000	0.5
5	0xbf000000	-0.5
6	0x3f000000	0.5
7	0xbf000000	-0.5
8	0x3f000000	0.5
9	0xbf000000	-0.5
10	0x3f000000	0.5
11	0xbf000000	-0.5
12	0x3f000000	0.5
13	0xbf000000	-0.5
14	0x3f000000	0.5
15	0xbf000000	-0.5

quadjetResNetBlock.reinforce.0.conv.m f4 [1, 1, 3, 8]
0	0x3fb7b4d3	1.4352058
1	0x3fac4d26	1.3461044
2	0x3fcf5ef6	1.6200855
3	0x3f993309	1.19687
4	0x3f1c4425	0.6104148
5	0x406358da	3.552298
6	0x3fc1db9a	1.5145142
7	0x40794e32	3.8953977
8	0x3f161050	0.5861864
9	0x3f1afc17	0.6054091
10	0x3f36f82b	0.71472424
11	0x3f39b35f	0.72539324
12	0x3f0988f5	0.53724605
13	0x3f8df145	1.1089255
14	0x3f3479b7	0.7049822
15	0x3f83d4c9	1.0299312
16	0x3fa70b3e	1.3050306
17	0x3de6aba2	0.11263205
18	0x3efdf506	0.49601
19	0x3876710c	5.8756254e-05
20	0x3e86ca9e	0.2632646
21	0x3f2dbba0	0.6786442
22	0x3f6b4d20	0.9191456
23	0x3ed06ed4	0.40709555

quadjetResNetBlock.reinforce.0.conv.s f4 [1, 1, 3, 8]
0	0x3fb93976	1.4470661
1	0x3fcb0a34	1.5862489
2	0x3ff96bb3	1.9485992
3	0x3fe8c156	1.8184001
4	0x3fb1f316	1.3902309
5	0x4026743a	2.600844
6	0x400c81b2	2.195416
7	0x402a59f6	2.6617408
8	0x3f1c7339	0.61113316
9	0x3f218e7b	0.6310803
10	0x3f535ed5	0.8256658
11	0x3f8a2c79	1.0794822
12	0x3f7869d4	0.9703648
13	0x3f7ee70f	0.9957132
14	0x3f66fbe4	0.90228105
15	0x3f6dee97	0.92942184
16	0x3f84e62c	1.0382743
17	0x3e99e2d5	0.30055872
18	0x3ebe804b	0.37207255
19	0x3ebe5ddc	0.37180984
20	0x3f00d531	0.50325304
21	0x3f1f8c6b	0.62323636
22	0x3ece5e75	0.4030644
23	0x3eb2ed59	0.34946707

quadjetResNetBlock.reinforce.0.conv.conv.bias f4 [1, 8, 1]
0	0xbcbd621a	-0.023118068
1	0x3f44694f	0.7672319
2	0xbff46505	-1.9093329
3	0xbcc5a285	-0.024125347
4	0x3fc7ed00	1.5619202
5	0x3f17c299	0.5928131
6	0xbe9e158c	-0.30875814
7	0x3da46fea	0.080291584

quadjetResNetBlock.reinforce.0.conv.conv.module.weight f4 [4, 8, 3]
0	0xbf5cc4d9	-0.86237866
1	0x3ef1d162	0.4723006
2	0x3ed70972	0.41999394
3	0xbf4ca7fc	-0.79943824
4	0x3d8ea54b	0.06965121
5	0x3d75c746	0.060004495
6	0x3de26526	0.11054449
7	0x3eb8c00a	0.36084014
8	0xbed69928	-0.41913724
9	0xbde02642	-0.10944797
10	0x3e5a9964	0.21347576
11	0x3e85b141	0.26111796
12	0x3efc2fcc	0.49255216
13	0xbe8ea0b4	-0.27856982
14	0x3ea843a7	0.32864115
15	0x3f8251f3	1.0181259
16	0xbd20f181	-0.039292816
17	0xbf24f850	-0.64441395
18	0xbe4a817c	-0.19775957
19	0x3e00a9cc	0.12564772
20	0x3dd4a94a	0.10383852
21	0xbea82035	-0.32837072
22	0x3f0822a4	0.5317786
23	0x3f3eb550	0.7449541
24	0x3e01d05a	0.12677136
25	0xbe9ba2ed	-0.3039774
26	0xbcd0c9a7	-0.02548678
27	0xbce6ea36	-0.028187852
28	0x3d1491c9	0.036271844
29	0x3d898eec	0.06716713
30	0x3f097d62	0.53706944
31	0xbea4c70a	-0.32183105
32	0xbd400e40	-0.04688859
33	0x3f91ac25	1.1380659
34	0xbec568a0	-0.38556385
35	0x3e22b5ca	0.1588966
36	0xbf5265c4	-0.8218653
37	0xbe6874ad	-0.22700758
38	0x3cd791ae	0.026314583
39	0x3e8bd385	0.27309814
40	0xbe1aefad	-0.15130492
41	0x3d4566de	0.048193805
42	0xbf2b7c68	-0.66986704
43	0xbe2a4d16	-0.16630968
44	0x3dc68701	0.09693719
45	0x3f67aab8	0.9049487
46	0x3e43f42c	0.19136113
47	0xbe6a8892	-0.2290366
48	0xbee6516f	-0.44984004
49	0x3dbb13d6	0.09134643
50	0xbc9940e7	-0.018707706
51	0xbd98f3b0	-0.07468355
52	0x3e9a3061	0.30115035
53	0xbe871e79	-0.26390436
54	0x3e8b30e9	0.27185753
55	0x3e565d8f	0.20934127
56	0xbe822435	-0.2541825
57	0x3fb2a9d8	1.3958082
58	0x3efd4e9a	0.4947403
59	0x3f1dfe59	0.6171623
60	0xbe378708	-0.17922604
61	0x3f6e1efe	0.9301604
62	0x3e394acb	0.18094938
63	0x3eada2f8	0.33913398
64	0x3da6693e	0.08125542
65	0x3e6111c5	0.21979435
66	0xbf0e5044	-0.55591226
67	0xbe23f56f	-0.16011594
68	0x3dd3962f	0.103313796
69	0x3f5c09c3	0.85952395
70	0x3e6dd49f	0.2322564
71	0xbcd7841b	-0.02630811
72	0x3f8a8546	1.0821922
73	0x3f095468	0.5364442
74	0xbe8411dc	-0.25794876
75	0x3f4d57be	0.8021201
76	0x3dac8825	0.08424405
77	0xbf5feaf1	-0.8746787
78	0x3f25f444	0.64825845
79	0x3f567a84	0.83780694
80	0x3ef7921a	0.48353654
81	0x3ef3bcae	0.4760489
82	0xbe374281	-0.17896463
83	0xbf06a91b	-0.52601784
84	0xbf88edc1	-1.0697557
85	0xbefbfabf	-0.49214742
86	0xbe8da787	-0.27666876
87	0xbd1aca99	-0.03779087
88	0xbd18c0a6	-0.0372931
89	0xbddbde87	-0.10735803
90	0xbf5528fe	-0.83265674
91	0xbd83e4ae	-0.064401016
92	0xbee50f39	-0.44738176
93	0xbd8d96cf	-0.0691353
94	0x3f1183fb	0.5684201
95	0x3e953aba	0.29146367

quadjetResNetBlock.reinforce.1.sym.weight f4 [8, 1, 2]
0	0x3f000000	0.5
1	0x3f000000	0.5
2	0x3f000000	0.5
3	0x3f000000	0.5
4	0x3f000000	0.5
5	0x3f000000	0.5
6	0x3f000000	0.5
7	0x3f000000	0.5
8	0x3f000000	0.5
9	0x3f000000	0.5
10	0x3f000000	0.5
11	0x3f000000	0.5
12	0x3f000000	0.5
13	0x3f000000	0.5
14	0x3f000000	0.5
15	0x3f000000	0.5

quadjetResNetBlock.reinforce.1.antisym.weight f4 [8, 1, 2]
0	0x3f000000	0.5
1	0xbf000000	-0.5
2	0x3f000000	0.5
3	0xbf000000	-0.5
4	0x3f000000	0.5
5	0xbf000000	-0.5
6	0x3f000000	0.5
7	0xbf000000	-0.5
8	0x3f000000	0.5
9	0xbf000000	-0.5
10	0x3f000000	0.5
11	0xbf000000	-0.5
12	0x3f000000	0.5
13	0xbf000000	-0.5
14	0x3f000000	0.5
15	0xbf000000	-0.5

quadjetResNetBlock.reinforce.1.conv.m f4 [1, 1, 3, 8]
0	0x400adf63	2.1698844
1	0x3f9d10c9	1.2270747
2	0x3fe804a2	1.8126414
3	0x3fbaafdb	1.4584917
4	0x3ef416c5	0.47673622
5	0x40a5952a	5.1744585
6	0x3f9cbfe4	1.224606
7	0x40b3b286	5.6155424
8	0x3f3b5bdc	0.7318704
9	0x3ee3d581	0.44498828
10	0x3f722d1b	0.94600075
11	0x3f80ab23	1.0052227
12	0x3ecc80a5	0.39941898
13	0x3f4ea4ce	0.8072022
14	0x3f44ae72	0.7682868
15	0x3fb4d777	1.4128255
16	0x3fe2a1b4	1.7705598
17	0x3fa59a2e	1.2937677
18	0x3ec12ff2	0.37731892
19	0x3f79185b	0.9730279
20	0x3ff1782e	1.8864801
21	0x3fe061a3	1.7529796
22	0x3fa518d2	1.28982
23	0x3fb6dcbd	1.4286114

quadjetResNetBlock.reinforce.1.conv.s f4 [1, 1, 3, 8]
0	0x3fe9f68a	1.8278363
1	0x3faee9ee	1.366514
2	0x400a1bd2	2.157948
3	0x40120d77	2.2820718
4	0x3f880774	1.0627275
5	0x4005650f	2.0842931
6	0x3fec3a09	1.8455211
7	0x4037da67	2.8727052
8	0x3f403b9b	0.7509095
9	0x3eec2a5e	0.46126074
10	0x3f942e7d	1.1576687
11	0x3fb9a5b7	1.4503697
12	0x3f2dfab3	0.6796066
13	0x3f3b190d	0.730851
14	0x3f7c1483	0.984688
15	0x3f9e6e62	1.2377436
16	0x40088730	2.1332512
17	0x3fe23459	1.7672225
18	0x3fed5e83	1.8544468
19	0x3fcd035c	1.601665
20	0x4008a4f2	2.1350675
21	0x3ffd34f2	1.9781783
22	0x3fb7e3c5	1.4366385
23	0x4015b696	2.3392692

quadjetResNetBlock.reinforce.1.conv.conv.bias f4 [1, 8, 1]
0	0x3fd02b8d	1.6263291
1	0xbe9c0cf1	-0.30478624
2	0x3fae5382	1.3619235
3	0xba9bca1d	-0.0011885796
4	0xbeadf47a	-0.33975583
5	0x3e3c4670	0.18386245
6	0x3fbbcff3	1.4672836
7	0xbd1d4cca	-0.03840331

quadjetResNetBlock.reinforce.1.conv.conv.module.weight f4 [4, 8, 3]
0	0xbd94feaa	-0.07275136
1	0x3cadf460	0.021234691
2	0xbd446cc9	-0.047955308
3	0x3dc45f63	0.09588506
4	0xbcd8274d	-0.026385928
5	0x3e8d8171	0.27637818
6	0x3f574689	0.84092003
7	0x3ecbdb6a	0.39815837
8	0x3e2e9ffe	0.1705322
9	0x3dbdc377	0.092657976
10	0xbf3cec36	-0.7379793
11	0xbc38e904	-0.011286024
12	0xbf072d55	-0.52803546
13	0x3e6fac6d	0.23405619
14	0x3e2b2e2f	0.16716836
15	0xbed61c6f	-0.41818568
16	0xbc5c9025	-0.013462101
17	0xbd5e756c	-0.0543112
18	0xbff9933d	-1.9498059
19	0xbc57a051	-0.013160781
20	0x3e1e0b21	0.15433933
21	0xbe2d0175	-0.16895087
22	0x3eebbc84	0.46042264
23	0xbe8fe6ae	-0.28105682
24	0xbf2134f3	-0.6297142
25	0xbd82ad07	-0.063806586
26	0xbebc14c0	-0.3673458
27	0x3fba955f	1.4576834
28	0x3d9697d9	0.073531814
29	0xbf028046	-0.5097698
30	0xbe519d22	-0.20470098
31	0xbe8463d3	-0.2585741
32	0xbf03107f	-0.51197046
33	0xbf6a42e4	-0.91508317
34	0x3da7e0b7	0.08197158
35	0xbe1cb7e9	-0.15304531
36	0x3dd141a1	0.10217596
37	0x3c061c48	0.008185454
38	0x3f3fa1cf	0.74856275
39	0xbfc5f98d	-1.5466782
40	0xbb471ded	-0.0030382827
41	0x3f350891	0.70716196
42	0xbf17d425	-0.5930808
43	0x3dc45bcd	0.09587822
44	0xbbb0034d	-0.0053714872
45	0xbf2cfba5	-0.6757148
46	0xbcfbb8d2	-0.030727778
47	0xbe266ec8	-0.16253197
48	0xbf582cfd	-0.84443647
49	0x3dd2b7df	0.10288977
50	0xbcc3145d	-0.02381342
51	0xbefcec1f	-0.49398896
52	0xbe262768	-0.1622597
53	0x3e65afaa	0.22430292
54	0x3bc61321	0.006044761
55	0x3e6ac041	0.22924902
56	0xbeb550e7	-0.35413286
57	0x3d85024e	0.0649458
58	0xbf479a5e	-0.7796992
59	0xbf0b986f	-0.5452947
60	0x3ee7d677	0.4528081
61	0x3e0a4aa5	0.13505037
62	0xbde59f62	-0.112120405
63	0x3f0482fc	0.51762366
64	0x3dd07ad7	0.1017968
65	0x3f0f29f0	0.55923367
66	0xbf1b7568	-0.6072602
67	0x3dab4a8f	0.0836383
68	0xbea643d4	-0.32473624
69	0xbd9749c6	-0.07387118
70	0x3f42a8f4	0.7603905
71	0x3f4a3246	0.7898296
72	0xbf00558b	-0.5013053
73	0xbdb7f6f2	-0.08982648
74	0x3f19ae4d	0.60031587
75	0x3e06927d	0.13141818
76	0x3e91cb2b	0.28475317
77	0xbf9343ce	-1.1505067
78	0x3b08b6ea	0.0020860978
79	0x3dee56db	0.1163766
80	0xbe51728a	-0.2045385
81	0xbf44a358	-0.7681174
82	0xbf29e392	-0.6636287
83	0xbee93cf6	-0.45554322
84	0x3e4ac372	0.19801119
85	0xbed1f920	-0.4101038
86	0x3c368560	0.0111401975
87	0xbeccdb5d	-0.4001111
88	0xbea17be1	-0.31539825
89	0x3f66db67	0.9017853
90	0xbec9217f	-0.39283368
91	0xbebea865	-0.3723785
92	0x3f1f35bd	0.62191373
93	0xbfa56df3	-1.2924179
94	0xbf2e1ebd	-0.6801565
95	0xbe86849a	-0.26273042

quadjetResNetBlock.conv.0.m f4 [1, 1, 1, 8]
0	0x3fb7b4d3	1.4352058
1	0x3fac4d26	1.3461044
2	0x3fcf5ef6	1.6200855
3	0x3f993309	1.19687
4	0x3f1c4425	0.6104148
5	0x406358da	3.552298
6	0x3fc1db9a	1.5145142
7	0x40794e32	3.8953977

quadjetResNetBlock.conv.0.s f4 [1, 1, 1, 8]
0	0x3fd69e6d	1.6767098
1	0x3fe7dade	1.8113668
2	0x400ef595	2.2337391
3	0x400f14e6	2.2356505
4	0x3fe3a5b1	1.778494
5	0x403fd920	2.9976273
6	0x401e7904	2.4761362
7	0x404019e7	3.001581

quadjetResNetBlock.conv.0.conv.bias f4 [1, 8, 1]
0	0x3facedf8	1.3510122
1	0x3eaf578f	0.3424649
2	0x3eff536c	0.49868333
3	0x3ee4b77f	0.44671246
4	0x3ea56e88	0.3231089
5	0x3fd17259	1.6363021
6	0xbeecb461	-0.46231368
7	0x3fdf37aa	1.7438862

quadjetResNetBlock.conv.0.conv.module.weight f4 [4, 8, 1]
0	0xbcfd048a	-0.030885953
1	0xbee3cc19	-0.44491652
2	0xbee0fdb2	-0.43943554
3	0xbdd6369b	-0.10459634
4	0x3f4e81e6	0.8066696
5	0xbdc3609b	-0.095399104
6	0xbeabb32d	-0.33535138
7	0xbde429ab	-0.1114076
8	0xbeeb3531	-0.4593902
9	0xbf0f6c52	-0.5602466
10	0x3efa7438	0.48916793
11	0xbe8d93a2	-0.27651697
12	0x3df80172	0.12109651
13	0x3f53efb3	0.82787627
14	0x3cd949a0	0.026524365
15	0xbf90855f	-1.1290702
16	0x3f4a3e69	0.7900148
17	0x3de91b7b	0.113821946
18	0x3e17d6ac	0.14827985
19	0x3f20a554	0.6275227
20	0x3f8f4a40	1.1194534
21	0x3df26031	0.11834753
22	0x3ee2f0b0	0.44324255
23	0x3d905fba	0.070495084
24	0xbf794e10	-0.9738474
25	0xbf39c7c4	-0.72570443
26	0xbdf330f9	-0.11874575
27	0x3ef6dc80	0.48215103
28	0x3e95fc8a	0.29294235
29	0xbf365f0e	-0.7123879
30	0xbf26de6c	-0.6518314
31	0x3f692f77	0.9108805

select_q.m f4 [1, 1, 1, 8]
0	0x404bd753	3.1850173
1	0x3fe5e246	1.7959678
2	0x400368d0	2.0532722
3	0x3f51f0d9	0.8200813
4	0x3f4d83fe	0.8027953
5	0x40285d5a	2.6306977
6	0x402536a6	2.5814605
7	0x3fa41ad2	1.2820685

select_q.s f4 [1, 1, 1, 8]
0	0x401e1fe1	2.4706957
1	0x403217fc	2.782714
2	0x3fe82096	1.8134944
3	0x3fcfd0de	1.6235616
4	0x3fc04e79	1.5023948
5	0x40466144	3.0996866
6	0x3fe6d0e9	1.8032504
7	0x3fdfc62c	1.7482352

select_q.conv.module.weight f4 [1, 8, 1]
0	0xbe2fc673	-0.17165546
1	0x3ecb0325	0.39650837
2	0x3d404f72	0.046950765
3	0x3e7431fd	0.23847194
4	0x3e9f85fd	0.31156912
5	0x3d8bb250	0.0682112
6	0xbea15758	-0.3151195
7	0xbe0271e0	-0.12738752

out.m f4 [1, 1, 1, 8]
0	0x3fc61637	1.547553
1	0x4080815e	4.015792
2	0x4017dd98	2.3729
3	0x3fecd082	1.8501132
4	0x3fea389a	1.8298523
5	0x3f7f1e3b	0.99655503
6	0x40192feb	2.3935497
7	0x3f013aad	0.5048016

out.s f4 [1, 1, 1, 8]
0	0x3f9843ba	1.1895669
1	0x40173d9e	2.3631358
2	0x3fe9313c	1.821815
3	0x3fc97a8b	1.5740522
4	0x3fb35af5	1.4012133
5	0x3f916e54	1.1361794
6	0x3fe807e7	1.8127412
7	0x3f42b635	0.76059276

out.conv.module.weight f4 [5, 8, 1]
0	0xbe0b9e23	-0.13634543
1	0xbf682790	-0.9068537
2	0x3e84dc93	0.25949535
3	0xbe2e5b44	-0.17027003
4	0xbd1b6d77	-0.03794619
5	0x3ed7c5a4	0.42142975
6	0x3e270745	0.16311367
7	0x3cb6faba	0.022336353
8	0x3eebc982	0.46052176
9	0x3d9bfcc7	0.07616573
10	0xbe012c44	-0.12614542
11	0xbf299446	-0.6624187
12	0xbf1fb26d	-0.6238163
13	0x3da21cb9	0.07915635
14	0x3f93211e	1.1494482
15	0x3e892154	0.2678324
16	0xbe70bef0	-0.23510337
17	0x3e1f1766	0.1553627
18	0xbee36981	-0.4441643
19	0xbcede627	-0.02904041
20	0x3f3e0b48	0.74235964
21	0x3df7c40f	0.12097942
22	0x3ed877f6	0.42279023
23	0x3de810ff	0.11331367
24	0x3efa7835	0.48919836
25	0x3ec42baa	0.38314563
26	0xbcb06a63	-0.021535104
27	0x3e85a82c	0.26104867
28	0xbf2247ae	-0.63390625
29	0xbe66d264	-0.22541195
30	0xbf711dfd	-0.94186383
31	0x3d8c993b	0.06865164
32	0x3d71b621	0.059011582
33	0x3f6653bb	0.8997151
34	0x3ed0592f	0.40693042
35	0xbf777732	-0.9666625
36	0x3d943b0f	0.07237827
37	0xbe48283c	-0.19546598
38	0xbe699c52	-0.22813538
39	0xbda63288	-0.08115107

out.conv.module.bias f4 [5]
0	0x3fdae294	1.7100396
1	0xc01f5457	-2.4895227
2	0x3ddaea99	0.10689277
3	0xbfa52116	-1.2900722
4	0xbf6ba33d	-0.92045957
