metadata/weights/pytorch_models/2024_HHUL_all_kl/model_SvB_ggF_all_kl__kfolds_3__offset_2__e66d835f-a0ff-4eab-99a9-767dc64bc07c.pkl (torch, 114438 bytes, 118 tensors)

inputEmbed.ancillaryEmbed.m f4 [1, 1, 1, 4]
0	0x41877e06	16.936535
1	0x3f058bdb	0.5216653
2	0x4051ccf9	3.2781355
3	0x3f9b5a03	1.2136844

inputEmbed.ancillaryEmbed.s f4 [1, 1, 1, 4]
0	0x3f5b15d1	0.85580164
1	0x3ef8783a	0.48529226
2	0x40391399	2.8918211
3	0x40643736	3.5658698

inputEmbed.ancillaryEmbed.conv.module.weight f4 [4, 4, 1]
0	0x3d484ed3	0.048903298
1	0xbe47f32c	-0.19526356
2	0x3c574a19	0.013140225
3	0x3c726bbb	0.014796193
4	0xbd46b3bc	-0.04851125
5	0xbe55d477	-0.2088183
6	0x3dd68e89	0.10476405
7	0x3d3cee3a	0.046125628
8	0xbd873db1	-0.066035636
9	0xbf297684	-0.66196465
10	0x3da8e108	0.08246046
11	0x3d3ea766	0.046546362
12	0xbcd35c4c	-0.025800847
13	0xbefdaaaa	-0.4954427
14	0x3cd8b1e4	0.026452012
15	0x3d5126ff	0.05106258

inputEmbed.jetEmbed.m f4 [1, 1, 1, 4]
0	0x40916d81	4.544617
1	0x3ef2e3e9	0.47439507
2	0x3f6cee52	0.9255115
3	0x402ab92c	2.667552

inputEmbed.jetEmbed.s f4 [1, 1, 1, 4]
0	0x3eec381f	0.46136567
1	0x3f661253	0.8987171
2	0x3f4a9085	0.7912677
3	0x3eb9163f	0.36149785

inputEmbed.jetEmbed.conv.bias f4 [1, 8, 1]
0	0x3eb8fa50	0.36128473
1	0xbd935a9c	-0.07195017
2	0xbf1964d0	-0.5991945
3	0x3ea5cedc	0.32384384
4	0xbe800dc7	-0.2501051
5	0x3d23656c	0.039891645
6	0x3f2cd1f0	0.6750784
7	0x3f0a64cb	0.5406005

inputEmbed.jetEmbed.conv.module.weight f4 [4, 4, 1]
0	0x3fa1d2e0	1.2642479
1	0x3cb1bdd0	0.021696955
2	0xbd65861c	-0.0560361
3	0xbf894bfb	-1.0726312
4	0x3fd5c536	1.6700809
5	0x3de87b49	0.1135164
6	0x3f96ada5	1.1771742
7	0xbe33f058	-0.17572153
8	0xbf6bea6d	-0.9215458
9	0x3df284cb	0.118417345
10	0x3e7db5dc	0.24776405
11	0xbea79888	-0.3273356
12	0xbeb9b8b5	-0.36273733
13	0xbbc723dc	-0.006077273
14	0xbf1b8c66	-0.60761106
15	0x3f7c497d	0.98549634

inputEmbed.jetConv.m f4 [1, 1, 1, 8]
0	0x3eb39104	0.35071576
1	0x3ec6cd8c	0.38828695
2	0x3daa2d55	0.08309428
3	0x3ee9c284	0.45656216
4	0x3cdd0eb1	0.026984544
5	0x3effeb54	0.4998423
6	0x3f53f21a	0.8279129
7	0x3f1a8bba	0.60369456

inputEmbed.jetConv.s f4 [1, 1, 1, 8]
0	0x3f11669f	0.5679721
1	0x3f7a0eb5	0.9767869
2	0x3efc7567	0.4930832
3	0x3f4858ca	0.7826048
4	0x3ea79752	0.32732636
5	0x3f670170	0.9023657
6	0x3f91cc89	1.1390544
7	0x3f508095	0.814462

inputEmbed.jetConv.conv.bias f4 [1, 8, 1]
0	0x3c8784df	0.01654285
1	0xbe7ba02f	-0.24572824
2	0x3eadc9b9	0.33942965
3	0x3ee5089e	0.44733137
4	0xbe721623	-0.23641257
5	0x3f34609d	0.7045992
6	0xbf8fdfcd	-1.1240174
7	0xbe37dd39	-0.17955483

inputEmbed.jetConv.conv.module.weight f4 [4, 8, 1]
0	0xbf0659a6	-0.5248054
1	0x3f4e2a81	0.80533606
2	0xbef0352c	-0.46915567
3	0x3e7e6f5c	0.24847168
4	0x3f4eb13d	0.80739194
5	0xbed73913	-0.42035732
6	0x3e70e25f	0.23523854
7	0xbeafe28a	-0.34352523
8	0xbeb0dfeb	-0.34545836
9	0xbe54f2cc	-0.20795745
10	0x3f568c9b	0.83808297
11	0xbebcd225	-0.36879078
12	0x3e0eede8	0.13957942
13	0x3e95a120	0.2922449
14	0xbf1e5bb2	-0.61858666
15	0xbe830f2f	-0.25597522
16	0x3e833504	0.25626385
17	0xbed379be	-0.4130382
18	0x3eb12a01	0.3460236
19	0x3ec058ba	0.37567693
20	0x3df48fb2	0.1194147
21	0x3d454198	0.04815826
22	0x3e57d050	0.21075559
23	0xbf8075da	-1.0035965
24	0x3f221cb7	0.63325065
25	0x3f4cbd41	0.7997628
26	0x3e49710a	0.19672027
27	0xbef3d49f	-0.47623155
28	0xbf3eadb8	-0.74483824
29	0xbefc6942	-0.49299055
30	0xbdc39e89	-0.095517226
31	0x3eb2743a	0.348543

inputEmbed.othJetEmbed.m f4 [1, 1, 1, 4]
0	0x408ca235	4.3948007
1	0x3ebf77cd	0.37396088
2	0x402489c1	2.5709078
3	0x3fc5c251	1.5449926

inputEmbed.othJetEmbed.s f4 [1, 1, 1, 4]
0	0x3f1916e5	0.5980056
1	0x3f8f3610	1.1188374
2	0x3ee29e27	0.44261286
3	0x3f3d4603	0.73934954

inputEmbed.othJetEmbed.conv.bias f4 [1, 8, 1]
0	0x3e96b96e	0.29438347
1	0xbe997552	-0.2997232
2	0x3f875a17	1.0574368
3	0x3cf822fc	0.03029012
4	0x3ec58520	0.3857813
5	0xbe28b35c	-0.1647467
6	0x3d1030e6	0.035202883
7	0xbf09a881	-0.5377274

inputEmbed.othJetEmbed.conv.module.weight f4 [4, 4, 1]
0	0xbf6c569c	-0.92319655
1	0xbd2fdb75	-0.0429339
2	0xbe2930bf	-0.16522501
3	0x3fad73ce	1.3550966
4	0xbf938b8b	-1.152696
5	0x393d0939	0.0001802788
6	0xbe2a5c08	-0.1663667
7	0xbf18123d	-0.5940283
8	0x3e671102	0.22565082
9	0x3d09c713	0.033637118
10	0x3f9eb3bc	1.23986
11	0x3f53c371	0.82720095
12	0x3faeeb5a	1.3665574
13	0xbd80fc38	-0.06298107
14	0xbf58f504	-0.84748864
15	0x3f5a2568	0.8521333

inputEmbed.othJetConv.m f4 [1, 1, 1, 8]
0	0x3ec1e17f	0.37867352
1	0x3e86d1a1	0.2633181
2	0x3fb306e9	1.3986484
3	0x3ec29ac5	0.38008705
4	0x3f0305b4	0.5118058
5	0x3ebdbeeb	0.3705972
6	0x3f2eda3e	0.6830176
7	0x3e36416e	0.17798397

inputEmbed.othJetConv.s f4 [1, 1, 1, 8]
0	0x3f1ecba7	0.620295
1	0x3f7fbc44	0.99896646
2	0x3fb9b1d3	1.4507393
3	0x3f32c623	0.6983358
4	0x3f6c70b2	0.9235946
5	0x3f3f0cb7	0.74628776
6	0x3fb9a8d0	1.4504642
7	0x3f48cc91	0.78437144

inputEmbed.othJetConv.conv.bias f4 [1, 8, 1]
0	0x3fda80ad	1.7070519
1	0x3e959fec	0.29223573
2	0x3fddb144	1.7319722
3	0xbf1885d5	-0.5957921
4	0x3f944a02	1.1585085
5	0x40083392	2.1281476
6	0x3fa22b06	1.266938
7	0x40301664	2.7513666

inputEmbed.othJetConv.conv.module.weight f4 [4, 8, 1]
0	0x3e553430	0.20820689
1	0x3f23f728	0.64049006
2	0xbe8294d6	-0.25504178
3	0xbeb5e6c0	-0.3552761
4	0xbf567f55	-0.83788043
5	0xbf1f24ba	-0.62165415
6	0xbf3a7860	-0.7283993
7	0x3eff41eb	0.4985498
8	0xbe78f68d	-0.24312802
9	0xbefb9bd1	-0.49142316
10	0x3e9b4a4d	0.30330124
11	0x3ee42d95	0.44566026
12	0x3de9abc3	0.11409714
13	0xbc04f279	-0.008114451
14	0xbea6b756	-0.3256175
15	0xbf68b645	-0.9090312
16	0xbf84866d	-1.0353523
17	0x3f9706d3	1.1798958
18	0xbe39c159	-0.18140163
19	0xbe113e34	-0.14183885
20	0xbeb6b5e8	-0.35685658
21	0xbeb054ed	-0.34439793
22	0x3f962cf5	1.173247
23	0xbeaea348	-0.3410895
24	0x3f878bf4	1.0589585
25	0x3e8f81b2	0.28028637
26	0xbd8c9660	-0.06864619
27	0xbe66ef31	-0.22552182
28	0xbf598255	-0.84964496
29	0xbec5eaf7	-0.38655826
30	0xbe049586	-0.12947664
31	0xbeadb4d8	-0.33927035

inputEmbed.MdPhi_embed.m f4 [1, 1, 1, 3]
0	0x40ab257d	5.348326
1	0x3fe8fddc	1.8202472
2	0x3eddf4ab	0.4335073

inputEmbed.MdPhi_embed.s f4 [1, 1, 1, 3]
0	0x3f2f37df	0.6844463
1	0x3f6d0a93	0.9259426
2	0x3efdb9e8	0.49555898

inputEmbed.MdPhi_embed.conv.bias f4 [1, 8, 1]
0	0x3f4f47fb	0.8096921
1	0xbde0c154	-0.109743744
2	0x3fbef83c	1.4919505
3	0x3e7e533e	0.24836442
4	0x3f4e7086	0.8064045
5	0xbf1b6f6d	-0.607169
6	0x3ef9ef96	0.48815602
7	0x3efe97bb	0.49725136

inputEmbed.MdPhi_embed.conv.module.weight f4 [4, 3, 1]
0	0xbd033c15	-0.03203972
1	0xbe418627	-0.18898831
2	0xbf0db0f3	-0.5534813
3	0x3ea7034a	0.32619697
4	0xbee95524	-0.4557277
5	0x3fd45317	1.6587857
6	0x3e1cee00	0.15325165
7	0x3fbd5bd6	1.4793651
8	0xbcbf63ff	-0.023363112
9	0x3f87cd60	1.060955
10	0xbf384a78	-0.7198863
11	0xbd3c8064	-0.04602088

inputEmbed.MdPhi_conv.m f4 [1, 1, 1, 8]
0	0x3f52fc6d	0.8241642
1	0x3f2fb0dd	0.68629247
2	0x3fbf041c	1.4923129
3	0x3eab5f06	0.33470935
4	0x3f3e8901	0.744278
5	0x3ef74b07	0.4829943
6	0x3f2a6027	0.66552967
7	0x3ef5f703	0.48040017

inputEmbed.MdPhi_conv.s f4 [1, 1, 1, 8]
0	0x3f4e4401	0.80572516
1	0x3f9002d6	1.1250865
2	0x3fa5b566	1.2945983
3	0x3f27c887	0.65540355
4	0x3f5bf69e	0.8592318
5	0x3f29f375	0.6638711
6	0x3f8af9a6	1.0857437
7	0x3f22f064	0.63648057

inputEmbed.MdPhi_conv.conv.bias f4 [1, 8, 1]
0	0x3f0ea363	0.5571806
1	0x3f46e3df	0.77691454
2	0x3e7d338f	0.247267
3	0x3fa00c0b	1.2503675
4	0x3fe10472	1.7579482
5	0x3f8226cf	1.0168093
6	0x400cc5e5	2.1995785
7	0x40114bd9	2.2702544

inputEmbed.MdPhi_conv.conv.module.weight f4 [4, 8, 1]
0	0xbe77c66f	-0.2419679
1	0xbd97eb76	-0.074179575
2	0xbe1268eb	-0.14297836
3	0xbf9c5b73	-1.2215408
4	0xbde3dbb6	-0.11125891
5	0x3f10fd81	0.56636816
6	0x3f5d2cd0	0.86396503
7	0x3d26a981	0.040688995
8	0xbe04e355	-0.12977345
9	0xbf502db5	-0.81319743
10	0x3eab88d6	0.33502835
11	0x3dad2782	0.08454801
12	0xbe6f8fdf	-0.23394726
13	0xbf9ffe03	-1.2499393
14	0xbebee9ea	-0.37287837
15	0xbd33ab30	-0.04386443
16	0xbe995ef4	-0.29955256
17	0x3d3e8604	0.046514526
18	0xbf8413c7	-1.0318536
19	0xbd2eae93	-0.042646956
20	0x3ed90da5	0.42393222
21	0xbe078c96	-0.13237223
22	0x3e9cc885	0.30621734
23	0x3f926a35	1.1438662
24	0x3deccda0	0.11562657
25	0xbc9ed5a8	-0.019388989
26	0xbd9b24e0	-0.07575393
27	0x3dcf2aef	0.10115611
28	0x3c335704	0.010946039
29	0x3e3a3a09	0.18186201
30	0x3f9a2227	1.2041672
31	0xbe3a96e6	-0.18221626

inputEmbed.dijetEmbed.m f4 [1, 1, 1, 4]
0	0x4092b24e	4.5842657
1	0x3f565b2d	0.83732873
2	0x3f74b542	0.9558908
3	0x40a2e30f	5.090217

inputEmbed.dijetEmbed.s f4 [1, 1, 1, 4]
0	0x3f40689c	0.7515962
1	0x3fa40b63	1.2815975
2	0x3f984957	1.1897382
3	0x3f049827	0.51794666

inputEmbed.dijetEmbed.conv.bias f4 [1, 8, 1]
0	0x3f4ed026	0.8078636
1	0x3f025cff	0.5092315
2	0x3fef6d7b	1.8705286
3	0xbf6f18af	-0.9339704
4	0xbec8ef00	-0.39244843
5	0x3f0aa357	0.54155487
6	0xbe9fbb30	-0.311975
7	0x3ea030d5	0.31287256

inputEmbed.dijetEmbed.conv.module.weight f4 [4, 4, 1]
0	0xbe583da8	-0.2111727
1	0x3e54f332	0.20795897
2	0x3d72c3d6	0.059268795
3	0x40169c9e	2.3533092
4	0x3f72c157	0.94826263
5	0x3e986e99	0.2977188
6	0xbb27da3b	-0.0025612253
7	0xbec02fa0	-0.37536335
8	0xbd81c5fa	-0.06336589
9	0xbe35c4d7	-0.1775087
10	0xbd2ea212	-0.04263503
11	0x40283c4e	2.6286807
12	0xc0081813	-2.1264694
13	0x3bd51533	0.0065027713
14	0xbd7099d5	-0.058740456
15	0xbe97e48d	-0.29666558

inputEmbed.quadjetEmbed.m f4 [1, 1, 1, 3]
0	0x408a7923	4.327287
1	0x3fb7e5e8	1.4367037
2	0x40c4e5b2	6.153039

inputEmbed.quadjetEmbed.s f4 [1, 1, 1, 3]
0	0x3f5f91fd	0.87332135
1	0x3fe76b86	1.8079689
2	0x3eabf5a1	0.33585837

inputEmbed.quadjetEmbed.conv.bias f4 [1, 8, 1]
0	0xbfc5fabd	-1.5467144
1	0xbef25d61	-0.47336867
2	0xbeaa02c8	-0.33205247
3	0x3e830d26	0.2559597
4	0x3eb7680e	0.35821575
5	0x3eb08b74	0.34481394
6	0x3f491ae6	0.7855667
7	0x3f5cb13f	0.86207956

inputEmbed.quadjetEmbed.conv.module.weight f4 [4, 3, 1]
0	0x3fadea86	1.3587196
1	0xbdcd0882	-0.10011388
2	0xbe8ac10e	-0.27100414
3	0x3e88b7eb	0.26702818
4	0x3d8d03eb	0.06885513
5	0xbf8e0481	-1.1095124
6	0x3f0a3ccb	0.5399901
7	0x3fb7cfa2	1.436024
8	0x3d8b1e3c	0.06792876
9	0xbbb3a66d	-0.005482486
10	0xbe78f552	-0.24312332
11	0x3f22f857	0.63660187

inputEmbed.dijetConv.m f4 [1, 1, 1, 8]
0	0x3f9d0978	1.2268515
1	0x3f353fb2	0.70800316
2	0x3ff8ff5e	1.9452932
3	0x3ea95a25	0.33076587
4	0x3f205116	0.6262373
5	0x3f1d4e84	0.6144793
6	0x3f368416	0.712953
7	0x3f5e0e64	0.8674071

inputEmbed.dijetConv.s f4 [1, 1, 1, 8]
0	0x3fe8bb6b	1.8182195
1	0x3f567941	0.8377877
2	0x40105fdd	2.255851
3	0x3f97df03	1.1864933
4	0x3f962f1a	1.1733124
5	0x3f7142d4	0.94242597
6	0x3fa29001	1.2700197
7	0x3f99ed2f	1.2025508

inputEmbed.dijetConv.conv.bias f4 [1, 8, 1]
0	0xbf5c1cf6	-0.8598169
1	0x3d07ec8d	0.033184577
2	0x3ea10381	0.31447986
3	0xbf029710	-0.51011753
4	0xbf401c5d	-0.7504328
5	0xbf0a6594	-0.54061246
6	0xbf512033	-0.8168976
7	0xbdf27d6b	-0.11840328

inputEmbed.dijetConv.conv.module.weight f4 [4, 8, 1]
0	0xbedb6c77	-0.4285619
1	0xbee9c09b	-0.4565476
2	0xbea6b974	-0.32563365
3	0x3e542fef	0.2072141
4	0xbf067938	-0.52528715
5	0xbe7acb06	-0.2449151
6	0xbf350608	-0.7071233
7	0xbeb7718c	-0.35828817
8	0xbf530e86	-0.82444036
9	0x3e875922	0.2643519
10	0xbfb3279f	-1.3996466
11	0x3dae8b55	0.08522669
12	0x3fe0d957	1.7566327
13	0xbcab67b8	-0.02092348
14	0x4000ba42	2.0113683
15	0x3e8136af	0.25237033
16	0xbf51a2f5	-0.8188928
17	0x3e3e4b35	0.18583377
18	0x3e3d832b	0.18507068
19	0x3e54fa13	0.2079852
20	0xbf00344e	-0.5007981
21	0xbee63a5e	-0.44966406
22	0xbf66c9f3	-0.901519
23	0x3f0ba972	0.5455543
24	0xbf4e8d75	-0.80684596
25	0xbe158907	-0.14603053
26	0xbf642bc3	-0.89129275
27	0xbd6ebe3c	-0.05828689
28	0x3f36bc7c	0.71381354
29	0x3e5cbfb8	0.2155751
30	0x3ecc58aa	0.39911395
31	0x3e9a5497	0.30142662

inputEmbed.quadjetConv.m f4 [1, 1, 1, 8]
0	0xbd91b37c	-0.07114312
1	0x3d9bff1c	0.076170176
2	0x3e82ae1b	0.25523457
3	0x3e934675	0.28764692
4	0x3f23edea	0.64034903
5	0x3eefa5b4	0.4680611
6	0x3f2aed37	0.6676821
7	0x3f3291c3	0.69753665

inputEmbed.quadjetConv.s f4 [1, 1, 1, 8]
0	0x3ea7f4a7	0.32803842
1	0x3ef715b2	0.4825874
2	0x3eff2755	0.49834695
3	0x3f0303c4	0.5117762
4	0x3f8a076a	1.0783513
5	0x3f554a5b	0.8331658
6	0x3f95bd9e	1.1698492
7	0x3f0eceff	0.557846

inputEmbed.quadjetConv.conv.bias f4 [1, 8, 1]
0	0x3e41c17a	0.18921462
1	0x3f8cc6af	1.0998133
2	0x3ef7db40	0.48409462
3	0xbd998bb7	-0.074973516
4	0x3f42c79e	0.7608584
5	0xbf831340	-1.024025
6	0xbeec94c4	-0.4620725
7	0x3fa3fb43	1.2811054

inputEmbed.quadjetConv.conv.module.weight f4 [4, 8, 1]
0	0xbf07eddc	-0.5309732
1	0xbe3f4eee	-0.18682453
2	0xbd404a45	-0.04694583
3	0xbbecc937	-0.007226135
4	0x3b17a348	0.0023138095
5	0xbde399eb	-0.11113342
6	0x3d0791f6	0.033098184
7	0xbd8dbd8a	-0.06920917
8	0xbd86e84f	-0.06587278
9	0x3a04c746	0.00050650944
10	0xbc589531	-0.013219164
11	0x3e83ded1	0.25755933
12	0xbd076707	-0.03305724
13	0x3edd964a	0.43278724
14	0xbe5638d0	-0.2092011
15	0xbe9268f4	-0.28595698
16	0x3d801950	0.06254828
17	0x3f2b0736	0.6680788
18	0x3e04db92	0.12974384
19	0xbda0160c	-0.07816705
20	0x3df1c0b7	0.118043356
21	0x3e25674f	0.1615269
22	0x3db7be6c	0.08971867
23	0xbdbc6e71	-0.092007525
24	0x3d9b9b05	0.07597927
25	0x3e3d608a	0.18493858
26	0x3e91c531	0.28470758
27	0xbe06a77a	-0.13149825
28	0x3d8d63d9	0.0690381
29	0x3ce0783b	0.02740108
30	0x3e10689f	0.1410241
31	0x3dfb847f	0.12281131

dijetResNetBlock.reinforce.0.conv.m f4 [1, 1, 3, 8]
0	0x3f0a5ae4	0.5404494
1	0xbce3647a	-0.027757872
2	0x3f59c7d1	0.8507052
3	0x3f4fe892	0.8121425
4	0x3e2d9a52	0.169534
5	0x3fd72bf6	1.6810291
6	0xbe3afc37	-0.18260275
7	0x3eea1ef1	0.4572673
8	0x3ea83810	0.32855272
9	0x3f529478	0.82257795
10	0x3e5a251c	0.21303219
11	0x3f56897a	0.8380352
12	0x3eed4fa4	0.46349823
13	0x3ec856cd	0.39128724
14	0x3e43af80	0.19109917
15	0x3f15e695	0.58554965
16	0xbd2e746c	-0.042591497
17	0x4009d014	2.153325
18	0x3eed77e4	0.46380532
19	0x3f0cec29	0.5504785
20	0x3d265f1e	0.040618055
21	0x3fec41fe	1.8457639
22	0x3d4265de	0.04746043
23	0x3f3b7545	0.73225814

dijetResNetBlock.reinforce.0.conv.s f4 [1, 1, 3, 8]
0	0x3f8a9676	1.0827167
1	0x3ef496f1	0.4777141
2	0x3f36fcff	0.7147979
3	0x3f9dc3ec	1.2325416
4	0x3f1e900b	0.6193854
5	0x3fa2ec64	1.2728391
6	0x3e304006	0.17211923
7	0x3f8517ee	1.0397928
8	0x3f7c9b0a	0.9867407
9	0x3f92d4ac	1.1471152
10	0x3f1a369b	0.6023957
11	0x3fbc434b	1.4708036
12	0x3f5dcd5b	0.8664147
13	0x3f585e8c	0.8451927
14	0x3f32e702	0.6988374
15	0x3f8b626b	1.088941
16	0x3e83dee1	0.2575598
17	0x4068a1c9	3.6348746
18	0x3f447cf9	0.76753193
19	0x3f8b6eaf	1.0893153
20	0x3f22030d	0.63285905
21	0x40128ee8	2.2899723
22	0x3f348bad	0.7052563
23	0x3fa8b9e5	1.318173

dijetResNetBlock.reinforce.0.conv.conv.bias f4 [1, 8, 1]
0	0xc010e725	-2.264108
1	0xbe2103a2	-0.15724042
2	0x3dec0279	0.11523909
3	0xbf8a3f8a	-1.080064
4	0xbe8d6d65	-0.27622524
5	0xbfd32b49	-1.6497585
6	0xbfa7fd7c	-1.3124232
7	0x3e876a9b	0.2644852

dijetResNetBlock.reinforce.0.conv.conv.module.weight f4 [4, 8, 3]
0	0x3edabbd2	0.4272142
1	0x3ebe45fb	0.37162766
2	0x3f31cd2a	0.6945368
3	0xbf2590b3	-0.6467392
4	0x3ce32c9a	0.027731229
5	0x3eda0967	0.42585298
6	0x3d4b8004	0.049682632
7	0x3cfb9b92	0.03071383
8	0x3ec0a4a1	0.37625602
9	0x3dadd57c	0.084879845
10	0xbf250127	-0.64454883
11	0x3f8e5533	1.1119751
12	0xbe16a01b	-0.14709513
13	0xbf103399	-0.5632873
14	0x3f4b1dc7	0.7934231
15	0x3e988df6	0.29795808
16	0x3da6de78	0.08147901
17	0x3e589ca8	0.2115351
18	0x3e2fecb5	0.1718014
19	0x3e823da5	0.25437656
20	0x3ee98b56	0.45614117
21	0xbdd3ab3d	-0.103353955
22	0xbe9081d0	-0.2822404
23	0xbedcda49	-0.43135288
24	0x3e60ebdb	0.21964972
25	0x3efc7f5d	0.4931592
26	0xbd73df56	-0.05953916
27	0xbe97b7c9	-0.29632404
28	0x3bd4e3e6	0.006496894
29	0x3f83a4dc	1.0284686
30	0xbe810741	-0.25200847
31	0x3e8c4e81	0.27403644
32	0xbf770d3b	-0.96504563
33	0xbe86790a	-0.2626422
34	0x3e42e0e2	0.19031098
35	0x3f621002	0.88305676
36	0x3e1e7fa9	0.15478386
37	0xbd8550c0	-0.065095425
38	0xbec945e2	-0.3931113
39	0x3ec3d944	0.38251698
40	0xbe705e02	-0.23473361
41	0xbe8cacf7	-0.27475712
42	0x3d185097	0.03718623
43	0xbc9feed8	-0.01952307
44	0x3ee5af92	0.44860512
45	0x3f0fb298	0.5613189
46	0x3ecb384b	0.39691386
47	0x3d6f0d14	0.05836208
48	0xba056e30	-0.00050899666
49	0xbceed134	-0.02915249
50	0xbe54f8d2	-0.20798042
51	0x3e32aa01	0.17447664
52	0x3c5430b4	0.012951065
53	0xbf2f6dca	-0.685269
54	0x3de232e3	0.11044862
55	0xbdb44b7b	-0.08803459
56	0x3e83bb00	0.25728607
57	0x3d4aa95b	0.049477916
58	0x3e7308cc	0.23733824
59	0xbf3d66d2	-0.73985016
60	0x3daeab43	0.08528759
61	0x3e1573d0	0.1459496
62	0xbf6340b6	-0.88770616
63	0xbec88254	-0.39161932
64	0x3e828625	0.2549297
65	0xbf5ad039	-0.8547397
66	0x3d17d5e3	0.037069213
67	0xbe1e63f7	-0.15467821
68	0xbf2fc8e7	-0.6866593
69	0xbd87cf1c	-0.066313
70	0xbede7048	-0.4344504
71	0xbf4eceaa	-0.80784094
72	0xbdc4755a	-0.095926955
73	0xbecfb21e	-0.4056558
74	0xbf064af4	-0.5245812
75	0xbf511e85	-0.81687194
76	0xbee45425	-0.44595447
77	0x3ede6731	0.43438104
78	0xbe056b35	-0.13029177
79	0x3e47d638	0.19515312
80	0xbf083fd9	-0.53222424
81	0xbdfc9ef0	-0.123350024
82	0x3dec3327	0.11533194
83	0x3fa0472d	1.2521721
84	0xbe05cc30	-0.13066173
85	0xbe77853a	-0.24171916
86	0x3ea00d8a	0.3126033
87	0x3ea59b75	0.32345167
88	0x3ee77a89	0.45210674
89	0x3e939ba6	0.28829688
90	0xbdd84600	-0.105602264
91	0xbeb5f490	-0.3553815
92	0xbddbb23d	-0.10727356
93	0xbe197e9e	-0.14989707
94	0xbe5cce14	-0.21562988
95	0x3ef52ee8	0.4788735

dijetResNetBlock.reinforce.1.conv.m f4 [1, 1, 3, 8]
0	0x3df45a5f	0.119312994
1	0xbdd74388	-0.105109274
2	0x3f74a863	0.9556944
3	0x3fe9689b	1.8235048
4	0x3e598214	0.21241027
5	0x403acc89	2.9187338
6	0xbde397cb	-0.111129366
7	0x3f039733	0.51402587
8	0x3e72dce3	0.23717074
9	0x3f1eb8a2	0.6200048
10	0x3f0dccb8	0.553905
11	0x3f7a6ff3	0.9782707
12	0x3f6fc2b9	0.936565
13	0x3f88be9a	1.0683167
14	0x3e99d8b8	0.30048156
15	0x3f886e1a	1.06586
16	0xbd270ae0	-0.040781856
17	0x4040f1b2	3.014752
18	0x3fc23b07	1.5174264
19	0x3f6535db	0.895353
20	0x3e2084d4	0.1567567
21	0x3fe1a9cc	1.7629943
22	0x3f34700c	0.7048347
23	0x3fafad76	1.3724811

dijetResNetBlock.reinforce.1.conv.s f4 [1, 1, 3, 8]
0	0x3f1257f0	0.5716543
1	0x3ea8b1e1	0.3294821
2	0x3fd28de1	1.6449548
3	0x4007786b	2.1167247
4	0x3f47e0da	0.7807747
5	0x3fa30ad0	1.2737675
6	0x3e83cb24	0.25740921
7	0x3fa44ee5	1.2836577
8	0x3f6c3871	0.9227362
9	0x3f6ed958	0.9330039
10	0x3f9ee6a5	1.2414137
11	0x3fece1cc	1.8506408
12	0x3fbab479	1.4586326
13	0x3f8a81a3	1.0820812
14	0x3f84e2dc	1.0381732
15	0x3fc566c0	1.5421982
16	0x3f21b15c	0.63161254
17	0x40b36cec	5.607046
18	0x3fe9a1a0	1.8252449
19	0x400a9584	2.1653757
20	0x3f464f9a	0.7746521
21	0x40009bdd	2.0095131
22	0x401d11f7	2.4542215
23	0x3fc7cf5f	1.561016

dijetResNetBlock.reinforce.1.conv.conv.bias f4 [1, 8, 1]
0	0x3fa272c5	1.2691275
1	0xbe807867	-0.2509186
2	0x3ef407e6	0.47662276
3	0x3edca0dc	0.43091476
4	0x3ef9ff16	0.48827428
5	0x3e2e351f	0.17012452
6	0xbe9474e3	-0.28995427
7	0xbe2727d6	-0.1632379

dijetResNetBlock.reinforce.1.conv.conv.module.weight f4 [4, 8, 3]
0	0xbb9e47b4	-0.004830325
1	0x3f054f23	0.5207388
2	0x3e44ae65	0.19207151
3	0x3e005a14	0.12534362
4	0xbd058393	-0.032596182
5	0xbf07cf2a	-0.5305048
6	0x3f04bc4f	0.51849836
7	0x3e443476	0.19160637
8	0x3ee361ea	0.4441064
9	0x3e8434d2	0.2582155
10	0xbd8c358f	-0.06846153
11	0xbf3ed669	-0.74545914
12	0x3e85d207	0.261368
13	0x3d93b00e	0.07211314
14	0xbcfdcac7	-0.03098048
15	0x3e6bca6a	0.23026434
16	0x3ce750a4	0.028236695
17	0x3e1883d7	0.14894043
18	0xbe197130	-0.14984584
19	0x3e05c49c	0.13063282
20	0x3ede05d2	0.43363816
21	0xbe30f690	-0.17281556
22	0x3dd75e48	0.105160296
23	0xbeff60ef	-0.49878642
24	0xbd6c05b1	-0.057622615
25	0x3de01948	0.10942322
26	0xbbc1f1fc	-0.0059187394
27	0x3de6d416	0.11270921
28	0xbb90a48c	-0.0044141468
29	0x3f092ecc	0.5358703
30	0xbdb45090	-0.088044286
31	0x3e17580d	0.14779682
32	0xbf18bf6d	-0.5966709
33	0xbb687b6d	-0.0035473958
34	0x3e46d68a	0.19417778
35	0x3f291686	0.66049993
36	0x3e3cc9d5	0.18436368
37	0xbcc86804	-0.024463661
38	0xbd5e5abc	-0.05428575
39	0x3db858c3	0.09001305
40	0xbc334992	-0.0109428335
41	0xbf936f63	-1.1518368
42	0xbb3c6fc3	-0.0028753139
43	0xbe192b5c	-0.14957947
44	0xbe30b8cc	-0.17257994
45	0xbbd1d81e	-0.006403937
46	0xbeba078e	-0.3633389
47	0xbe83344c	-0.25625837
48	0xbd60a54d	-0.054845143
49	0xbdef49ff	-0.116840355
50	0xbf6251ca	-0.8840605
51	0xbde255e4	-0.110515386
52	0xbe60d6aa	-0.21956888
53	0xbeab4ea4	-0.33458436
54	0xbec82cb6	-0.39096612
55	0xbd632782	-0.0554576
56	0x3ea56358	0.32302356
57	0x3eaf823c	0.34279048
58	0x3f0e0caa	0.55488074
59	0xbed0e7c4	-0.40801823
60	0xbeada8e2	-0.3391791
61	0x3d89a161	0.06720234
62	0xbe04d3ce	-0.12971422
63	0x3dc772e1	0.09738708
64	0xbcf5461d	-0.02994066
65	0xbfed6f9b	-1.8549684
66	0x3c8991fe	0.016793247
67	0xbc4ebcf5	-0.012618293
68	0xbeedcce2	-0.46445376
69	0xbc5d3637	-0.013501695
70	0xbe9f2cb9	-0.31088808
71	0xbf19e8d1	-0.60120875
72	0xbbad2a7d	-0.005284606
73	0x3e89fb58	0.26949573
74	0xbe8bfdc1	-0.27342036
75	0x3dabab1b	0.08382245
76	0x3be18581	0.00688237
77	0x3c2332d4	0.009960849
78	0x3dc10251	0.0942427
79	0x3e6fd712	0.23421887
80	0xbe22b0d4	-0.15887767
81	0x3c732781	0.014840961
82	0x3e87bae0	0.26509762
83	0x3d6719c0	0.05642104
84	0x3ed9b480	0.42520523
85	0xbd6c54fa	-0.057698227
86	0xbd9ccabd	-0.07655857
87	0x3daf06aa	0.08546193
88	0xbe20145e	-0.1563277
89	0xbf2fb205	-0.6863101
90	0xbd54f0be	-0.051987402
91	0xbda0ea71	-0.07857216
92	0xbe340143	-0.17578606
93	0xbe3d6727	-0.18496381
94	0xbef52225	-0.47877613
95	0x3d84c92f	0.06483685

dijetResNetBlock.conv.0.m f4 [1, 1, 1, 8]
0	0x3ede76ee	0.4345011
1	0x3ecb7955	0.39741006
2	0x3f08288c	0.5318687
3	0x3f533905	0.8250888
4	0x3ea20e66	0.3165161
5	0x3f84a0d6	1.0361583
6	0x3b8b3491	0.0042482098
7	0x3f057b08	0.52140856

dijetResNetBlock.conv.0.s f4 [1, 1, 1, 8]
0	0x3f8549cc	1.0413146
1	0x3f79e36e	0.97612655
2	0x3f3be339	0.7339359
3	0x3fadb767	1.3571595
4	0x3f446fee	0.7673329
5	0x3fa10e2e	1.2582452
6	0x3f0aca66	0.54215086
7	0x3f88893e	1.0666883

dijetResNetBlock.conv.0.conv.bias f4 [1, 8, 1]
0	0xbf47ab8a	-0.7799612
1	0xbe451735	-0.19247134
2	0xbe7feafe	-0.24991986
3	0x3ecbb571	0.39786866
4	0x3ee72653	0.45146427
5	0x3f89a3f7	1.0753163
6	0xbf7bb401	-0.9832154
7	0xbe8e60a1	-0.27808097

dijetResNetBlock.conv.0.conv.module.weight f4 [4, 8, 1]
0	0xbea31e77	-0.3185918
1	0xbf1f3e88	-0.6220479
2	0xbf5ed6b6	-0.8704637
3	0x3eeb29ab	0.45930228
4	0x3e18272f	0.14858697
5	0x3d420e1e	0.047376744
6	0xbe7e2c2c	-0.24821538
7	0xbe97d4a4	-0.2965442
8	0x3e9db7ef	0.30804393
9	0xbe0072a5	-0.12543733
10	0xbe5a716e	-0.21332332
11	0x3ee7dc89	0.45285442
12	0xbd87b28b	-0.06625851
13	0x3d084afa	0.03327463
14	0xbd7a1ef8	-0.06106469
15	0x3e648a87	0.22318469
16	0x3f01fdbf	0.5077781
17	0x3cf465ba	0.029833663
18	0xbeb24289	-0.34816387
19	0xbf460129	-0.7734552
20	0xbc800c05	-0.015630731
21	0x3e424160	0.18970251
22	0xbd3ac455	-0.045597393
23	0x3f6b43e8	0.9190049
24	0xbf22ea52	-0.63638794
25	0xbec69b2b	-0.3879026
26	0x3df057f2	0.11735524
27	0x3e7ef8fe	0.2489967
28	0xbeafd965	-0.34345546
29	0x3f120d49	0.5705152
30	0xbe8783d6	-0.2646777
31	0xbdf62f65	-0.120207585

attention_oo.q_GBN.gamma f4 [8]
0	0xbe799de0	-0.24376631
1	0xbfad48d5	-1.3537852
2	0xbe2ed8a1	-0.17074825
3	0x3f8c619f	1.0967292
4	0x3e25bdc7	0.16185676
5	0xbecb7d48	-0.3974402
6	0x3ed7bbda	0.42135507
7	0xbefbcf62	-0.49181658

attention_oo.q_GBN.bias f4 [8]
0	0xbf597bef	-0.8495473
1	0x3faa44e9	1.330228
2	0xbfc3bc9a	-1.5291932
3	0x3e0d04bd	0.13771339
4	0x3ffc8dd2	1.973078
5	0xc02195c6	-2.5247664
6	0x3e9058b1	0.28192666
7	0x4000e924	2.0142298

attention_oo.q_GBN.m f4 [1, 1, 1, 8]
0	0x3fd4d299	1.6626769
1	0x3f3c22d8	0.7349067
2	0x3fc76f00	1.558075
3	0x3ec66023	0.38745221
4	0x3f88e110	1.0693684
5	0x3ff18092	1.8867362
6	0x3fdaf02b	1.7104543
7	0x402bfec4	2.6874247

attention_oo.q_GBN.s f4 [1, 1, 1, 8]
0	0x3fa053b1	1.252554
1	0x3f5fcab4	0.87418675
2	0x401e888e	2.4770846
3	0x3f669f46	0.9008678
4	0x3fbf2c89	1.4935466
5	0x3ff84fe3	1.939938
6	0x3f8e7e7a	1.1132348
7	0x3fffda34	1.9988465

attention_oo.v_GBN.gamma f4 [8]
0	0xbf112e07	-0.5671086
1	0x3f2f5a91	0.6849757
2	0x400e7653	2.225972
3	0x3ea2e441	0.3181477
4	0x3fbcfe22	1.4765055
5	0x4008c852	2.1372266
6	0x3ef49f78	0.47777915
7	0x3ee8d10f	0.45472

attention_oo.v_GBN.bias f4 [8]
0	0x400738fd	2.1128533
1	0x3f8819f7	1.0632924
2	0x3f3cff00	0.738266
3	0x3eca8df4	0.39561427
4	0x3f2efb63	0.68352336
5	0xbea1b9f8	-0.31587195
6	0x3fb327d3	1.3996528
7	0x3f5eb401	0.86993414

attention_oo.v_GBN.m f4 [1, 1, 1, 8]
0	0x3fd4d299	1.6626769
1	0x3f3c22d8	0.7349067
2	0x3fc76f00	1.558075
3	0x3ec66023	0.38745221
4	0x3f88e110	1.0693684
5	0x3ff18092	1.8867362
6	0x3fdaf02b	1.7104543
7	0x402bfec4	2.6874247

attention_oo.v_GBN.s f4 [1, 1, 1, 8]
0	0x3fa053b1	1.252554
1	0x3f5fcab4	0.87418675
2	0x401e888e	2.4770846
3	0x3f669f46	0.9008678
4	0x3fbf2c89	1.4935466
5	0x3ff84fe3	1.939938
6	0x3f8e7e7a	1.1132348
7	0x3fffda34	1.9988465

attention_oo.qv_GBN.gamma f4 [8]
0	0x3fb316dd	1.3991352
1	0x3f4a9f32	0.7914916
2	0x3fd66015	1.6748072
3	0x3f9bf405	1.2183844
4	0xbf26a398	-0.65093374
5	0x3f7e7628	0.9939904
6	0x3fb7ac97	1.4349545
7	0x4009ad13	2.1511886

attention_oo.qv_GBN.bias f4 [8]
0	0x403ade06	2.9198012
1	0x3eb47694	0.35246718
2	0xbdae8ca4	-0.08522919
3	0xbf4f52db	-0.809858
4	0x3fdcbe39	1.7245551
5	0x3effd645	0.49968162
6	0x3fc30b20	1.523777
7	0x3f9f1696	1.2428768

attention_oo.qv_GBN.m f4 [1, 1, 1, 8]
0	0x3f999242	1.1997759
1	0x3ed8de3c	0.4235705
2	0x3f0ad367	0.54228824
3	0x3faeb4df	1.3648947
4	0x3f52ad4b	0.82295674
5	0x3f8d9eaf	1.1064051
6	0x40053af2	2.0817227
7	0x3ff239ac	1.892385

attention_oo.qv_GBN.s f4 [1, 1, 1, 8]
0	0x3f561c0f	0.83636564
1	0x3efca33d	0.4934329
2	0x3f788d9a	0.97091067
3	0x3fa2e4a2	1.2726023
4	0x3f7ca9c3	0.98696536
5	0x3f15ed7d	0.58565503
6	0x3fb90ac8	1.4456415
7	0x3f982dfa	1.1889031

attention_oo.score_GBN.gamma f4 [2]
0	0x3fa3a3ff	1.2784423
1	0x3f0ab05c	0.54175353

attention_oo.score_GBN.bias f4 [2]
0	0xbf5dab4e	-0.86589515
1	0x3fc2853f	1.5196913

attention_oo.score_GBN.m f4 [1, 1, 1, 2]
0	0x3fb7cf66	1.4360168
1	0x410a58ba	8.646662

attention_oo.score_GBN.s f4 [1, 1, 1, 2]
0	0x40975370	4.7289352
1	0x410aa054	8.664143

attention_oo.conv.m f4 [1, 1, 1, 8]
0	0x4049a0e5	3.1504452
1	0x3f184a37	0.5948824
2	0x3f08ead2	0.5348331
3	0x3eab777b	0.33489594
4	0x40108dd1	2.2586558
5	0xbd26ad4f	-0.040692624
6	0x403a014d	2.9063294
7	0x401146aa	2.269938

attention_oo.conv.s f4 [1, 1, 1, 8]
0	0x3fd1f086	1.6401527
1	0x3eebf88f	0.46088073
2	0x3f7c1e2c	0.9848354
3	0x3ed0d452	0.40786988
4	0x3f838056	1.027354
5	0x3eb3014a	0.3496192
6	0x3f7c2556	0.9849447
7	0x3ec8bbb8	0.39205718

attention_oo.conv.conv.bias f4 [1, 8, 1]
0	0x3fc3ed9a	1.5306885
1	0x3eddc5d8	0.43315005
2	0xbf31df61	-0.69481474
3	0xbf937360	-1.1519585
4	0xbdc3381a	-0.09532185
5	0x40040306	2.0626845
6	0x3fc410d0	1.5317631
7	0x3fd1252f	1.6339473

attention_oo.conv.conv.module.weight f4 [4, 8, 1]
0	0xbef83f55	-0.48485819
1	0xbe3b1c2a	-0.18272462
2	0x3f111ec6	0.5668758
3	0x3e0839fc	0.1330337
4	0xbe452d84	-0.19255644
5	0xbab08563	-0.0013467487
6	0x3f41db08	0.7572484
7	0x3f56b0aa	0.8386332
8	0xbdbaba5e	-0.09117578
9	0xbe8fbcdb	-0.28073773
10	0xbd2c5958	-0.042077392
11	0xbdc6ecc9	-0.09713132
12	0xbe8e9b2a	-0.27852756
13	0xbdcc21a9	-0.09967358
14	0xbe8bd9a1	-0.27314475
15	0x3f0f7089	0.5603109
16	0xbe32eb7c	-0.17472643
17	0x3d2f1ff5	0.042755086
18	0xbf115761	-0.56773955
19	0xbddbcaa0	-0.10732007
20	0x3eef0442	0.46682936
21	0x3d9ee91a	0.07759304
22	0xbe413884	-0.18869215
23	0x3f4a6225	0.79056007
24	0x3e681d74	0.22667485
25	0xbe5c0c01	-0.21488954
26	0x3dd6565b	0.1046569
27	0xbc9ab314	-0.01888422
28	0x3e793dc6	0.24339971
29	0x3d6c5c46	0.057705186
30	0x3f163f75	0.5869058
31	0x3eaa445e	0.33255285

attention_do.q_GBN.gamma f4 [8]
0	0x3f660095	0.8984464
1	0x3d714637	0.058904853
2	0x3eab1131	0.33411554
3	0xbf55fe31	-0.8359099
4	0x3d171f14	0.036894873
5	0x3f37e20e	0.7182931
6	0x3d8f8590	0.07007897
7	0xbf0d8e63	-0.5529539

attention_do.q_GBN.bias f4 [8]
0	0xc030a912	-2.7603192
1	0x3fbe056c	1.4845405
2	0xbfe781f9	-1.808654
3	0xbfb47998	-1.4099607
4	0x3f005740	0.5013313
5	0xc012abda	-2.291739
6	0x3f4fd0b5	0.81177837
7	0x3f8bc4d4	1.0919442

attention_do.q_GBN.m f4 [1, 1, 1, 8]
0	0x3f6d6484	0.927315
1	0x40399874	2.89993
2	0x3fb81de2	1.438412
3	0x3f68695f	0.90785784
4	0x3f003845	0.5008586
5	0x403257f9	2.7866194
6	0x3f2147d9	0.63000256
7	0x3f558cac	0.83417773

attention_do.q_GBN.s f4 [1, 1, 1, 8]
0	0x3f524ec8	0.8215146
1	0x40a16dcd	5.0446534
2	0x4005e9ff	2.092407
3	0x3fb01590	1.375658
4	0x3fc6ea4b	1.554025
5	0x403f30ea	2.9873605
6	0x401462e1	2.318535
7	0x3fb65e4d	1.4247528

attention_do.v_GBN.gamma f4 [8]
0	0x3e8ff0fd	0.28113547
1	0x3f061799	0.5237976
2	0x3f6f607f	0.93506616
3	0x3f236b66	0.6383575
4	0x3fc0cd25	1.5062605
5	0x3fb0e1c1	1.3818895
6	0x3fa57a80	1.2928009
7	0x3f5eadd3	0.86983985

attention_do.v_GBN.bias f4 [8]
0	0xbf32a38a	-0.6978079
1	0x3f39d527	0.7259087
2	0x3cb176a7	0.021663023
3	0x3f7540cd	0.95802003
4	0x3d862e85	0.06551842
5	0x3e9cad14	0.30600798
6	0x3f901ba9	1.1258441
7	0xbf0a7c4f	-0.5409593

attention_do.v_GBN.m f4 [1, 1, 1, 8]
0	0x403ed2d5	2.9816182
1	0x3fa3a7bd	1.2785565
2	0x3f8bcb8c	1.0921493
3	0x3c936e90	0.017997056
4	0x3f66bbe9	0.9013048
5	0x407c71fa	3.9444566
6	0x4037e1fb	2.8731678
7	0x408a102e	4.314475

attention_do.v_GBN.s f4 [1, 1, 1, 8]
0	0x3f94156e	1.156904
1	0x3fa96cf1	1.3236371
2	0x3ff8b535	1.94303
3	0x3eeac07e	0.45849985
4	0x3f70fcb2	0.9413558
5	0x40176d99	2.3660643
6	0x3fe51c3e	1.7899244
7	0x3ffbf089	1.968278

attention_do.qv_GBN.gamma f4 [8]
0	0x3fe23d2d	1.7674919
1	0x4003f697	2.0619256
2	0x3fbb9bf3	1.4656967
3	0x3f1e7c39	0.619083
4	0xbea2958f	-0.3175473
5	0x3f6f4332	0.93461907
6	0x3f6661a4	0.8999274
7	0x3fb9856f	1.4493846

attention_do.qv_GBN.bias f4 [8]
0	0xbf72acc3	-0.94794863
1	0x3fa302ed	1.2735268
2	0x3e8429a8	0.2581303
3	0x3ffa4f33	1.955542
4	0x3f99ecc1	1.2025377
5	0x3ec13331	0.37734368
6	0x3fba71ba	1.4565957
7	0xbf33e1ca	-0.702664

attention_do.qv_GBN.m f4 [1, 1, 1, 8]
0	0xbc03c8d8	-0.00804349
1	0x3f8742c8	1.0567255
2	0x3ebd8175	0.3701283
3	0x3f6d7bb8	0.92766905
4	0x402245f6	2.53552
5	0x3f0b5410	0.54425144
6	0x3ffac87a	1.959243
7	0x401b0093	2.42191

attention_do.qv_GBN.s f4 [1, 1, 1, 8]
0	0x3eaf23d1	0.34207013
1	0x3f3aa53e	0.7290839
2	0x3f15b7e1	0.584837
3	0x3f9eadc8	1.2396784
4	0x3f8202c8	1.0157099
5	0x3f32b1c6	0.6980251
6	0x3f809a1b	1.0047029
7	0x3fa43750	1.282938

attention_do.score_GBN.gamma f4 [2]
0	0x3f56bbca	0.83880293
1	0x3ed0f568	0.4081223

attention_do.score_GBN.bias f4 [2]
0	0x3f574cff	0.8410186
1	0x40539ea1	3.306557

attention_do.score_GBN.m f4 [1, 1, 1, 2]
0	0x40870878	4.219784
1	0x3fa5f428	1.2965136

attention_do.score_GBN.s f4 [1, 1, 1, 2]
0	0x40546604	3.3187265
1	0x409aeb8f	4.8412547

attention_do.conv.m f4 [1, 1, 1, 8]
0	0x3d577531	0.052601997
1	0x3fe5962c	1.7936454
2	0x3e5a3594	0.21309501
3	0x3fdf13eb	1.7427953
4	0x3f8a6ced	1.0814492
5	0x3e404e60	0.18779898
6	0x40323d28	2.7849827
7	0xbe41be81	-0.18920328

attention_do.conv.s f4 [1, 1, 1, 8]
0	0x3f8786b4	1.0587983
1	0x3f8f3750	1.1188755
2	0x3f5b09e6	0.8556198
3	0x3edd93df	0.4327688
4	0x3f7275cd	0.94711
5	0x3edd8dca	0.4327224
6	0x3f474ef6	0.7785486
7	0x3dd7641a	0.1051714

attention_do.conv.conv.bias f4 [1, 8, 1]
0	0x3e8a78c7	0.2704527
1	0xbee08c32	-0.4385696
2	0x3ec63468	0.38711858
3	0x3f13fde1	0.57809263
4	0x3ee3592a	0.44403964
5	0x3e60f960	0.21970129
6	0xbd786003	-0.06063844
7	0xbcacddbc	-0.021101825

attention_do.conv.conv.module.weight f4 [4, 8, 1]
0	0x3fb35ef7	1.4013356
1	0xbe1d90b1	-0.15387227
2	0x3ee89b8f	0.45431182
3	0xbe0edfd5	-0.13952573
4	0x3e7b06ce	0.24514315
5	0x3f9d2e02	1.2279665
6	0x3f1f4e55	0.622289
7	0x3f2287a5	0.6348823
8	0xbeab0312	-0.3340078
9	0xbea4d377	-0.32192585
10	0xbe380bef	-0.17973302
11	0xbae5ec40	-0.0017541721
12	0xbeae775f	-0.34075448
13	0x3d166aba	0.036722876
14	0xbf3154be	-0.6926993
15	0xbf4388d5	-0.76380664
16	0x3f881a76	1.0633075
17	0x3da1f5eb	0.07908233
18	0xbef00e95	-0.46886125
19	0xbc8ffac2	-0.017575625
20	0x3e4b8b4e	0.1987736
21	0xbee2b821	-0.44281104
22	0xbf2313f2	-0.6370231
23	0x3f350eed	0.707259
24	0x3f9eb455	1.2398783
25	0x3e51d4d5	0.20491345
26	0xbef17348	-0.47158265
27	0xbe9c5431	-0.30532983
28	0xbf700249	-0.93753487
29	0x3e4cf2a7	0.2001444
30	0x3f13ceda	0.57737505
31	0x3e1dff65	0.15429457

quadjetResNetBlock.reinforce.0.sym.weight f4 [8, 1, 2]
0	0x3f000000	0.5
1	0x3f000000	0.5
2	0x3f000000	0.5
3	0x3f000000	0.5
4	0x3f000000	0.5
5	0x3f000000	0.5
6	0x3f000000	0.5
7	0x3f000000	0.5
8	0x3f000000	0.5
9	0x3f000000	0.5
10	0x3f000000	0.5
11	0x3f000000	0.5
12	0x3f000000	0.5
13	0x3f000000	0.5
14	0x3f000000	0.5
15	0x3f000000	0.5

quadjetResNetBlock.reinforce.0.antisym.weight f4 [8, 1, 2]
0	0x3f000000	0.5
1	0xbf000000	-0.5
2	0x3f000000	0.5
3	0xbf000000	-0.5
4	0x3f000000	0.5
5	0xbf000000	-0.5
6	0x3f000000	0.5
7	0xbf000000	-0.5
8	0x3f000000	0.5
9	0xbf000000	-0.5
10	0x3f000000	0.5
11	0xbf000000	-0.5
12	0x3f000000	0.5
13	0xbf000000	-0.5
14	0x3f000000	0.5
15	0xbf000000	-0.5

quadjetResNetBlock.reinforce.0.conv.m f4 [1, 1, 3, 8]
0	0x3fa33086	1.2749183
1	0x4019f726	2.4057097
2	0x3fee71cb	1.8628477
3	0x3fa2fef3	1.2734054
4	0x3f677182	0.90407574
5	0x4025b7d4	2.589345
6	0x3f4e3d92	0.805627
7	0x3f6c7db5	0.92379314
8	0x3f2a346d	0.66486245
9	0x3fc5c94a	1.5452054
10	0x3f4eedba	0.8083149
11	0x3f0fe1df	0.56204027
12	0x3f22c4ca	0.63581526
13	0x3f79bef6	0.9755701
14	0x3f1baea1	0.6081334
15	0x3ed34b00	0.41268158
16	0x3e479148	0.19489014
17	0x3f6f5898	0.9349456
18	0x3ea8329a	0.32851106
19	0x3cbd0fdc	0.023078851
20	0x3f10366a	0.5633303
21	0xbe388e1b	-0.18022959
22	0xbdce5972	-0.10075654
23	0x3f876457	1.0577496

quadjetResNetBlock.reinforce.0.conv.s f4 [1, 1, 3, 8]
0	0x3fca1d96	1.5790279
1	0x4060b805	3.5112317
2	0x400f111b	2.235419
3	0x3fed6306	1.8545845
4	0x3fac5514	1.3463464
5	0x401bba3c	2.4332418
6	0x3fe81eb0	1.8134365
7	0x3f9b7e8c	1.2147994
8	0x3f4d70f2	0.80250466
9	0x4015c98a	2.340426
10	0x3f5a06d4	0.8516667
11	0x3f3c1bf7	0.7348017
12	0x3f593b3c	0.8485601
13	0x3f892c08	1.0716562
14	0x3f9900d5	1.1953379
15	0x3ef807b0	0.48443365
16	0x3e63fa74	0.22263509
17	0x3f59b78b	0.8504569
18	0x3f09826b	0.5371463
19	0x3e7f94ec	0.24959153
20	0x3f113256	0.5671743
21	0x3de16a14	0.11006561
22	0x3def61ee	0.116886005
23	0x3eda4479	0.42630365

quadjetResNetBlock.reinforce.0.conv.conv.bias f4 [1, 8, 1]
0	0x3faef4cc	1.3668456
1	0x3edb4c48	0.42831635
2	0xbf7d8801	-0.9903565
3	0x3f08f8da	0.5350472
4	0x3dbc98fa	0.092088655
5	0xbeb4fcd3	-0.3534914
6	0x3f7ec0d1	0.99512964
7	0x3f341c08	0.7035527

quadjetResNetBlock.reinforce.0.conv.conv.module.weight f4 [4, 8, 3]
0	0xbd2f27c2	-0.042762525
1	0xbdecb7e7	-0.11558514
2	0x3d0f8c2f	0.0350458
3	0x3ec75e0e	0.38938946
4	0xbe15a876	-0.14615044
5	0xbeb81bf4	-0.35958827
6	0x3f6ed4ca	0.9329344
7	0xbcf3e7fd	-0.029773707
8	0xbf5bde6f	-0.8588628
9	0x3ee358a0	0.44403553
10	0xbe586ab4	-0.21134454
11	0xbea98964	-0.33112633
12	0xbf4afa80	-0.7928848
13	0xbed2ecaa	-0.41196185
14	0x3cfa94c8	0.030588523
15	0xbd00853b	-0.03137706
16	0x3f2379a6	0.63857496
17	0xbde7dafd	-0.113210656
18	0xbf15a97d	-0.58461744
19	0xbcd1cf46	-0.025611531
20	0x3e80d2ad	0.25160733
21	0x3f21427e	0.62992084
22	0x3df12495	0.117745556
23	0x3dee25bf	0.11628293
24	0xbed9d072	-0.42541844
25	0x3d781fc9	0.060577188
26	0xbd9067f8	-0.070510805
27	0xbf12b227	-0.5730309
28	0xbf5842d1	-0.84476954
29	0x3e68bf06	0.2272912
30	0x3f46bfbc	0.77636313
31	0x3e254f77	0.16143595
32	0xbea9e7c1	-0.33184627
33	0xbe90c280	-0.28273392
34	0xbe3741e3	-0.17896228
35	0x3dc4d921	0.096117266
36	0x3c2d6d86	0.010585194
37	0x3dae48d2	0.08509983
38	0xbeacd4f6	-0.33756226
39	0xbdda40b7	-0.106568746
40	0xbefe058d	-0.4961361
41	0xbe9ef5d3	-0.31046924
42	0xbf6ca2b2	-0.92435753
43	0x3e1ccba4	0.15312058
44	0xbcd93bb5	-0.026517728
45	0x3e0c7489	0.1371633
46	0xbeb6bc0e	-0.3569035
47	0xbde9cb24	-0.11415699
48	0x3f4e0405	0.80474883
49	0x3df238a2	0.11827208
50	0xbc989c22	-0.018629137
51	0x3f4f5d1a	0.81001437
52	0x3f3b7dbe	0.7323874
53	0x3eb2837c	0.3486594
54	0x3ea84800	0.32867432
55	0xbe055fdb	-0.13024847
56	0xbc96f5de	-0.018427785
57	0x3f6111ea	0.8791796
58	0x3ea88bfe	0.32919306
59	0xbeda3b4c	-0.42623365
60	0xbe3606d0	-0.17776036
61	0x3eb5527e	0.354145
62	0x3f08b3ff	0.5339965
63	0xbf246de6	-0.6423019
64	0xbf6846e5	-0.90733176
65	0xbcc51d70	-0.024061888
66	0xbf2e69d5	-0.68130237
67	0xbda4e04f	-0.08050596
68	0x3e349ace	0.17637178
69	0x3ead68ee	0.33869117
70	0xbf13af64	-0.576895
71	0x3e96d332	0.29458004
72	0xbf92a546	-1.1456687
73	0x3e4a33b7	0.1974629
74	0x3e731e75	0.23742087
75	0xbf05bb94	-0.52239347
76	0x3fe06e9b	1.7533754
77	0x3d45b834	0.048271373
78	0x3eb4e19f	0.35328385
79	0x3f0bec35	0.546573
80	0xbea64573	-0.3247486
81	0x3e614fce	0.220031
82	0xbe19e9b3	-0.15030555
83	0xbdf8e6e7	-0.12153416
84	0xbdc8b126	-0.097994134
85	0x3e6c34ef	0.23067068
86	0xbe4380ab	-0.19092052
87	0x3f28b6fc	0.6590421
88	0xbdc8290b	-0.09773453
89	0x3db62592	0.08893885
90	0xbed51e74	-0.41624796
91	0xbe8d6ca8	-0.2762196
92	0xbe07e534	-0.13271028
93	0x3f3e5475	0.7434762
94	0xbf1ad01f	-0.6047382
95	0x3dd9cb0e	0.10634433

quadjetResNetBlock.reinforce.1.sym.weight f4 [8, 1, 2]
0	0x3f000000	0.5
1	0x3f000000	0.5
2	0x3f000000	0.5
3	0x3f000000	0.5
4	0x3f000000	0.5
5	0x3f000000	0.5
6	0x3f000000	0.5
7	0x3f000000	0.5
8	0x3f000000	0.5
9	0x3f000000	0.5
10	0x3f000000	0.5
11	0x3f000000	0.5
12	0x3f000000	0.5
13	0x3f000000	0.5
14	0x3f000000	0.5
15	0x3f000000	0.5

quadjetResNetBlock.reinforce.1.antisym.weight f4 [8, 1, 2]
0	0x3f000000	0.5
1	0xbf000000	-0.5
2	0x3f000000	0.5
3	0xbf000000	-0.5
4	0x3f000000	0.5
5	0xbf000000	-0.5
6	0x3f000000	0.5
7	0xbf000000	-0.5
8	0x3f000000	0.5
9	0xbf000000	-0.5
10	0x3f000000	0.5
11	0xbf000000	-0.5
12	0x3f000000	0.5
13	0xbf000000	-0.5
14	0x3f000000	0.5
15	0xbf000000	-0.5

quadjetResNetBlock.reinforce.1.conv.m f4 [1, 1, 3, 8]
0	0x400afe15	2.171758
1	0x4005fe2f	2.0936391
2	0x3fdec2fc	1.7403255
3	0x3fe58407	1.7930917
4	0x3fc17bb5	1.5115877
5	0x40289044	2.6338053
6	0x3f97c075	1.1855608
7	0x3f639c72	0.8891059
8	0x3f6302dc	0.8867624
9	0x3fb99d04	1.4501042
10	0x3f20c8de	0.628065
11	0x3f3b7d81	0.7323838
12	0x3f4cce78	0.80002546
13	0x3f8531f4	1.040587
14	0x3f3d57c4	0.73962045
15	0x3f203ffa	0.6259762
16	0x3ff3ec95	1.9056574
17	0x4004c292	2.0743756
18	0x3f9e3135	1.2358767
19	0x3f5d666a	0.86484396
20	0x3f95407e	1.1660306
21	0x3f0c1b10	0.54728794
22	0x3feec4b4	1.8653779
23	0x3ff09577	1.8795613

quadjetResNetBlock.reinforce.1.conv.s f4 [1, 1, 3, 8]
0	0x4007b1f4	2.1202364
1	0x4052ca97	3.293615
2	0x40129563	2.2903678
3	0x3fd5d59c	1.6705813
4	0x4012322a	2.2843118
5	0x40207a52	2.5074658
6	0x3ff54e60	1.9164543
7	0x3fdc930b	1.7232374
8	0x3f74e375	0.9565957
9	0x40129130	2.2901115
10	0x3f38cb15	0.7218488
11	0x3f345241	0.7043801
12	0x3f880c41	1.062874
13	0x3f8fcd00	1.1234436
14	0x3f8c3470	1.0953503
15	0x3f84e4cd	1.0382324
16	0x3fdb5f10	1.7138386
17	0x3feac112	1.834017
18	0x400caa17	2.1978815
19	0x3fa8cb7c	1.3187099
20	0x400addb1	2.169781
21	0x3ff974c4	1.9488759
22	0x4001df9f	2.0292737
23	0x3fe6cb7f	1.8030852

quadjetResNetBlock.reinforce.1.conv.conv.bias f4 [1, 8, 1]
0	0xbebe9f38	-0.3723085
1	0x3f9edf05	1.241181
2	0x3f81660e	1.010927
3	0xbf719af6	-0.94377077
4	0x3f2c522f	0.673129
5	0xbf848fa6	-1.0356338
6	0xbf826d8d	-1.0189682
7	0x3f923a80	1.1424103

quadjetResNetBlock.reinforce.1.conv.conv.module.weight f4 [4, 8, 3]
0	0xbeab01f2	-0.33399922
1	0xbeb23549	-0.34806278
2	0xbe9aa08f	-0.3020062
3	0xbe08fc0a	-0.13377395
4	0xbf8097d3	-1.0046333
5	0xbdec8a03	-0.11549761
6	0x3f7e2d83	0.99288195
7	0x3e528f50	0.20562482
8	0xbd5fd941	-0.05465055
9	0xbe71fa1f	-0.2363057
10	0xbd4bebb0	-0.049785316
11	0xbf6814e1	-0.9065686
12	0x3f1882c9	0.5957456
13	0xbde8c7f5	-0.11366264
14	0x3ede809a	0.4345749
15	0xbf7a487e	-0.97766864
16	0x3e2d93c0	0.16950893
17	0x3d7276c9	0.059195314
18	0xbed2cf1a	-0.4117363
19	0xbe05641b	-0.13026468
20	0xbf8001eb	-1.0000585
21	0x3c55b620	0.01304391
22	0xbda89fa9	-0.08233578
23	0x3e75ed6d	0.24016352
24	0xbdfbf36b	-0.12302288
25	0xbe08869a	-0.13332596
26	0xbe16dd37	-0.14732824
27	0x3f3aeb12	0.7301494
28	0xbed2f361	-0.41201308
29	0xbe933448	-0.28750825
30	0xc00fe0a7	-2.2480867
31	0xbc946d57	-0.018118544
32	0xbd1954de	-0.03743445
33	0xbed58d9a	-0.41709596
34	0x3cf00a79	0.029301869
35	0xbe87ef7a	-0.26549894
36	0xbeb2ce6a	-0.34923106
37	0xbe1149c7	-0.141883
38	0xbed25c6f	-0.41086146
39	0x3f39b87f	0.72547144
40	0x3ee4bcf6	0.44675416
41	0x3fcde769	1.6086246
42	0x3fba4923	1.455357
43	0x3e627be4	0.22117573
44	0xbbb8e3db	-0.005642397
45	0xbeabcc59	-0.33554342
46	0x3de70c32	0.11281623
47	0xbc75632f	-0.0149772605
48	0x3fc673f6	1.5504138
49	0x3e1e4b00	0.15458298
50	0x3f2d21d3	0.67629737
51	0xbebf4368	-0.37356114
52	0x3f045d5b	0.5170495
53	0x3e96e824	0.29473984
54	0xbd7abdad	-0.061216045
55	0xbc3f2c90	-0.011668339
56	0xbefa438c	-0.4887966
57	0x3cdaf51a	0.026728202
58	0xbe080a96	-0.13285288
59	0xbcf673fc	-0.030084603
60	0xbf452114	-0.770036
61	0xbecb65d2	-0.3972612
62	0xbec7cfae	-0.39025635
63	0xbf54d87b	-0.83142823
64	0xbd792e12	-0.06083495
65	0x3f55a3f3	0.8345329
66	0x3e135f71	0.14391877
67	0x3d6c1c96	0.05764445
68	0xbe324f29	-0.1741301
69	0x3f0ab41a	0.54181063
70	0x3d13d183	0.036088478
71	0x3bf7009c	0.0075379144
72	0xbedd3bbb	-0.43209633
73	0xbd60fec9	-0.054930482
74	0xbddd8c14	-0.108177334
75	0x3fba2f48	1.4545679
76	0x3eb63689	0.35588482
77	0x3d882d5f	0.06649279
78	0xbefa6ccb	-0.48911127
79	0xbd1c0807	-0.038093593
80	0x3f0aee8a	0.5427023
81	0xbf5818ef	-0.84413046
82	0x3e123cf5	0.14281066
83	0x3eca1798	0.39471126
84	0x3e183ca3	0.14866881
85	0x3d2865f1	0.041112844
86	0xbee80dad	-0.45322934
87	0x3e03d376	0.12873635
88	0x3e1b8e02	0.1519089
89	0xbf302e98	-0.68821096
90	0xbe7d499e	-0.24735114
91	0xbe926161	-0.2858992
92	0x3f07780a	0.5291754
93	0x3f1d478b	0.6143729
94	0x3e73ac9c	0.23796314
95	0x3e2ad3f9	0.16682424

quadjetResNetBlock.conv.0.m f4 [1, 1, 1, 8]
0	0x3fa33086	1.2749183
1	0x4019f726	2.4057097
2	0x3fee71cb	1.8628477
3	0x3fa2fef3	1.2734054
4	0x3f677182	0.90407574
5	0x4025b7d4	2.589345
6	0x3f4e3d93	0.80562705
7	0x3f6c7db5	0.92379314

quadjetResNetBlock.conv.0.s f4 [1, 1, 1, 8]
0	0x3ff22cab	1.8919882
1	0x408fccf6	4.4937696
2	0x40219a3e	2.5250392
3	0x4004a3e2	2.0725026
4	0x3fdb5ce9	1.7137729
5	0x4035413e	2.832107
6	0x40105a55	2.2555134
7	0x3faf8a91	1.3714162

quadjetResNetBlock.conv.0.conv.bias f4 [1, 8, 1]
0	0x3ed4909a	0.41516572
1	0xbfbaec90	-1.4603443
2	0xbf012b0e	-0.5045632
3	0x3f1ad424	0.6047995
4	0xbc0ed4d0	-0.008717731
5	0xbe354823	-0.17703299
6	0x3ef199b5	0.47187582
7	0xbeb7927b	-0.35853943

quadjetResNetBlock.conv.0.conv.module.weight f4 [4, 8, 1]
0	0xbf95b83a	-1.1696846
1	0xbdea74e9	-0.1144808
2	0xbe91ebbd	-0.28500167
3	0xbf8ddd9a	-1.1083252
4	0x3d20035c	0.039065704
5	0x3f64d564	0.8938811
6	0x3ece0c17	0.402436
7	0x3f967c8e	1.1756761
8	0x3e27355b	0.16328947
9	0x3f19495c	0.5987756
10	0xbf13866d	-0.5762699
11	0xbcd4f34e	-0.025994923
12	0xbd8bcf85	-0.068266906
13	0xba61ceb7	-0.0008613872
14	0xbf38287f	-0.7193679
15	0xbd87186f	-0.06596457
16	0xbeae86e1	-0.3408728
17	0x3f02bc57	0.51068634
18	0xbf00a58b	-0.502526
19	0x3ed45684	0.41472256
20	0x3d12b357	0.035815563
21	0xbf357371	-0.70879275
22	0x3dc9b85c	0.09849617
23	0xbea7d00f	-0.32775924
24	0x3f202ee5	0.62571555
25	0xbf659d3a	-0.89693034
26	0xbdf2af36	-0.11849825
27	0xbf8f18b2	-1.1179411
28	0xbee57e6c	-0.44823015
29	0xbf613772	-0.8797523
30	0xbf9c7642	-1.222359
31	0xbed58632	-0.41703945

select_q.m f4 [1, 1, 1, 8]
0	0x3f8b5b20	1.0887184
1	0x4055ddbc	3.3416586
2	0x3fed171e	1.852268
3	0x3e20214c	0.15637702
4	0x40072f9a	2.1122804
5	0x3f879d9a	1.0594971
6	0x3eec4ba7	0.46151468
7	0x401a96e5	2.4154599

select_q.s f4 [1, 1, 1, 8]
0	0x3ff5af24	1.9194074
1	0x406bba6e	3.6832538
2	0x4005f0a0	2.0928116
3	0x3f505680	0.8138199
4	0x40149c52	2.322041
5	0x40020099	2.0312865
6	0x3fb0de62	1.3817866
7	0x3fd78665	1.6837889

select_q.conv.module.weight f4 [1, 8, 1]
0	0x3e621158	0.22076929
1	0xbdd24552	-0.10267128
2	0x3e720711	0.23635508
3	0xbb56c1f1	-0.0032769407
4	0xbe5b4d1f	-0.21416138
5	0x3ed11e6d	0.40843526
6	0xbe095a2e	-0.13413307
7	0xbde64d59	-0.11245222

out.m f4 [1, 1, 1, 8]
0	0x3ff422fe	1.9073179
1	0x400f3e62	2.2381825
2	0x3fac1530	1.3443966
3	0x3e7c3209	0.24628462
4	0x3fa799dd	1.309383
5	0x4001fc16	2.031011
6	0x3f55bbf6	0.8348993
7	0x40244f92	2.5673566

out.s f4 [1, 1, 1, 8]
0	0x3fab037e	1.3360441
1	0x3ff0c288	1.8809366
2	0x3f9d4a7b	1.2288355
3	0x3f075e67	0.5287842
4	0x3f8502a7	1.0391434
5	0x3fd6aa07	1.6770638
6	0x3f8aa346	1.0831077
7	0x3fb82528	1.4386339

out.conv.module.weight f4 [5, 8, 1]
0	0xbe8a9c92	-0.2707258
1	0xbec8bd38	-0.39206862
2	0x3f9557d8	1.1667433
3	0x3d50a03b	0.050934058
4	0x3debb55d	0.11509202
5	0xbe655821	-0.223969
6	0xbf137bef	-0.5761098
7	0xbddd47ff	-0.10804748
8	0xbeda4d82	-0.4263726
9	0x3f1876b4	0.59556127
10	0xbdda51c0	-0.10660124
11	0x3e08efc6	0.13372716
12	0xbd1a5eb8	-0.037687987
13	0xbf1414cc	-0.57844234
14	0x3e81b26a	0.25331432
15	0x3ef3035f	0.4746351
16	0x3f316975	0.6930154
17	0xbe7c89f4	-0.24662
18	0x3d837e99	0.06420631
19	0xbeb8c316	-0.3608634
20	0x3e8b2519	0.2717674
21	0xbf01a3b6	-0.5064043
22	0x3f2e9bdf	0.6820659
23	0xbf904de2	-1.1273768
24	0xbe23af37	-0.15984808
25	0xbd994b5d	-0.074850775
26	0xbd6355b1	-0.055501644
27	0x3e476660	0.19472647
28	0x3e06d820	0.13168383
29	0x3f67b235	0.905063
30	0xbf1a9733	-0.6038696
31	0x3f0b169b	0.5433137
32	0xbf2dbacf	-0.6786317
33	0xbe4fb7d7	-0.20284973
34	0x3e37a3bf	0.17933558
35	0xbe421a04	-0.18955237
36	0xbe942238	-0.28932357
37	0x3f4c86a7	0.79892963
38	0x3f26b30f	0.6511697
39	0xbf04300d	-0.5163582

out.conv.module.bias f4 [5]
0	0xc0142863	-2.314965
1	0x3fdbfcd2	1.718653
2	0xbfa66669	-1.3000003
3	0x3e079c7e	0.13243291
4	0xbf6837bb	-0.9071004
